saved_models/pd_model_0x31_s.pth (torch, 1871 bytes, 3 tensors)

fc1.weight f4 [8, 4]
000000 90 7d b2 3d d4 62 65 be 38 c5 a6 3e ae 05 de 3e
       0.087153554 -0.22400981 0.3257234 0.43363708
000010 34 3a 31 be 90 07 6e 3e 1c 8a 78 be e4 8d 2d 3e
       -0.17307359 0.23245072 -0.24271435 0.16948658
000020 24 2a f9 be e4 8a 61 be f0 78 b8 3e f8 f8 a3 be
       -0.48664963 -0.22025639 0.36029768 -0.32025886
000030 b2 99 ba 3e bc 7b 12 be cc d0 d3 3e 58 19 9c 3e
       0.36445385 -0.14305013 0.41370237 0.30488086
000040 50 07 24 3e da 56 c1 3e 54 0d 05 be c6 d1 b0 3e
       0.16018414 0.37761575 -0.12993366 0.34535044
000050 3c 5f e7 3e fc 4b 88 be fe 2a c2 3e 78 e9 ee bd
       0.45189846 -0.2662047 0.37923425 -0.116656244
000060 f8 65 f5 3d 8c 37 0f 3e 30 31 5b be 48 2a 77 3e
       0.119823396 0.13986033 -0.21405482 0.24137223
000070 a8 54 81 be dc 39 5c 3e 10 f5 f0 be 28 35 3f be
       -0.252599 0.21506447 -0.47061968 -0.18672621

fc1.bias f4 [8]
000000 7c 2b fe 3e 22 99 b8 3e d4 8a 5e be 9c 1c 89 3e
       0.4964255 0.3605433 -0.21732646 0.2677964
000010 a0 8f f1 bd dc 50 03 3e 64 88 47 3e f6 48 e4 3e
       -0.117949724 0.12823814 0.19485623 0.44586915

fc2.weight f4 [1, 8]
000000 58 e4 e9 3d 7b fa 9b be ba 46 67 3e 78 f2 d0 3d
       0.11420506 -0.3046454 0.22585574 0.10202497
000010 2e f6 2d be 30 01 a9 3c e5 92 91 3e c4 36 9d bd
       -0.16988441 0.020630449 0.28432384 -0.07676461
