saved_models/pd_model_0x31_s.pth (torch, 1871 bytes, 3 tensors)

fc1.weight f4 [8, 4]
0	0x40721805	3.782716
1	0x404386f2	3.0551114
2	0x3f13ce14	0.57736325
3	0xbf1d9b74	-0.6156533
4	0xc03b3c35	-2.9255497
5	0xc03cfa1a	-2.952765
6	0xbe445a19	-0.19174995
7	0xbf29f6d5	-0.6639226
8	0x3fc13670	1.5094738
9	0x400a0da1	2.1570818
10	0x3fa57634	1.2926698
11	0x3f891c30	1.0711727
12	0xc00b2ad8	-2.17449
13	0xbff2ff1f	-1.8984107
14	0xbe6e8e01	-0.23296358
15	0xbed538c0	-0.4164486
16	0xbf78dd40	-0.972126
17	0xbef2b059	-0.47400168
18	0xbde98334	-0.11401978
19	0xbe02bb6d	-0.1276681
20	0x405c3da4	3.4412622
21	0x404150c8	3.0205555
22	0xbf30517a	-0.68874323
23	0x3f273d45	0.65327865
24	0xbfecf365	-1.8511778
25	0xc053f941	-3.3120883
26	0x3ee3bb22	0.44478709
27	0x3e8d72c2	0.27626616
28	0x40619557	3.52474
29	0x403e6bcf	2.97533
30	0x3c1ea208	0.009682186
31	0xbd3b5e0b	-0.045743983

fc1.bias f4 [8]
0	0xbe7adc80	-0.24498177
1	0xbf50ead6	-0.8160833
2	0xbde61f9d	-0.112364985
3	0x3f9e6261	1.2373773
4	0xbf015178	-0.50514936
5	0xbe66e0ad	-0.22546645
6	0x403609c0	2.844345
7	0xbe6a6767	-0.22891007

fc2.weight f4 [1, 8]
0	0x403fbd37	2.9959238
1	0xbf997a89	-1.199052
2	0x3fb433b4	1.4078279
3	0xbf267c70	-0.65033627
4	0xbe3522e7	-0.17689095
5	0x402a5cfe	2.6619258
6	0xc03e7fcd	-2.9765503
7	0x40237a6d	2.5543473
