saved_models/pd_model_0x36_s.pth (torch, 68056 bytes, 6 tensors)

conv1.weight f4 [16, 1, 3, 3]
-0.2648871 0.33511236 -0.049003426 -0.1741679 0.2822581 0.290935 0.12356766 -0.14468999
0.22407861 -0.31170973 0.14764228 0.15801038 -0.075182185 0.18020019 -0.29562935 0.018305715
-0.11916055 0.09489883 -0.2383076 -0.125503 0.00578141 -0.18007286 0.30303305 -0.21824494
-0.07064554 -0.2990138 -0.26226103 0.3052956 -0.025325518 0.2524143 0.3239258 -0.11388528
0.17771201 -0.17833881 -0.042132944 -0.17827962 0.3133492 0.15405095 0.058781814 -0.16979103
0.2798854 0.10430991 0.1408717 -0.21891236 0.37467945 -0.20718378 -0.11135607 0.30193338
-0.26814997 0.29509208 -0.27469987 -0.14807814 0.14600302 -0.08774962 -0.10329091 -0.07970807
0.057673085 -0.016650992 0.19757277 -0.17321503 -0.12788078 0.17826712 0.078708135 0.04087154
0.09238602 0.2865105 -0.0020465802 0.07012251 -0.11534459 0.17332423 0.21422109 0.29869878
0.056867268 -0.2862555 0.066769235 -0.28803733 -0.22505145 0.2568482 -0.13842712 0.21734075
0.3002276 -0.114171095 -0.039260782 -0.28142235 -0.33508292 0.1374264 -0.19329351 0.28163815
0.14807694 -0.24014965 -0.14490223 -0.20833209 -0.01909147 -0.32430515 -0.19540344 0.12651719
0.26094618 0.09707408 0.108928196 0.3202459 0.093667895 0.24990727 -0.14506803 0.2340677
0.04062157 0.29608664 -0.26441422 0.23466484 0.15890177 0.2335584 -0.06940548 -0.33759078
-0.14732994 0.3305518 0.23476444 0.14446133 0.31434134 -0.29774496 0.13841237 0.17919074
-0.27047172 -0.17889424 0.28744 0.014763455 0.1091022 -0.25853708 0.18799056 0.152471
-0.1489502 -0.13406765 0.034873225 -0.32064646 0.29006276 0.05047746 -0.10120659 0.32685736
-0.1310672 0.19674027 -0.07606435 -0.14046642 0.06544959 0.03316335 -0.05247409 0.27387112
00000000: 489f 87be d993 ab3e d1b7 48bd 1259 32be
00000010: 2284 903e 6ff5 943e 0b11 fd3d 9d29 14be
00000020: dd74 653e 6b98 9fbe 8a2f 173e 79cd 213e
00000030: 1ef9 99bd 6686 383e bb5c 97be def5 953c
00000040: 720a f4bd 515a c23d e806 74be dc83 00be
00000050: fb71 bd3b 0565 38be 2627 9b3e 9a7b 5fbe
00000060: 9cae 90bd 5618 99be 1447 86be b44f 9c3e
00000070: 7677 cfbc 723c 813e 9ad9 a53e b03c e9bd
00000080: 23fa 353e 739e 36be 9893 2cbd ef8e 36be
00000090: 4e6f a03e 88bf 1d3e 33c5 703d b3dd 2dbe
000000a0: 244d 8f3e 6fa0 d53d ac40 103e 902a 60be
000000b0: fcd5 bf3e fc27 54be a70e e4bd 0397 9a3e
000000c0: f44a 89be 4f16 973e 76a5 8cbe cca1 17be
000000d0: d181 153e 13b6 b3bd 2f8a d3bd fc3d a3bd
000000e0: 9d3a 6c3d a967 88bc 8450 4a3e 485f 31be
000000f0: 2ef3 02be a88b 363e bb31 a13d ea68 273d
00000100: e234 bd3d 81b1 923e eb1f 06bb 649c 8f3d
00000110: c939 ecbd e87b 313e c65c 5b3e 0cef 983e
00000120: a7ed 683d 1590 92be 4fbe 883d a179 93be
00000130: e373 66be 9b81 833e d7bf 0dbe 938e 5e3e
00000140: 6fb7 993e 89d2 e9bd eacf 20bd 9716 90be
00000150: fd8f abbe 82b9 0c3e bcee 45be e032 903e
00000160: 7ba1 173e cae9 75be 4061 14be 0255 55be
00000170: b765 9cbc 530b a6be d717 48be b98d 013e
00000180: bd9a 853e c6ce c63d bf15 df3d 45f7 a33e
00000190: f4d4 bf3d b1e7 7f3e b78c 14be 71af 6f3e
000001a0: ce62 263d ab98 973e 4d61 87be fb4b 703e
000001b0: 25b7 223e ef29 6f3e 7624 8ebd b3d8 acbe
000001c0: a9dd 16be 163e a93e 1766 703e aced 133e
000001d0: 59f1 a03e 0772 98be f9bb 0d3e c77d 373e
000001e0: 457b 8abe 0d30 37be 562b 933e 6be2 713c
000001f0: f970 df3d f95e 84be 9980 403e 5c21 1c3e
00000200: 6786 18be 0849 09be 3ad7 0e3d c62b a4be
00000210: 1b83 943e 74c1 4e3d 6745 cfbd d959 a73e
00000220: 7b36 06be 4876 493e a0c7 9bbd 6ed6 0fbe
00000230: 6f0a 863d 4bd6 073d 12ef 56bd d638 8c3e

conv1.bias f4 [16]
0.1749821 0.29603252 -0.113240436 0.05146959 -0.19288723 -0.09623603 0.2252017 0.2660121
0.0016773079 0.04787163 0.09717555 -0.13231878 0.26641104 0.11696356 0.10845482 -0.19698314
00000000: 822e 333e 9391 973e 9aea e7bd c7d1 523d
00000010: 3b84 45be 6517 c5bd 469b 663e bd32 883e
00000020: 1dd9 db3a 0b15 443d fa03 c73d 937e 07be
00000030: 0767 883e 978a ef3d 901d de3d f3b5 49be

conv2.weight f4 [32, 16, 3, 3]
-0.037771054 0.04220155 0.006403905 -0.027925216 0.06781696 0.071131654 0.05712622 -0.044437658
-0.027991433 -0.052140042 0.07526306 -0.040732134 -0.05935339 -0.08990658 -0.067984335 -0.0501902
-0.052172948 0.061402965 -0.0042221593 0.034750536 0.02697344 0.022755371 -0.006540848 0.07185371
-0.03504926 0.035835512 -0.01598957 -0.013259261 -0.031062707 0.04815896 -0.003463705 -0.011532929
0.015576474 -0.00542052 0.006819059 0.018349813 0.0274304 0.03568501 0.029954022 -0.018580638
0.07364042 0.06250662 0.047380432 -0.06528141 -0.059204552 -0.063369505 -0.047371455 0.052723743
-0.06091885 -0.08207383 0.085927576 0.070694454 0.014785365 -0.08656933 0.041993026 -0.038242787
-0.024258293 0.0107340785 0.052694112 -0.013427309 0.025826886 0.04485656 -0.014687868 0.00992267
-0.055997077 -0.061342817 -0.06342043 -0.018401273 0.03892846 -0.064398445 -0.08354823 -0.019272735
0.047912523 -0.048958454 -0.012255477 -0.07429895 0.046076838 -0.04082701 -0.019343028 -0.04174528
0.034783438 -0.043679807 0.074652866 -0.009336114 0.0005768514 -0.06414853 -0.057622775 -0.069584675
-0.0033781666 -0.03570269 -0.043362737 -0.043985453 0.072115265 0.016989153 -0.014731396 -0.055846643
0.02890346 -0.044618275 -0.04866075 -0.05318415 -0.07014882 -0.059486307 0.031834498 0.047607493
-0.013080023 -0.06986813 -0.06509383 0.028159633 -0.07507311 -0.043165628 0.038681157 0.06537679
-0.068604134 0.075796254 -0.0059391437 -0.08001405 -0.08170024 0.009253639 0.05997272 0.07471363
0.059020545 0.015251914 -0.0085160285 -0.009301086 0.03721867 -0.035425726 -0.049367998 0.009767062
0.059743438 0.02109753 -0.030521052 -0.03185341 -0.009237576 0.06627853 0.013618774 0.06266182
0.05219293 0.004382858 0.039645176 -0.019299151 -0.04173055 -0.08527448 -0.08986807 -0.09128435
0.05395162 0.03774895 -0.014820322 -0.029322231 -0.06483584 0.090092316 -0.0045081177 0.062577754
-0.008043516 -0.037163515 -0.052215517 -0.0001527373 -0.043623816 0.018981095 0.087978125 0.07954758
0.05436377 0.15334219 0.050589815 0.011072357 0.026845941 -0.09484654 0.03684267 -0.12338013
0.048874974 0.023146493 0.12827967 0.034563858 -0.057082944 -0.041726884 -0.087211266 -0.037456874
-0.041090947 -0.09256077 -0.0693473 -0.019024467 -0.008959212 0.04472494 -0.09377996 0.023530329
-0.09808209 0.09334896 -0.11170747 -0.08900026 0.117885344 0.060401224 -0.014002597 -0.056209065
-0.023684546 -0.060457733 -0.06675434 -0.053353008 -0.018805813 0.03550504 -0.05459404 0.06857129
0.015868364 -0.057576388 0.033367094 0.09247782 -0.017908227 -0.049609732 0.13156901 -0.006727731
0.03822463 -0.050987724 0.02486848 -0.0975396 -0.020669365 -0.08889226 -0.007677018 0.01856489
0.06481615 0.0124427825 -0.055040102 0.043909308 -0.07458342 0.047418244 0.020492898 -0.09225409
0.14285496 0.055675484 -0.004191292 -0.019018356 -0.043956466 -0.042545624 0.055687945 0.06549405
0.022739284 0.11723893 -0.071174785 0.017005041 -0.025764138 -0.08061106 0.015212586 -0.04685
-0.034366332 -0.09837733 0.042972013 -0.017826196 0.02948535 0.042433105 0.03680855 -0.052795928
-0.003855413 -0.07357593 -0.09316736 -0.018669527 0.00037264102 -0.019842843 -0.051593333 -0.07342926
00000000: d2b5 1abd 88db 2c3d d9d7 d13b 6cc3 e4bc
00000010: 9ee3 8a3d 79ad 913d 2ffd 693d 4304 36bd
00000020: 4a4e e5bc cc90 55bd 8523 9a3d bdd6 26bd
00000030: 8a1c 73bd f120 b8bd 5f3b 8bbd 3d94 4dbd
00000040: 4db3 55bd ad81 7b3d 0a5a 8abb 9456 0e3d
00000050: 67f7 dc3c 7969 ba3c 9c54 d6bb 0a28 933d
00000060: d08f 0fbd 42c8 123d 8ffc 82bc 5f3d 59bc
00000070: 3877 febc 5442 453d 54ff 62bb 9cf4 3cbc
00000080: 7834 7f3c 9e9e b1bb 6a72 df3b 5952 963c
00000090: b8b5 e03c 722a 123d 2362 f53c 6c36 98bc
000000a0: cad0 963d 7903 803d fc11 423d 43b2 85bd
000000b0: 7980 72bd dfc7 81bd 9208 42bd daf4 573d
000000c0: 0b86 79bd 5316 a8bd ccfa af3d 41c8 903d
000000d0: 513e 723c 434b b1bd e100 2c3d 78a4 1cbd
000000e0: 54b9 c6bc fddd 2f3c c8d5 573d 37fe 5bbc
000000f0: e892 d33c 83bb 373d 62a5 70bc b292 223c
00000100: 315d 65bd 9b42 7bbd 92e2 81bd 44be 96bc
00000110: 7373 1f3d 55e3 83bd 561b abbd dbe1 9dbc
00000120: ec3f 443d a988 48bd 32cb 48bc 0c2a 98bd
00000130: 11bb 3c3d 393a 27bd 4575 9ebc 19fd 2abd
00000140: 1479 0e3d 99e9 32bd 9ae3 983d 80f6 18bc
00000150: d837 173a 4e60 83bd dc05 6cbd 6982 8ebd
00000160: 3b64 5dbb fc3c 12bd 209d 31bd 172a 34bd
00000170: 2bb1 933d d62c 8b3c f45b 71bc 73bf 64bd
00000180: f3c6 ec3c a7c1 36bd 7f50 47bd a0d7 59bd
00000190: 2faa 8fbd eaa7 73bd e464 023d 1300 433d
000001a0: 984d 56bc 0617 8fbd ea4f 85bd 08af e63c
000001b0: eebf 99bd 71ce 30bd 2270 1e3d 44e4 853d
000001c0: 5380 8cbd 113b 9b3d 269d c2bb 68de a3bd
000001d0: 7552 a7bd 939c 173c f4a5 753d 7603 993d
000001e0: 87bf 713d 2ae3 793c d086 0bbc 9563 18bc
000001f0: 9b72 183d 911a 11bd 1936 4abd 0706 203c
00000200: 89b5 743d bad4 ac3c 4907 fabc b978 02bd
00000210: 3459 17bc 0abd 873d 4721 5f3c d754 803d
00000220: 41c8 553d 149e 8f3b fb62 223d 4119 9ebc
00000230: a7ed 2abd 63a4 aebd c00c b8bd 4af3 babd
00000240: 60fc 5c3d a59e 1a3d f0d0 72bc 2d35 f0bc
00000250: a7c8 84bd 5282 b83d d5b8 93bb c428 803d
00000260: f4c8 03bc c538 18bd f0df 55bd 1b28 20b9
00000270: e3ae 32bd 3e7e 9b3c e02d b43d d7e9 a23d
00000280: 8bac 5e3d bc05 1d3e 4437 4f3d d568 353c
00000290: 05ec db3c e73e c2bd 57e8 163d b9ae fcbd
000002a0: 2031 483d b79d bd3c bf5b 033e d592 0d3d
000002b0: cecf 69bd cfe9 2abd d29b b2bd 616c 19bd
000002c0: fb4e 28bd 8090 bdbd f505 8ebd 33d9 9bbc
000002d0: a9c9 12bc 8031 373d b50f c0bd adc2 c03c
000002e0: 43df c8bd bd2d bf3d e3c6 e4bd c545 b6bd
000002f0: df6d f13d 4667 773d 266b 65bc 7a3b 66bd
00000300: 1806 c2bc 87a2 77bd 80b6 88bd af88 5abd
00000310: a60e 9abc bc6d 113d 009e 5fbd 1b6f 8c3d
00000320: 5ffe 813c 38d5 6bbd efab 083d 0365 bd3d
00000330: 46b4 92bc 9333 4bbd 07ba 063e 4c74 dcbb
00000340: 6e91 1c3d 81d8 50bd fcb8 cb3c d8c2 c7bd
00000350: cd52 a9bc 250d b6bd 7f8f fbbb 6515 983c
00000360: 54be 843d d0dc 4b3c bb71 61bd 3fda 333d
00000370: 31bf 98bd a239 423d b9e0 a73c b6ef bcbd
00000380: 9248 123e fa0b 643d 1b57 89bb 62cc 9bbc
00000390: b20b 34bd 5244 2ebd 0b19 643d bf21 863d
000003a0: bc47 ba3c f71a f03d 16c4 91bd 284e 8b3c
000003b0: 500f d3bc 6917 a5bd 363e 793c c9e5 3fbd
000003c0: b6c3 0cbd 0e7a c9bd 6c03 303d 3e08 92bc
000003d0: 438b f13c 56ce 2d3d 90c4 163d 8b40 58bd
000003e0: 19ab 7cbb faae 96bd 87ce bebd d6f0 98bc
000003f0: 085f c339 758d a2bc 8853 53bd 1462 96bd

conv2.bias f4 [32]
-0.04837042 -0.02018121 0.027432298 0.00576493 -0.072690904 -0.072524756 -0.03637636 0.041275997
0.0029238886 -0.05556714 -0.01613029 -0.049877945 0.055076387 -0.03867352 0.07274095 0.022331543
0.06330636 -0.046236444 -0.011107688 0.017160233 0.0761936 -0.010309014 -0.08445367 -0.054532256
-0.06349096 -0.022217887 -0.012818042 -0.03768236 0.012471663 0.059309077 -0.012239924 -0.013817245
00000000: 1020 46bd 1153 a5bc b3b9 e03c bde7 bc3b
00000010: f8de 94bd dc87 94bd 61ff 14bd 0511 293d
00000020: b69e 3f3b 5f9a 63bd ac23 84bc d14c 4cbd
00000030: c797 613d 2068 1ebd 35f9 943d a4f0 b63c
00000040: c4a6 813d 6d62 3dbd 05fd 35bc 9e93 8c3c
00000050: 640b 9c3d 23e7 28bc 0cf6 acbd 375d 5fbd
00000060: 8c07 82bd 4902 b6bc c402 52bc d158 1abd
00000070: f255 4c3c 13ee 723d f689 48bc ba61 62bc

fc.weight f4 [2, 5760]
0.009934021 0.0043523735 0.007071383 0.0099925995 0.011217772 0.002860951 -0.009067861 0.0013654061
0.003389693 -0.010923772 0.0038016103 -0.009721455 0.002784044 0.0010189641 0.011476284 0.0073460615
0.0064304415 -0.00297936 -0.008785001 0.005799228 -0.0008680787 0.00061531464 -0.0090764845 -0.0040323697
-0.006905621 0.0083075855 -0.0017833867 0.001513634 -0.006121119 0.0057851244 0.020602128 0.010869673
0.007546115 0.00548261 -0.008114384 0.009019933 0.005851299 0.0040716827 -0.007263814 0.009181068
0.013258061 -0.00997777 0.012730307 0.008843359 0.00056039885 0.016200466 0.012542269 0.008662518
0.0005581393 -0.015697671 -0.008620314 0.00532947 -0.0023922399 0.007431466 0.0008376044 0.0036586737
0.007150485 0.005707361 -0.0037936459 0.0042462684 -0.0025671548 -0.00040309245 -0.006860513 0.00019998783
-0.013211609 0.0016807006 -0.009285988 -0.006502361 0.010894262 -0.009598012 -0.0091652945 0.00810581
0.0151743265 -0.0050459714 -0.0007205801 0.016658176 0.011090705 0.0019759801 0.004831184 0.009023525
0.0025081283 0.0073839435 0.0011793057 0.011799363 -0.0018376689 0.014101292 -0.012688677 -0.025279447
-0.01606621 0.011237034 0.011946993 -0.0017636175 0.019238308 0.01952066 0.034238175 -0.00036081564
0.007314801 0.0024939852 0.00072782487 0.006264783 0.011077279 -0.0053673745 -0.0011372977 0.009816387
-0.0014756 0.005478003 0.015980784 0.0039765905 0.012100563 -0.0015119378 -0.0049742176 -0.012295394
0.0005195723 -0.005589487 0.0018763812 -0.0035005917 -0.008192898 0.01449369 0.009215143 -0.0070099146
0.010090119 -0.0061346395 0.014283995 -0.0040180874 -0.01224042 -0.0020544596 -0.012236003 0.00047632222
0.003112058 0.004646999 -0.011689458 -0.00733815 -0.0025172266 0.011004934 0.027881403 0.018048387
0.009333999 0.01995596 0.005502182 -0.0013040013 0.0016007753 -0.0065879007 0.0053163003 -0.006583359
0.016266186 -0.009754051 -0.002692422 0.0055171167 0.019567648 -0.004385601 -0.0019532922 -0.0041656354
0.005361728 0.0073185237 -0.0009967658 0.010149705 -0.0067226747 0.013258114 0.015219818 0.018374652
0.0232942 0.0006482113 -0.0010245445 0.010455217 -0.025816705 0.0056939824 -0.0062376885 0.001419893
0.0025367602 0.011130924 0.010273621 -0.008478008 0.008932133 -0.003239951 -0.0113013955 -0.0033123554
0.021606147 0.0038101135 0.017248904 -0.0026087067 -3.1011114e-05 -0.0038994069 -0.0057225744 0.0069919466
0.01727159 0.002083559 -0.011683566 -0.0055564563 -0.0152431475 0.008427206 -0.0023832142 0.0036603282
0.0039276592 -0.013467291 0.009611765 -0.018298186 0.020650698 0.004564209 0.007657945 -0.0021964754
-0.010924817 -0.012530205 -0.005378139 0.008328746 0.008607971 -0.0006729763 0.010025028 0.011451872
-0.010662801 -0.0018567297 -0.025667997 0.006651386 0.0050983788 0.0053006383 -0.0082317395 -0.013712428
0.018813968 -0.012094064 0.00044881232 0.01015469 -0.007798244 0.0080312025 0.019159602 0.011467117
0.007271593 -0.015939485 -0.0038262245 0.017717227 0.013898555 0.00019777162 -0.0049114786 0.00020287576
-0.013123374 0.007848634 -0.0026084858 0.0007623733 0.004792396 -0.0011408477 0.021104747 0.014694604
-0.030027451 0.00038357475 -0.02166743 -0.01859138 -0.000110584144 0.014623772 -0.01241395 0.008560005
-0.0045393324 0.015867252 -0.025073359 -0.017953565 -0.066642046 -0.00039990258 0.013355703 0.0017330473
00000000: 4ec2 223c 5b9e 8e3b 0fb7 e73b 00b8 233c
00000010: bfca 373c cb7e 3b3b 5e91 14bc 6df7 b23a
00000020: 9d25 5e3b 9ff9 32bc 7024 793b bd46 1fbc
00000030: 8274 363b c38e 853a 0607 3c3c 3bb7 f03b
00000040: 74b6 d23b 5e41 43bb f7ee 0fbc 7307 be3b
00000050: c78f 63ba 114d 213a 89b5 14bc f821 84bb
00000060: 8c48 e2bb 8a1c 083c 87c0 e9ba 2165 c63a
00000070: ab93 c8bb 2491 bd3b cbc5 a83c b716 323c
00000080: 6745 f73b 77a7 b33b 31f2 04bc 57c8 133c
00000090: 41bc bf3b c06b 853b 4a05 eebb 316c 163c
000000a0: 5738 593c cd79 23bc c792 503c bce3 103c
000000b0: bbe7 123a d7b6 843c 177e 4d3c 3ced 0d3c
000000c0: 1850 123a 6798 80bc 383c 0dbc d6a2 ae3b
000000d0: 20c7 1cbb a883 f33b ae92 5b3a 5cc6 6f3b
000000e0: 9e4e ea3b d004 bb3b d19e 78bb 4824 8b3b
000000f0: b63d 28bb 2756 d3b9 27ce e0bb d3b3 5139
00000100: 8175 58bc f44a dc3a 4224 18bc c211 d5bb
00000110: d97d 323c fb40 1dbc 082a 16bc 3bce 043c
00000120: bd9d 783c ad58 a5bb 50e5 3cba ba76 883c
00000130: cab5 353c 727f 013b e94e 9e3b 68d7 133c
00000140: 695f 243b 02f5 f13b ef92 9a3a 1e52 413c
00000150: f0dd f0ba 1b09 673c 2be4 4fbc d816 cfbc
00000160: 499d 83bc 891b 383c 52bd 433c 2f29 e7ba
00000170: a899 9d3c cbe9 9f3c 543d 0c3d db2b bdb9
00000180: 00b1 ef3b 2172 233b 80cb 3e3a cf48 cd3b
00000190: 7a7d 353c cde0 afbb 6111 95ba e9d4 203c
000001a0: eb68 c1ba d280 b33b 22ea 823c 0f4e 823b
000001b0: 7141 463c 372c c6ba c3fe a2bb 9f72 49bc
000001c0: e833 083a 0428 b7bb e8f0 f53a 2f6a 65bb
000001d0: 813b 06bc f176 6d3c 1cfb 163c 6db3 e5bb
000001e0: 0751 253c 1605 c9bb 6b07 6a3c 29aa 83bb
000001f0: 0b8c 48bc 1da4 06bb 8479 48bc e3ba f939
00000200: abf3 4b3b da45 983b 2485 3fbc dd74 f0bb
00000210: 0ef8 24bb 0a4e 343c 8a67 e43c 36da 933c
00000220: a1ed 183c ae7a a33c a64b b43b 06eb aaba
00000230: 1bd1 d13a 51df d7bb 5c34 ae3b 38b9 d7bb
00000240: aa40 853c 75cf 1fbc 5873 30bb eec8 b43b
00000250: 554c a03c 16b5 8fbb ce02 00bb e27f 88bb
00000260: 6fb1 af3b 3ad0 ef3b e9a5 82ba f34a 263c
00000270: e249 dcbb 9038 593c 8b5c 793c 7086 963c
00000280: 7ad3 be3c b9ec 293a 024a 86ba 5c4c 2b3c
00000290: 8e7d d3bc 9694 ba3b 8665 ccbb b41b ba3a
000002a0: c63f 263b 7b5e 363c b152 283c 58e7 0abc
000002b0: 1558 123c 5c55 54bb 7d29 39bc 1a14 59bb
000002c0: 60ff b03c 19b3 793b 934d 8d3c d6f6 2abb
000002d0: ee11 02b8 318d 7fbb 6f84 bbbb b31c e53b
000002e0: 267d 8d3c 528c 083b 6d6c 3fbc ef12 b6bb
000002f0: 65be 79bc 4412 0a3c b32f 1cbb 1ee2 6f3b
00000300: 98b3 803b eaa5 5cbc aa7a 1d3c 14e6 95bc
00000310: a72b a93c 5c8f 953b 80ef fa3b bef2 0fbb
00000320: 01fe 32bc 7d4b 4dbc 1a3b b0bb 4b75 083c
00000330: 7208 0d3c ad6a 30ba 0440 243c a2a0 3b3c
00000340: 07b3 2ebc 835d f3ba b145 d2bc dff3 d93b
00000350: 4d10 a73b fab0 ad3b 6bde 06bc 17aa 60bc
00000360: c01f 9a3c 2e26 46bc 924e eb39 db5f 263c
00000370: 6988 ffbb 4e95 033c 99f4 9c3c 93e0 3b3c
00000380: 8b46 ee3b 8693 82bc 65c1 7abb b823 913c
00000390: c4b6 633c ea60 4f39 78f0 a0bb 0cbb 5439
000003a0: 6c03 57bc 8f97 003c 21f3 2abb 02da 473a
000003b0: 8809 9d3b 7f88 95ba dde3 ac3c a3c1 703c
000003c0: 21fc f5bc 881a c939 e57f b1bc f34c 98bc
000003d0: 69e9 e7b8 8c98 6f3c e163 4bbc 433f 0c3c
000003e0: aebe 94bb 0afc 813c a566 cdbc 5b13 93bc
000003f0: a07b 88bd 04aa d1b9 e1d1 5a3c 6b27 e33a

fc.bias f4 [2]
-0.0044732383 0.0048841126
00000000: 3e94 92bb e80a a03b
