saved_models/pd_model_0x31_s.pth (torch, 1871 bytes, 3 tensors)

fc1.weight f4 [8, 4]
-1.7712265 -0.9383626 -0.09016117 -0.28541735 -4.5695963 -4.706331 0.01989468 -0.035059102
-2.3605955 -2.529986 -0.39690346 -0.0764853 -2.0912216 -1.8013321 -0.28663248 -0.2308896
-0.9498616 -0.75898 -0.19590974 -0.11444214 -2.2121575 -1.6573906 -0.25310528 -0.35922855
4.09267 3.365714 -0.30578148 -0.6796005 3.9674497 4.3747277 -0.10655409 0.16623507
00000000: 8db7 e2bf 8838 70bf 6ba6 b8bd 3922 92be
00000010: 223a 92c0 439a 96c0 2bfa a23c 229a 0fbd
00000020: ff13 17c0 4aeb 21c0 ee36 cbbe 53a4 9cbd
00000030: 93d6 05c0 0d92 e6bf 7ec1 92be 536e 6cbe
00000040: 212a 73bf 834c 42bf 909c 48be a460 eabd
00000050: fd93 0dc0 6025 d4bf 0497 81be ceec b7be
00000060: 27f7 8240 dc67 5740 648f 9cbe 4cfa 2dbf
00000070: b2ea 7d40 c5fd 8b40 0839 dabd 8739 2a3e

fc1.bias f4 [8]
-0.6484388 2.8712912 -0.90375054 -0.76838344 -0.80752265 -1.183807 -0.24585682 0.4408317
00000000: 1600 26bf 3cc3 3740 325c 67bf c7b4 44bf
00000010: ceb9 4ebf fd86 97bf e4c1 7bbe b1b4 e13e

fc2.weight f4 [1, 8]
-0.8788323 -3.9600124 -0.6341327 -0.8617232 -0.47338307 -0.453237 1.1264888 2.511995
00000000: 27fb 60bf d870 7dc0 8556 22bf e499 5cbf
00000010: 445f f2be ae0e e8be c930 903f 87c4 2040
