saved_models/pd_model_0x31_w.pth (torch, 2519 bytes, 5 tensors)

fc1.weight f4 [8, 4]
0	0x3eb14662	0.3462401
1	0x3e9b6634	0.30351412
2	0x3e76ac7c	0.24089235
3	0xbe3c9cf8	-0.18419254
4	0xbebb0c06	-0.3653261
5	0xbe2258d4	-0.15854198
6	0x3d0faff0	0.035079896
7	0x3e3f3458	0.18672311
8	0xbe99c8f4	-0.30036128
9	0xbda12a28	-0.07869369
10	0x3d28fa80	0.04125452
11	0x3ed20634	0.41020358
12	0xbedcd9a8	-0.4313481
13	0x3edfdd72	0.43723637
14	0xbeb1a3ee	-0.3469538
15	0x3e4df7f8	0.20114124
16	0x3dad4260	0.08459926
17	0xbe958760	-0.29204845
18	0xbec4646a	-0.3835786
19	0x3dc54960	0.09633136
20	0x3e5c1940	0.21494007
21	0x3ed5a2ea	0.41725856
22	0x3ea08bba	0.31356603
23	0x3e46ab60	0.19401312
24	0x3eae4298	0.34035182
25	0x3e279650	0.16365933
26	0xbebca656	-0.36845654
27	0x3ec5e058	0.38647723
28	0xbe561e4c	-0.20909995
29	0xbe9305a2	-0.28715235
30	0x3ee1959e	0.4405946
31	0x3d787c40	0.06066537

fc1.bias f4 [8]
0	0xbe92f7dc	-0.28704727
1	0x3d340040	0.04394555
2	0x3ebbb77a	0.3666342
3	0xbd7931f0	-0.06083864
4	0x3e69431c	0.22779506
5	0x3eeeb8ee	0.46625465
6	0x3ee59640	0.44841194
7	0x3ede6c5a	0.4344204

fc2.weight f4 [4, 8]
0	0xbe580384	-0.21095091
1	0xbda0ff64	-0.07861212
2	0x3d0b0490	0.033939898
3	0xbc3c7260	-0.0115018785
4	0xbe5212b8	-0.20514953
5	0xbe981cda	-0.29709512
6	0x3e73cae6	0.23807868
7	0xbe76b234	-0.24091417
8	0xbc2ef460	-0.010678381
9	0xbd2a2c28	-0.041546017
10	0xbe989a3f	-0.2980518
11	0xbda42e4c	-0.08016643
12	0xbe313201	-0.17304231
13	0x3e72ebae	0.23722717
14	0xbe3f4626	-0.18679103
15	0xbcd7c2b0	-0.026337951
16	0xbd6686d0	-0.05628091
17	0xbe993679	-0.29924372
18	0xbd8e3d08	-0.069452345
19	0xbdcefa94	-0.10106388
20	0x3e4fdeb2	0.20299795
21	0x3e8a3303	0.26992044
22	0xbe392c81	-0.18083383
23	0xbe85414b	-0.26026377
24	0x3d63a880	0.055580616
25	0x3cf459e0	0.029828012
26	0xbe5fb2fa	-0.21845618
27	0x3d850f58	0.06497067
28	0xbe3c7cf4	-0.18407041
29	0x3d563920	0.052300572
30	0xbe06156a	-0.13094106
31	0x3da8dc44	0.08245137

fc2.bias f4 [4]
0	0xbe1bb9a1	-0.1520753
1	0xbe1952cd	-0.14972992
2	0xbe295deb	-0.16539733
3	0xbce3a450	-0.027788311

fc3.weight f4 [1, 4]
0	0x3eee07c4	0.464903
1	0xbe37ad70	-0.17937255
2	0xbd2fbbc0	-0.04290366
3	0xbd53ed70	-0.05174011
