saved_models/pd_model_0x31_s.pth (torch, 1871 bytes, 3 tensors)

fc1.weight f4 [8, 4]
000000 cb de 47 40 42 9d 6a 40 4f 79 a5 bf 31 a5 49 be
       3.1229732 3.6658483 -1.2927645 -0.19691922
000010 b4 f8 e5 3f d5 96 12 40 59 31 77 bf 75 37 58 3e
       1.7966523 2.290456 -0.96559674 0.21114905
000020 2c 97 0a 40 ce 83 4a 40 ea 27 87 3f b1 24 ba 3f
       2.1654768 3.1642947 1.0559056 1.4542447
000030 b8 6a a8 be a7 d0 0b bf ab d6 5e 3e e7 8e b1 bd
       -0.3289392 -0.54615253 0.21761577 -0.086698346
000040 2e 7d 1c 40 b4 dc 1e 40 c0 b1 c4 3f fa eb de bf
       2.4451404 2.4822206 1.5366745 -1.7415764
000050 8e af 59 40 74 94 88 40 8d 42 95 be be 10 25 3f
       3.40134 4.2681217 -0.29152337 0.6447867
000060 d9 0c 64 bf cd f1 2b c0 1f 95 db bc d9 e2 68 bd
       -0.89082104 -2.6866333 -0.026804505 -0.056856964
000070 ef 04 ef be 79 8c 8e 3e a3 32 8e 3c 01 41 0d 3d
       -0.46683452 0.27841547 0.01735813 0.03448582

fc1.bias f4 [8]
000000 e4 99 61 be ca b6 03 be 5b c6 23 be b3 39 e5 be
       -0.22031361 -0.12862697 -0.15993635 -0.44770584
000010 c5 20 30 be f7 32 78 be 2f cc 42 40 5e 5d 1b be
       -0.172 -0.24238192 3.0437124 -0.15172336

fc2.weight f4 [1, 8]
000000 50 57 02 40 a6 aa a3 3f 10 4e cc 3f 5a 8d 3e be
       2.0365791 1.2786453 1.5961323 -0.18608609
000010 4e 99 0e 40 63 a2 1b 40 a8 6c 17 c0 13 7f 4b bd
       2.228107 2.4317863 -2.3660069 -0.049681734
