saved_models/pd_model_0x35_w.pth (torch, 99928 bytes, 6 tensors)

conv1.weight f4 [16, 3, 3, 3]
0	0x3e313da2	0.17308667
1	0x3c7bc566	0.015366888
2	0xbe09f9ee	-0.13474247
3	0xbe3a6030	-0.18200755
4	0x3e413664	0.18868405
5	0xbc2f83ff	-0.010712623
6	0x3d7433f4	0.05961986
7	0x3e161956	0.14658102
8	0x3e146d79	0.14494886
9	0xbe4b38d2	-0.19845894
10	0x3dc8ef0e	0.09811221
11	0xbe07aebb	-0.13250248
12	0xbd102a9c	-0.035196885
13	0xbe3c05bb	-0.18361561
14	0xbd4f990c	-0.050683066
15	0xbdd594b1	-0.10428751
16	0xbd0120d5	-0.03152545
17	0x3dc03ac4	0.09386209
18	0xbdf63e34	-0.12023583
19	0x3dc92858	0.09822148
20	0x3e21c987	0.15799533
21	0x3c9e4c34	0.019323446
22	0xbd0d1db3	-0.03445215
23	0x3e3a5dad	0.18199797
24	0x3d90c4eb	0.07068809
25	0x3d87771c	0.06614515
26	0x3d0af12b	0.033921402
27	0xbe2d6167	-0.16931687
28	0x3e17e5ce	0.14833757
29	0xbe5fcbc6	-0.21855077
30	0xbd87a9dc	-0.06624195
31	0x3dc0462d	0.09388385
32	0xbba34ee2	-0.004983769
33	0xbc8a65c0	-0.016894221
34	0xbdda8dbf	-0.10671567
35	0x3e3ded23	0.18547492
36	0x3dd02325	0.10162953
37	0xbd18fc1e	-0.037349813
38	0xbdabef71	-0.08395279
39	0x3cd146f1	0.025546523
40	0x3d3d30b3	0.04618902
41	0xbde5c345	-0.11218885
42	0x3de1272e	0.10993801
43	0xbe4d02da	-0.20020619
44	0xbcec26c5	-0.02882708
45	0x3d89b541	0.067240246
46	0x3e18e121	0.1492963
47	0xbe037b3f	-0.12839983
48	0xbe2600aa	-0.16211191
49	0xbe0b0642	-0.13576606
50	0xbe1164b1	-0.14198567
51	0x3d5bd743	0.053672086
52	0xbc378ad3	-0.011202532
53	0xbd36b541	-0.04460645
54	0x3ddc0aee	0.10744272
55	0x3e0ca4b8	0.1373471
56	0x3e1b44a3	0.15162902
57	0xbde115ec	-0.109905094
58	0x3d3304c5	0.04370572
59	0xbdaff86f	-0.08592307
60	0xbe34c86e	-0.17654583
61	0x3e4d617e	0.20056722
62	0xbe128a9b	-0.14310686
63	0x3c4937aa	0.012281338
64	0xbe615304	-0.22004324
65	0x3d8cf93a	0.06883474
66	0xbdaefbba	-0.08544107
67	0x3d7a15f4	0.061056092
68	0x3d93dcc4	0.07219842
69	0x3e139a0f	0.14414237
70	0x3e6c89ea	0.23099485
71	0x3e3cd754	0.18441516
72	0xbd6c6b0e	-0.057719283
73	0xbe13b371	-0.1442392
74	0xbe131517	-0.14363514
75	0xbe0310aa	-0.12799326
76	0xbde1b7cb	-0.11021384
77	0x3cef87b9	0.029239522
78	0x3da06910	0.07832539
79	0xbd7d6c93	-0.061871123
80	0xbc9f3512	-0.019434486
81	0xbd7b7420	-0.061390042
82	0xbca5ecc2	-0.020254496
83	0xbdf8cdaa	-0.12148602
84	0xbdeee607	-0.11664968
85	0x3dfc8b51	0.1233126
86	0x3dec2e7f	0.11532306
87	0x3e0afb3e	0.13572404
88	0x3e2056d3	0.15658121
89	0xbde42740	-0.11140299
90	0x3e19ae9c	0.15008014
91	0xbd701e84	-0.058622852
92	0x3b1976e1	0.0023416805
93	0xbe48f2ee	-0.1962392
94	0xbe1485a2	-0.14504102
95	0x3dcaa5b0	0.09894884
96	0xbe35610d	-0.17712803
97	0x3d89ec99	0.067345805
98	0xbdd2701f	-0.10275292
99	0xbe22c763	-0.15896372
100	0x3e4faa01	0.20279695
101	0x3e15aca5	0.1461664
102	0xbdd4205c	-0.103577346
103	0xbd9f7e10	-0.077877164
104	0xbd9a0a0a	-0.07521446
105	0xbe079aff	-0.1324272
106	0x3e4eb732	0.20187071
107	0xbdee5102	-0.11636545
108	0xbd8bd1f1	-0.068271525
109	0xbe1210c3	-0.14264207
110	0xbe5c97cf	-0.21542285
111	0x3e4575d1	0.19283225
112	0x3cb4a090	0.022049218
113	0xbdb96f3f	-0.09054422
114	0xbe5c6696	-0.21523508
115	0x3e5934e8	0.21211588
116	0x3e22a7e3	0.15884356
117	0x3e08d480	0.13362312
118	0x3dd12425	0.10211972
119	0xbd14a3f0	-0.036289155
120	0xbe201350	-0.15632367
121	0x3da511af	0.080600135
122	0xbcb2908f	-0.021797447
123	0xbe23051d	-0.1591992
124	0xbdf5bee6	-0.119993016
125	0x3d6ef556	0.05833944
126	0x3db79da5	0.08965615
127	0xbe5655fd	-0.2093124
128	0xbde7555c	-0.11295578
129	0x3d4edd5e	0.05050408
130	0x3d9d2f2a	0.076750115
131	0xbd9b0052	-0.075684205
132	0x3d834e30	0.064113975
133	0xbd929acf	-0.07158434
134	0x3d56e150	0.05246097
135	0x3dcd9888	0.10038859
136	0xbc9b1321	-0.01893002
137	0x3cd3916a	0.025826175
138	0xbd6515b9	-0.05592892
139	0xbe1c267a	-0.15249053
140	0xbe320dee	-0.17388126
141	0xbd27b2aa	-0.04094187
142	0x3d98b7c6	0.07456927
143	0xbe2082ae	-0.1567485
144	0xbdc0f974	-0.094225794
145	0xbe16c45e	-0.14723346
146	0x3d9f5d81	0.07781506
147	0x3c3b9582	0.01144922
148	0x3e2c2e6e	0.16814587
149	0x3e2ac9ac	0.16678494
150	0x3d2ffcdb	0.04296575
151	0xbd50560a	-0.050863303
152	0x3e45717a	0.19281569
153	0x3d4bba5e	0.04973828
154	0x3e2e610a	0.17029205
155	0x3e00123c	0.12506956
156	0x3e16210a	0.14661041
157	0xbe30a59a	-0.17250672
158	0x3e00cc26	0.12577876
159	0x3e1ec638	0.15505302
160	0x3c75b544	0.01499683
161	0xbda2f4b7	-0.07956832
162	0xbd030a9e	-0.031992547
163	0xbe5eb38c	-0.21748179
164	0xbd932721	-0.071851976
165	0x3db56677	0.08857434
166	0x3dea1574	0.11429873
167	0x3a6546e0	0.0008746218
168	0x3daeab93	0.08528819
169	0xbdd77e7f	-0.10522174
170	0x3e0b3e0a	0.13597885
171	0x3db32240	0.08746767
172	0x3df75567	0.12076836
173	0xbd9f4f30	-0.07778776
174	0x3ac06e76	0.0014681357
175	0xbd9471d7	-0.07248276
176	0x3d52e627	0.05148902
177	0xbdbb9be4	-0.09160593
178	0x3e106e21	0.14104511
179	0xbc71a3f8	-0.014748566
180	0x3e2e0bad	0.16996641
181	0xbde6db56	-0.11272304
182	0xbe0526a0	-0.13003016
183	0xbe0f9f7d	-0.14025684
184	0x3d489392	0.04896886
185	0xbe2827c2	-0.16421416
186	0xbd47c945	-0.04877593
187	0xbd20ea09	-0.039285693
188	0xbdf7d754	-0.121016175
189	0xbafff97c	-0.0019529308
190	0xbdf87255	-0.12131182
191	0xbe35afe6	-0.17742881
192	0x3dde00ad	0.10839973
193	0x3d1abec2	0.037779577
194	0xbc92b4a0	-0.017908394
195	0xbe017111	-0.12640788
196	0x3d594262	0.053041823
197	0xbcb563d3	-0.022142326
198	0x3e49179a	0.1963791
199	0xbe1cb5a5	-0.15303667
200	0x3c4048b4	0.011736084
201	0xbdaa150f	-0.08304798
202	0x3e0dddea	0.13854185
203	0x3c06a707	0.008218533
204	0xbe242f0b	-0.1603357
205	0x3d341659	0.043966625
206	0xbdf2102a	-0.11819489
207	0x3c9b3e45	0.01895059
208	0xbe55b8f8	-0.20871341
209	0x3e1c9f60	0.15295172
210	0xbab77d16	-0.001399907
211	0x3de1d3ba	0.11026712
212	0x3df99f4f	0.12188589
213	0x3e1fd67e	0.15609166
214	0xbc604dbe	-0.01369041
215	0x3df7c22e	0.12097584
216	0x3e03acab	0.12858836
217	0xbe0f04cb	-0.13966672
218	0x3bfe4ab0	0.0077603683
219	0x3e44ff23	0.19237952
220	0xbbf14101	-0.0073624854
221	0xbdb5b10f	-0.08871662
222	0x3d8647e4	0.06556681
223	0xbe296ca7	-0.16545354
224	0xbe402090	-0.18762422
225	0x3c0cd2d7	0.00859519
226	0xbd8c4f48	-0.06851059
227	0xbdaa938a	-0.08328922
228	0x3de2d78d	0.11076269
229	0xbd79c966	-0.060983084
230	0x3dfd65ee	0.12372957
231	0xbd743445	-0.05962016
232	0xbd77ba49	-0.06048039
233	0x3c99419a	0.01870804
234	0x3d9c6dd2	0.07638134
235	0x3e0793c6	0.13239965
236	0x3e068d49	0.13139834
237	0xbc848a05	-0.016179094
238	0xbd874187	-0.06604295
239	0xbe405d0e	-0.18785498
240	0x3df9ee8c	0.12203702
241	0xbc7e5d38	-0.015525155
242	0x3e15a1e5	0.14612539
243	0xbb22f1b8	-0.0024863314
244	0xbd01384e	-0.031547837
245	0xbdeabdd2	-0.114619866
246	0x3e1d19e7	0.15341912
247	0xbe2667aa	-0.16250482
248	0x3de38755	0.11109797
249	0xbda8d355	-0.082434334
250	0x3e1b1ae1	0.15146972
251	0xbdebf234	-0.11520806
252	0xbe0ca83d	-0.13736053
253	0xbd825643	-0.06364109
254	0xbd704a28	-0.05866447
255	0xbdddd89d	-0.10832331

conv1.bias f4 [16]
0	0x3b990d1e	0.004670753
1	0xbe3bc85a	-0.18338147
2	0xbdc10525	-0.09424809
3	0x3dc095aa	0.09403546
4	0xbdef3deb	-0.11681732
5	0x3dc4cbf4	0.096092135
6	0x3e0aeaf7	0.13566194
7	0xbdfbdf11	-0.12298406
8	0x3d09d1b8	0.03364727
9	0x3cfa9977	0.030590756
10	0xbe1e646d	-0.15467997
11	0xbd45680a	-0.048194923
12	0x3d31e373	0.043429803
13	0x3bd9f9de	0.006652101
14	0x3c148f8f	0.00906743
15	0xbde4caec	-0.11171517

conv2.weight f4 [32, 16, 3, 3]
0	0xbcfcd931	-0.030865284
1	0x3ce46d9c	0.027884297
2	0xbc01655e	-0.007897703
3	0x3cf56763	0.029956525
4	0xbdcbd998	-0.09953612
5	0xbd4a78b0	-0.049431503
6	0xbda323c5	-0.07965807
7	0x3c84d2f7	0.016213877
8	0x3cb1f909	0.021725195
9	0x3d85b9c6	0.06529574
10	0x3d4f3c41	0.050594572
11	0x3d1ef3c5	0.038806695
12	0xbd3b4fbd	-0.04573034
13	0xbd3df622	-0.04637731
14	0xbd94d386	-0.072669074
15	0xbd26ae48	-0.04069355
16	0x3d946772	0.07246293
17	0xbde9a1cb	-0.11407813
18	0x3d442ebc	0.047896132
19	0x3d97c6d4	0.0741097
20	0x3d79dde9	0.061002646
21	0x3d832617	0.064037494
22	0xbdb708b5	-0.089372076
23	0xbd52f050	-0.05149871
24	0xbd24fa17	-0.040277567
25	0x3d22df13	0.03976352
26	0x3da04aa4	0.078267366
27	0xbc80e8e3	-0.015736049
28	0xbcaae457	-0.020860834
29	0xbd1e2e8f	-0.03861862
30	0xbddac42a	-0.106819466
31	0xbd352c23	-0.044231545
32	0xbd86519b	-0.06558534
33	0x3ca4acc8	0.02010192
34	0x3d5e9bae	0.054347686
35	0xbd798c2c	-0.060924694
36	0xbdc0661d	-0.093944766
37	0x3d59ce82	0.053175457
38	0x3bbe40a8	0.0058060475
39	0x3dc465a2	0.095896974
40	0x3d96ec03	0.073692344
41	0xbc63ba15	-0.013899346
42	0xbdd92ff1	-0.10604847
43	0x3c93dc0a	0.018049259
44	0x3d486e1e	0.04893314
45	0xbc9ca30b	-0.019120714
46	0xbda65b00	-0.081228256
47	0x3d281edc	0.041045055
48	0x3d2db604	0.04240991
49	0xbd0f5077	-0.034988847
50	0xbd4e2730	-0.05033034
51	0x3d24fa7e	0.04027795
52	0x3cb5a90a	0.02217533
53	0xbd65fee7	-0.056151297
54	0xbda78e5a	-0.08181448
55	0x3b183095	0.0023222317
56	0x3baed8cd	0.0053359033
57	0x3d35da34	0.044397548
58	0xbdac98d3	-0.084275864
59	0xbccce2e1	-0.025010528
60	0xbd9716a5	-0.07377366
61	0xbc49380b	-0.012281428
62	0xbd0ef443	-0.034900915
63	0x3cdbca4e	0.026829865
64	0xbd6000f3	-0.054688405
65	0xbd371465	-0.044697184
66	0xbc1aafc4	-0.00944132
67	0xbd8cbfda	-0.0687253
68	0x3d07a431	0.03311557
69	0xbc9de57a	-0.019274462
70	0x3d306d12	0.043072768
71	0x3d7efe31	0.062254135
72	0xbd84c1fb	-0.06482311
73	0x3d52cafb	0.05146311
74	0xbd8d1c77	-0.06890195
75	0xbd3a6dbe	-0.045514815
76	0xbde91719	-0.11381359
77	0x3d4d900f	0.050186213
78	0x3d02e352	0.03195507
79	0x3c8cbd82	0.017180208
80	0x3c96ffa8	0.018432453
81	0xbdd98a65	-0.106221
82	0x3b5b241e	0.0033438276
83	0xbd6856b2	-0.056723304
84	0xbdae35ee	-0.0850638
85	0xbd93bb49	-0.07213456
86	0x3cebb990	0.028775007
87	0x3d033efa	0.03204248
88	0x3d9a3158	0.07528943
89	0xbd4e1ba4	-0.05031933
90	0xbd0c7be2	-0.03429783
91	0x3c69cb60	0.01426968
92	0x3d28a8c7	0.041176584
93	0xbc0fdf0c	-0.008781206
94	0x3d83cd24	0.06435612
95	0x3da25855	0.07927004
96	0x3d49db17	0.049281206
97	0x3d8a2bd5	0.067466415
98	0x3d8f5e43	0.07000401
99	0x3c30b31c	0.0107848905
100	0x3d44c4f4	0.04803939
101	0xbd982b46	-0.07430129
102	0xbb91aa7d	-0.0044453726
103	0xbd31dbba	-0.04342244
104	0x3d56c2cc	0.052431867
105	0xbd97531a	-0.07388897
106	0xbdaa750a	-0.08323105
107	0xbd92228a	-0.07135494
108	0xbd3d0839	-0.04615042
109	0xbda663e4	-0.081245214
110	0x3d10d20f	0.035356577
111	0x3dc84cfa	0.09780307
112	0x3c1d640c	0.009606373
113	0x3c643036	0.01392751
114	0x3d85246d	0.06501088
115	0x3d978c28	0.073997796
116	0xbd9cb9b8	-0.076526105
117	0x3bfdde12	0.00774742
118	0x3d871c36	0.06597178
119	0xbcdcb2ee	-0.02694079
120	0x3d277fd5	0.040893395
121	0xbd90704c	-0.07052669
122	0xbce110a0	-0.027473748
123	0xbd3d57a7	-0.04622617
124	0x3cb03fe8	0.021514848
125	0x3c83a065	0.016067693
126	0x3d49c219	0.04925737
127	0xbdb2e961	-0.0873592
128	0x3c9833c0	0.018579364
129	0xbc13cec6	-0.009021467
130	0xbdc006c8	-0.093762934
131	0x3d44ed2e	0.048077755
132	0x3d023a58	0.031793922
133	0x3ba3dd1a	0.0050007226
134	0xbc631f7e	-0.013862489
135	0xbd486bca	-0.04893092
136	0xbadf6ced	-0.0017046012
137	0x3cb47971	0.022030564
138	0x3d9d8d7d	0.076930024
139	0x3d383c0f	0.04497915
140	0xbdc06592	-0.09394373
141	0xbd37c843	-0.04486872
142	0x3d865737	0.06559604
143	0x3d3ecd10	0.04658228
144	0xbda9fdce	-0.083003625
145	0xbd8dacd7	-0.06917732
146	0x3d34d833	0.044151496
147	0xbcee4b02	-0.0290885
148	0xbceb2496	-0.028703969
149	0xbda6f781	-0.081526764
150	0x3d3c1410	0.04591757
151	0x3ce02b75	0.027364472
152	0x3ac82872	0.0015270843
153	0x3c1d62d1	0.009606079
154	0x3c630714	0.013856668
155	0xbdbdc05d	-0.09265206
156	0x3b8926df	0.004185542
157	0x3d0e6ab0	0.034769714
158	0xbdbeb7d5	-0.09312407
159	0x3d9069ac	0.07051405
160	0xba8e7cc8	-0.0010870928
161	0xbd5016ae	-0.05080288
162	0x3bf82386	0.007572594
163	0xbdb560a9	-0.08856327
164	0x3daebbc9	0.08531911
165	0xbcd27a9c	-0.02569323
166	0x3be64cd2	0.0070282007
167	0x3ca804f4	0.020510174
168	0xbc59d3a0	-0.013295084
169	0x3d730b81	0.059337143
170	0x3d66cd29	0.056348
171	0xbcf91237	-0.030404193
172	0x3d807330	0.0627197
173	0xbd2b4a8c	-0.04181914
174	0xba2d91df	-0.0006621163
175	0x3cbc1d35	0.022963146
176	0xbc5c3284	-0.013439778
177	0xbda8bdb2	-0.082393065
178	0x3d0baa0f	0.034097727
179	0xbdc0752f	-0.09397351
180	0x3d58b41d	0.052906144
181	0xbd8665cd	-0.06562386
182	0xbd054623	-0.03253759
183	0xbd011783	-0.031516563
184	0xbd421d7c	-0.0473914
185	0xbd80f3e5	-0.06296519
186	0x3d995eca	0.07488783
187	0xbce71210	-0.028206855
188	0xbd177a94	-0.036982134
189	0xbdb313c1	-0.08744002
190	0x3d3cf33e	0.04613041
191	0x3d6618a6	0.05617585
192	0xbbd44501	-0.0064779525
193	0xbb9ca617	-0.0047805416
194	0xbbd8ab7b	-0.006612239
195	0xbc0f3d86	-0.008742696
196	0xbbf7ecb3	-0.0075660585
197	0x3d443cce	0.04790955
198	0xbd7e849a	-0.062138177
199	0xbca7efb7	-0.020500047
200	0x3d4b6446	0.049656175
201	0x3bdf225d	0.0068095163
202	0xbdb31927	-0.08745032
203	0xbd0e73dc	-0.03477846
204	0xbca3b1d0	-0.019982249
205	0xbc951ebf	-0.018203137
206	0x3d4adee0	0.049528956
207	0x3cdf505f	0.027260004
208	0x3d6fa9ec	0.05851166
209	0x3b939edb	0.004505021
210	0xbc0b3d70	-0.008498535
211	0xbd771621	-0.06032384
212	0x3d712b0e	0.05887895
213	0xbbcb8425	-0.006210821
214	0xbca4728a	-0.020074148
215	0x3d3c0e29	0.04591194
216	0xbd97871c	-0.07398817
217	0x3d2e2db1	0.042524043
218	0x3d657093	0.056015562
219	0x3d5185d0	0.051153004
220	0xbd0af0b6	-0.033920966
221	0x3d6c5d28	0.05770603
222	0xbdb403f0	-0.087898135
223	0x3ce41338	0.027841195
224	0xbcc096c7	-0.023509396
225	0xbce8c669	-0.028414922
226	0x3d225561	0.039632205
227	0x3d91b04a	0.071137026
228	0xbdcb96fd	-0.09940908
229	0xbd3f9e7e	-0.04678201
230	0xbd648b5c	-0.055796966
231	0xbb5a2260	-0.003328465
232	0xb908400a	-0.00012993827
233	0xbd5dc943	-0.054147016
234	0x3ce24fde	0.027625974
235	0x3d67c5ef	0.05658525
236	0xbca5a788	-0.020221487
237	0xbd223650	-0.039602578
238	0x3d484872	0.048897214
239	0x3d79526e	0.060869627
240	0x3c311788	0.010808833
241	0x3d795ef6	0.060881577
242	0xbc146751	-0.009057836
243	0x3d88c29d	0.066777445
244	0x3d79cdf5	0.06098743
245	0x3c6e8024	0.014556918
246	0x3d8ce16e	0.06878935
247	0xbcfc9be3	-0.030836051
248	0x3d84b10b	0.06479081
249	0xbd9b7cb5	-0.07592145
250	0x3c89841a	0.016786624
251	0xbd47120c	-0.048601195
252	0xbc3a4274	-0.011368383
253	0x3d78b31d	0.06071769
254	0xbc7ad9c4	-0.015310708
255	0xb8e815a6	-0.000110666544

conv2.bias f4 [32]
0	0x3d725f70	0.059173048
1	0x3c9a3265	0.018822858
2	0xbd0f37e9	-0.03496543
3	0xbd8b7f6d	-0.06811414
4	0xbc5f9e50	-0.0136485845
5	0xbd832e5d	-0.064053275
6	0xbd25f2ba	-0.040514685
7	0x3d934a2b	0.07191881
8	0xbc009a0f	-0.00784923
9	0x3d71e7d8	0.059058994
10	0x3c6d2f68	0.014476635
11	0x3d32f28e	0.04368835
12	0x3c6daf73	0.014507162
13	0xbd11400b	-0.035461467
14	0x3c825332	0.015908811
15	0x3cf08089	0.029358165
16	0x3d3f9dcf	0.046781357
17	0x3cab4b35	0.020909885
18	0x3d84b69f	0.06480145
19	0xbd3692e3	-0.044573676
20	0x3d80f17f	0.06296062
21	0xbce65afd	-0.028119558
22	0x3cc43699	0.023951815
23	0x3a512fa5	0.0007979817
24	0x3c3a8243	0.011383596
25	0xbc86ecbf	-0.016470311
26	0x3cac5068	0.021034434
27	0x3d6e464e	0.058172517
28	0xbca1ffab	-0.019775232
29	0xbd3658d2	-0.0445183
30	0xbd9c2ba1	-0.07625509
31	0xbbcb9e98	-0.006213974

fc.weight f4 [2, 9600]
0	0x38b55dcd	8.648224e-05
1	0x3c85f6bb	0.016353002
2	0x3c6628f3	0.014047849
3	0xbbad0e29	-0.005281229
4	0x3c069ac8	0.008215614
5	0xbb3ceeaa	-0.0028828778
6	0x3cb06089	0.021530407
7	0xbb28875e	-0.002571545
8	0xbc4c3709	-0.012464293
9	0xbcc4732d	-0.023980701
10	0xbc322894	-0.010873932
11	0x3cb48bf3	0.02203939
12	0x3b0c824d	0.002143997
13	0xbafaf51a	-0.0019146532
14	0xbb81104f	-0.0039387117
15	0x3c6b35dd	0.014356104
16	0xbb45e05b	-0.003019354
17	0xbc140719	-0.009034895
18	0xbb7bd6af	-0.0038427522
19	0xbbf0b023	-0.007345216
20	0x3bdf9f9f	0.0068244482
21	0x3d09c294	0.03363283
22	0x3b33719a	0.0027380944
23	0x3c7efb7a	0.015562886
24	0xbc36b054	-0.011150438
25	0xbc460aa4	-0.012087498
26	0x3c1bdd80	0.009513259
27	0x3c3e18d1	0.011602596
28	0xbc514b33	-0.012774277
29	0x3b966076	0.0045891358
30	0x3cc9300c	0.024559043
31	0xbc13dbdb	-0.009024586
32	0x3aa50d31	0.0012592432
33	0x3cadef5d	0.021232301
34	0x3c988020	0.018615782
35	0x3cc214d9	0.023691582
36	0xbc68f11c	-0.014217641
37	0xba7eb645	-0.00097164913
38	0xbb8b0a35	-0.00424316
39	0x3cf50d58	0.02991359
40	0x3c1d8db2	0.009616302
41	0x3c9e7241	0.01934159
42	0xbcc0dcb5	-0.023542741
43	0xbcab39df	-0.020901619
44	0x3c01c963	0.0079215495
45	0x3c8d1ee6	0.017226648
46	0x3c22e448	0.009942122
47	0xbd01cbcf	-0.031688508
48	0x3b09878d	0.0020985336
49	0x3c1a546b	0.009419541
50	0x3c1dec91	0.009638921
51	0x3c544d50	0.012957886
52	0xbc75bfa5	-0.014999305
53	0x3c18b493	0.009320396
54	0xbc07377e	-0.008252976
55	0x3a4be7dc	0.0007778385
56	0x3a322472	0.0006795592
57	0x3c07eb46	0.00829584
58	0xbc3243d2	-0.010880427
59	0xbabf9d00	-0.0014618933
60	0x3c94d527	0.018168045
61	0x3bd7b308	0.0065826215
62	0x3c018930	0.007906243
63	0xbbbe9b28	-0.005816836
64	0x3a78f860	0.000949746
65	0x3af4e659	0.0018684372
66	0xbd50b787	-0.050956275
67	0xbb3d34c7	-0.002887057
68	0x3b3e1efc	0.0029010167
69	0x3c8a3900	0.016872883
70	0x3c8011fc	0.015633576
71	0x3d122b7b	0.035685997
72	0xbcf7bd47	-0.030241622
73	0xbc7a7797	-0.0152873015
74	0xbaa3c806	-0.0012495525
75	0x3a0593b6	0.0005095558
76	0x3c44ba36	0.012007287
77	0xbce098c1	-0.027416589
78	0xbbbefed0	-0.005828716
79	0x3be5cde9	0.007013072
80	0x3b6ae32d	0.0035840974
81	0x3b26af27	0.0025433989
82	0x3b3afbda	0.0028531463
83	0xbb8215a0	-0.003969863
84	0x3c5340a3	0.012893829
85	0x3c5695d4	0.013097245
86	0x3c2be777	0.010492197
87	0xbbea69fa	-0.0071537467
88	0xbba985ce	-0.0051734215
89	0xbbfd7eae	-0.0077360487
90	0x3c1e1fba	0.009651119
91	0x3c2f880d	0.010713589
92	0x3a4bcf09	0.0007774686
93	0xbc7f0520	-0.015565187
94	0xbb43d622	-0.0029882272
95	0xbc9316fe	-0.0179553
96	0xbca9f7f0	-0.020748109
97	0xbb67b92f	-0.003535818
98	0xbc0314e6	-0.008000588
99	0xbc2cb6a5	-0.010541593
100	0x3ac2d72e	0.0014865154
101	0xbd0eae7e	-0.034834377
102	0xbc682d1a	-0.014170909
103	0xbccc7831	-0.024959655
104	0x3bb7edd0	0.0056130663
105	0xbb681adf	-0.0035416407
106	0x3bff08e0	0.0077830404
107	0x3ca81afc	0.02052068
108	0xbb831cdd	-0.0040012435
109	0x3d028e1d	0.03187381
110	0xbc31544a	-0.010823319
111	0xbc76599e	-0.015036015
112	0xbcb01fc5	-0.021499524
113	0xb9db8b10	-0.00041874545
114	0xb9795852	-0.00023779392
115	0x3c2b8a8c	0.010470044
116	0xbd101564	-0.03517665
117	0xbc53448f	-0.012894764
118	0xbd03fe04	-0.03222467
119	0xbbeaae79	-0.007161912
120	0x3c29a89e	0.010355143
121	0x3b94eb49	0.0045446497
122	0x3cdfb2c9	0.027306931
123	0xbc503d5d	-0.012709943
124	0x3c6e2086	0.014534121
125	0xbc273978	-0.010206573
126	0x3cb8acd2	0.022543345
127	0x3c3beae2	0.011469575
128	0xbc96b04b	-0.01839461
129	0xba1f17dc	-0.0006068924
130	0x3b2dbda3	0.0026510737
131	0xbba087bd	-0.0048989938
132	0xbadadf30	-0.0016698595
133	0xbcff7fbc	-0.031188838
134	0x3a459125	0.0007536582
135	0x39257c49	0.00015781926
136	0x3c9843cb	0.018587014
137	0x3cc2f0e1	0.0237965
138	0x3b15a7d4	0.002283563
139	0x3ba2f6cb	0.0049732677
140	0x3ab8866d	0.0014078148
141	0x3c5abe0c	0.013350975
142	0x3c17b000	0.00925827
143	0x3a0c147c	0.00053436286
144	0xb9b4587f	-0.0003439821
145	0xbc582250	-0.0131917745
146	0xbb1aed64	-0.002364003
147	0xbcd16427	-0.025560452
148	0xbc177ad5	-0.009245594
149	0x3b3d19cb	0.0028854485
150	0x39d91df1	0.00041411773
151	0xbd19ff5c	-0.037597045
152	0x3c584da4	0.013202105
153	0xbc28f451	-0.010312156
154	0xbd1f9e45	-0.038969297
155	0xbcd3176b	-0.025768002
156	0x3c572ee8	0.013133742
157	0x3bf57812	0.00749112
158	0x3b710138	0.0036774408
159	0xbc2b5dbc	-0.01045936
160	0xbc321145	-0.010868375
161	0x3a700162	0.00091554795
162	0xbc7730b4	-0.015087295
163	0xbb07a434	-0.0020697238
164	0x3b5c5175	0.0033617888
165	0xbcaab179	-0.020836579
166	0xbc79304a	-0.015209267
167	0x3c30f521	0.010800631
168	0xbb913c30	-0.0044322237
169	0x3cb7c07b	0.022430649
170	0xbb2fe735	-0.002684069
171	0x3c4c481b	0.012468363
172	0x3bd1f46a	0.0064073103
173	0x392e0e9e	0.00016599378
174	0xbbdbfa78	-0.006713208
175	0x3bfa1b75	0.0076326677
176	0xb8c459ab	-9.36271e-05
177	0x3ba9f18f	0.0051862667
178	0x3bcf534f	0.00632707
179	0xbbc98e47	-0.006150994
180	0xbba5c6e7	-0.0050591114
181	0xbd6e1458	-0.05812487
182	0x3badf0d0	0.005308248
183	0x3a2af206	0.00065210497
184	0xbb3bab0a	-0.0028635883
185	0xbccec230	-0.02523908
186	0xbcea78e3	-0.028622096
187	0xbca96fdb	-0.02068322
188	0xbc811b1a	-0.015759993
189	0x3c9a0c03	0.018804556
190	0x3c195dae	0.009360714
191	0x3bb35cfe	0.005473732
192	0x3b89fe44	0.004211219
193	0x3b17c97d	0.0023160868
194	0xb92dfc06	-0.00016592452
195	0xbcb7a875	-0.022419194
196	0xbb76cd13	-0.0037658855
197	0xbd26b6e8	-0.040701777
198	0x3bdbda48	0.0067093708
199	0xbc5bc8a4	-0.013414536
200	0x3d08489e	0.03327238
201	0x3cc3abde	0.023885664
202	0xba50bd79	-0.0007962804
203	0xbcdd506a	-0.027015883
204	0xbc44a9d3	-0.01200338
205	0xbb991444	-0.0046716053
206	0xbcc43be5	-0.023954341
207	0xbbd18109	-0.006393556
208	0xbbcd8dd8	-0.0062730126
209	0x3bebcb4e	0.0071958667
210	0xbb53e26c	-0.0032331003
211	0xbba2fbc3	-0.00497386
212	0x3c954360	0.018220603
213	0xbba19916	-0.0049315793
214	0x3c71eaeb	0.014765481
215	0x3cb459a2	0.022015397
216	0x3cc9908d	0.02460506
217	0x3b5b8b31	0.0033499713
218	0x3c073fd3	0.008254963
219	0x3c131384	0.008976821
220	0xbce45c07	-0.027875913
221	0x3bb9fa74	0.0056756083
222	0x3bd43ea3	0.0064771934
223	0xbca9d00b	-0.020729085
224	0xbbc8b2ea	-0.006124844
225	0xbc5fd36a	-0.013661245
226	0xbcb6b966	-0.022305202
227	0x3c0394ae	0.0080310535
228	0x3b0398b6	0.0020080036
229	0x3cc2dd39	0.023787128
230	0x3b271816	0.0025496534
231	0xbc721996	-0.014776608
232	0xbc1d3b76	-0.009596696
233	0xba07d964	-0.0005182235
234	0xbd1f60e2	-0.038910754
235	0x3ae33cee	0.0017336884
236	0xbbe574ef	-0.007002465
237	0x3c3f267a	0.011666888
238	0xbcbef421	-0.02330977
239	0xbc2410b9	-0.010013753
240	0x3a48ba30	0.00076571386
241	0xbcb95a51	-0.022626074
242	0xbb67ea17	-0.003538733
243	0x3c18d478	0.009328
244	0xbcc035bf	-0.023463128
245	0xbc15c0ef	-0.009140237
246	0xbc9804ba	-0.018556941
247	0x3b050a2d	0.0020300255
248	0x3bcf9fc8	0.006336186
249	0xbd3044ed	-0.043034483
250	0x3c0b9d49	0.008521386
251	0xbc1ad73e	-0.009450732
252	0xbac82543	-0.0015269894
253	0xbb4fbd24	-0.003169843
254	0xba6d12b3	-0.0009043619
255	0xbc046435	-0.008080532

fc.bias f4 [2]
0	0xbba8e26b	-0.0051539443
1	0x3b7d362a	0.003863702
