saved_models/pd_model_0x35_w.pth (torch, 99159 bytes, 6 tensors)

conv1.weight f4 [16, 3, 3, 3]
-0.115286365 -0.017528685 0.17540577 -0.0036804122 0.030726908 0.048993662 0.0544192 -0.07831808
-0.0473471 -0.1394813 0.033213485 0.16858798 0.111681424 -0.05105814 0.19315219 0.08870985
-0.048333354 -0.12444626 0.08224736 0.05739281 -0.08317618 0.092066854 0.041941177 0.06676704
0.15124609 -0.09689077 0.13978156 0.017403677 -0.12378249 0.021962145 0.061005108 0.11579159
0.15522142 0.09361955 -0.013182806 0.05099662 0.04295578 0.1459084 0.110644154 0.11394882
-0.14941949 0.016117234 0.13508643 -0.1393186 0.10184885 0.16767482 -0.1747807 0.100615345
-0.053031284 -0.005526471 -0.15927204 0.08213868 0.14554237 -0.0754494 0.09364617 -0.19326513
0.066018604 -0.1626822 -0.12039696 0.09157416 0.10303561 -0.188433 -0.1773167 0.071309984
-0.04828299 0.18124896 -0.006687673 -0.10242343 -0.033818882 0.05743505 -0.10873541 -0.07229551
0.08961856 0.066010706 -0.16698104 0.08468115 0.11097893 -0.012538584 0.033831276 0.086201824
-0.18421791 -0.014139431 0.010379921 0.15689607 0.057691656 -0.056124285 0.17480855 0.043695904
0.16181324 -0.15846814 0.11811472 -0.014285089 0.050438944 -0.1054646 0.1319305 -0.069871046
-0.12683374 -0.1191728 0.09140375 -0.043836705 -0.17760605 0.1460624 -0.064615875 -0.18601635
0.16487578 -0.09002522 0.16927549 -0.14128132 -0.012711174 0.061243676 0.15260594 -0.083748326
0.09113545 -0.13535172 0.13256532 -0.088216156 -0.029892838 0.08204489 -0.053514827 0.15735398
0.017090121 -0.18020342 0.059455916 0.09035486 -0.016128726 -0.087244876 0.059591707 -0.14649875
-0.025006525 -0.19314992 -0.088800244 -0.16563182 -0.0031036893 0.053987622 -0.06916374 0.1006068
-0.057091165 -0.1857677 0.15579419 -0.023457335 0.13005821 0.16011724 0.12776405 -0.18048409
-0.096779466 -0.17631698 -0.03170754 0.014250239 -0.055571817 0.14038555 0.1431954 0.19607928
-0.1025892 -0.042725105 0.09127721 -0.17349838 0.07004713 0.036427997 0.1253181 0.14774455
0.049478285 -0.17005306 0.1316275 0.050368443 -0.07802937 -0.018834887 -0.15938292 -0.1738363
0.030032119 0.08900219 0.066482544 0.16355962 0.15746889 -0.049011007 -0.16731605 -0.082465395
-0.031160014 0.10285872 0.048175108 -0.062997185 0.039395634 0.17839485 -0.124621704 0.026267204
0.0040962836 0.105113566 0.09460341 -0.021866845 -0.17123094 -0.030772584 0.14411482 -0.09260141
0.014070624 -0.029061256 -0.16363181 -0.048505384 0.12394915 -0.03379724 0.17829749 -0.15263796
-0.11982879 0.16556543 0.17075606 0.16447802 -0.059204884 -0.0037041095 -0.0690149 -0.06094992
0.1245755 0.1727313 0.11566004 -0.07159468 0.10519442 -0.1381188 -0.15195335 -0.0746721
-0.062310632 -0.035669863 0.18259847 -0.17032813 0.057469558 0.053353652 -0.029894391 0.079371415
0.040733952 0.091886185 -0.13108028 -0.08732602 0.12830539 -0.087017655 0.0778074 -0.18726419
0.14302902 -0.0585544 -0.1614534 -0.1701986 0.065892905 0.0934362 0.1655129 0.090287656
-0.1688823 -0.1375853 0.043949652 -0.06179827 -0.14118868 0.09988138 -0.032180242 -0.022646315
0.11099178 0.103431314 -0.15000616 -0.09208209 0.120358855 -0.057225835 0.016165713 -0.0069438713
00000000: 421b ecbd 5198 8fbc 929d 333e 1233 71bb
00000010: ffb6 fb3c 94ad 483d abe6 5e3d 3b65 a0bd
00000020: 08ef 41bd 30d4 0ebe dd0a 083d 54a2 2c3e
00000030: 3bb9 e43d 5722 51bd b0c9 453e 83ad b53d
00000040: 32f9 45bd aedd febd 4e71 a83d b914 6b3d
00000050: 4658 aabd 8c8d bc3d 83ca 2b3d 28bd 883d
00000060: 41e0 1a3e ab6e c6bd e622 0f3e 2892 8e3c
00000070: ad81 fdbd f5e9 b33c 7ee0 793d 2424 ed3d
00000080: 5df2 1e3e 9bbb bf3d b2fc 57bc d5e1 503d
00000090: 66f2 2f3d 0369 153e 6799 e23d 005e e93d
000000a0: 6c01 19be 4a08 843c 1954 0a3e 89a9 0ebe
000000b0: 2196 d03d f3b2 2b3e b6f9 32be 6b0f ce3d
000000c0: 5537 59bd 6617 b5bb 3618 23be 5338 a83d
000000d0: 0f09 153e 3785 9abd 90c9 bf3d 4be7 45be
000000e0: c334 873d 2a96 26be ae92 f6bd 3c8b bb3d
000000f0: 5504 d33d 95f4 40be 8292 35be f80a 923d
00000100: 62c4 45bd 5499 393e 4424 dbbb 60c3 d1bd
00000110: ab85 0abd 0441 6b3d acb0 debd ab0f 94bd
00000120: f089 b73d 9f30 873d 14fd 2abe 506d ad3d
00000130: ec48 e33d a26e 4dbc aa92 0a3d 958a b03d
00000140: 9fa3 3cbe 12a9 67bc 8b10 2a3c 5da9 203e
00000150: 164e 6c3d 94e2 65bd 0301 333e 7afa 323d
00000160: 5fb2 253e 7945 22be 21e6 f13d 020c 6abc
00000170: 1199 4e3d d3fd d7bd ca18 073e 8d18 8fbd
00000180: b4e0 01be de10 f4bd e431 bb3d 1e8e 33bd
00000190: 5cde 35be 6291 153e 5455 84bd 127b 3ebe
000001a0: 32d5 283e 245f b8bd 8e56 2d3e 0dac 10be
000001b0: 8742 50bc a6da 7a3d bb44 1c3e 3e84 abbd
000001c0: 39a5 ba3d a499 0abe 34bf 073e acaa b4bd
000001d0: d3e1 f4bc 2707 a83d 5d32 5bbd 6721 213e
000001e0: 9500 8c3c 3f87 38be 0c88 733d f80b b93d
000001f0: 6420 84bc 71ad b2bd 6f16 743d c503 16be
00000200: 7cda ccbc 18c9 45be e7dc b5bd 639b 29be
00000210: 4467 4bbb 2022 5d3d b8a5 8dbd f00a ce3d
00000220: 6dd8 69bd e339 3ebe 8388 1f3e 9929 c0bc
00000230: fb2d 053e c6f5 233e 94d4 023e d2d0 38be
00000240: 5034 c6bd 708c 34be c4df 01bd d679 693c
00000250: 469f 63bd 3bc1 0f3e d1a1 123e 02c9 483e
00000260: 491a d2bd 8500 2fbd 8cef ba3d 8fa9 31be
00000270: df74 8f3d 8635 153d 6353 003e 594a 173e
00000280: bea9 4a3d 6422 2ebe 5cc9 063e 244f 4e3d
00000290: ddcd 9fbd 9f4b 9abc 4735 23be 2502 32be
000002a0: eb05 f63c c846 b63d 0028 883d 2c7c 273e
000002b0: 863f 213e c4bf 48bd e654 2bbe 9ee3 a8bd
000002c0: 4943 ffbc 98a7 d23d 4353 453d ab04 81bd
000002d0: 515d 213d 24ad 363e aa39 ffbd 522e d73c
000002e0: 1e3a 863b c845 d73d 6fbf c13d 1922 b3bc
000002f0: 2a57 2fbe c916 fcbc d692 133e cfa5 bdbd
00000300: 7988 663c df11 eebc 198f 27be 95ad 46bd
00000310: 0dd9 fd3d fa6e 0abd 9e93 363e 204d 1cbe
00000320: cc68 f5bd fc89 293e adda 2e3e ed6c 283e
00000330: d280 72bd a5c0 72bb af57 8dbd a0a6 79bd
00000340: 7121 ff3d 79e0 303e 2cdf ec3d 3ba0 92bd
00000350: 2c70 d73d 046f 0dbe a999 1bbe b0ed 98bd
00000360: 6f39 7fbd 901a 12bd 18fb 3a3e 7f6a 2ebe
00000370: 3365 6b3d 5c89 5a3d 15e5 f4bc 7b8d a23d
00000380: a5d8 263d d32e bc3d e939 06be fcd7 b2bd
00000390: 7d62 033e 5036 b2bd 7c59 9f3d 2fc2 3fbe
000003a0: 3376 123e bdd6 6fbd 0a54 25be 8b48 2ebe
000003b0: dcf2 863d 7a5b bf3d 377c 293e bce8 b83d
000003c0: 7bef 2cbe 29e3 0cbe 8d04 343d 2f20 7dbd
000003d0: c493 10be 9c8e cc3d 6ecf 03bd c484 b9bc
000003e0: a94f e33d ccd3 d33d 379b 19be 8995 bcbd
000003f0: b47e f63d a365 6abd f56d 843c 6a89 e3bb

conv1.bias f4 [16]
-0.07713147 0.09394904 0.07284082 -0.00689344 0.062120028 -0.03106026 -0.11139255 -0.14265029
-0.04720985 -0.08660464 -0.0015705625 0.14725976 -0.17858285 -0.16569397 -0.04446937 0.15563455
00000000: 1bf7 9dbd 5b68 c03d 912d 953d 5ee2 e1bb
00000010: 9271 7e3d 1672 febc c721 e4bd eb12 12be
00000020: 1e5f 41bd c65d b1bd 55db cdba 43cb 163e
00000030: 6cde 36be aeab 29be 8425 36bd aa5e 1f3e

conv2.weight f4 [32, 16, 3, 3]
-0.08379499 0.014767068 0.061481886 0.044007245 0.011870442 0.050450932 0.05197257 -0.0023742164
-0.02219246 -0.072448924 -0.007761967 0.03622308 -0.0009063459 0.022915142 -0.055626776 0.04466324
0.007981301 0.055166367 -0.034901503 -0.07547457 0.060842972 0.043512847 0.058674805 -0.07545415
-0.036693137 -0.027253646 0.06747307 0.017300548 0.023415416 0.024180414 0.035148714 0.04169869
-0.038995672 0.030077273 -0.06018642 -0.033594605 -0.0028087876 0.013821112 -0.032339085 -0.07101788
0.0627656 0.08131351 -0.013625558 -0.07066234 -0.02172829 0.0019757298 -0.07957699 0.045231443
-0.04643166 0.07415023 0.033689406 0.02798256 0.04669419 0.021181474 -0.028933875 0.042205352
-0.014066098 0.04306953 -0.029052325 -0.04265613 -0.07399745 0.03947263 -0.021065272 -0.025908737
0.021383544 0.04409207 0.038817216 0.053797532 0.01590891 -0.03434399 -0.042581107 -0.07598851
0.083908774 -0.06778352 -0.06739639 -0.058020506 0.05128712 0.044185314 -0.06891374 -0.0154773425
0.08630012 -0.0081749195 0.0013825058 -0.07607452 -0.029199665 0.086853586 -0.038489964 -0.05041556
0.07559392 0.0023032415 0.07058383 0.076458 0.017616227 -0.023915585 0.0037666068 0.077308476
-0.041416455 -0.05788218 -0.014449721 0.061717022 -0.012939074 0.043621484 -0.04209039 -0.068669595
0.08432737 -0.06768008 -0.030526549 0.058365475 -0.052202698 -0.06972172 0.07992969 0.062599935
0.067083046 -0.07941699 0.03969374 -0.035050064 0.07718159 -0.05024955 -0.08532402 -0.0031738824
-0.0052743386 0.01879236 0.066829614 -0.056070846 -0.018932376 0.054953862 0.022428388 -0.023801588
-0.023309749 0.050814956 -0.086108156 0.01325441 -0.03946964 0.013482306 -0.029656094 0.059573185
0.040554304 -0.026558893 0.045664746 -0.04601047 -0.08673097 -0.041642345 -0.049290765 0.019125165
0.05332219 0.04232967 -0.083550446 -0.048243463 -0.064684674 0.05912176 -0.0583232 -0.028822316
0.011223142 -0.029043756 0.01222635 -0.032540563 -0.03537489 -0.06983746 0.06512161 0.06430678
-0.039238885 -0.057362992 0.018174998 -0.053591937 -0.026175462 0.030308012 -0.01797635 -0.05452738
0.027865391 0.063085906 0.06509486 0.019028202 -0.08685314 0.027845105 0.038879436 0.0052396185
-0.05375792 -0.06359594 -0.041877843 -0.013939131 0.022669023 -0.05596226 -0.0086898515 0.026960948
-0.08657253 -0.009998916 -0.045199744 0.007690123 0.007005013 -0.011931911 -0.08329805 0.019104619
-0.035100423 -0.059820738 0.053378485 0.03971377 -0.040499598 0.04489607 -0.0038798717 -0.0103797065
-0.087601334 -0.07350549 -0.07716327 0.051194325 0.052719995 -0.04865022 -0.014026955 0.0583902
-0.04990513 -0.018257763 -0.060025696 -0.035114177 0.00344759 -0.07387631 -0.07858751 -0.03578212
0.012560179 -0.01643501 0.056839105 0.0018171902 0.017561637 0.04658803 -0.04850526 -0.062543966
0.0812557 -0.08493973 0.04030215 0.015530872 0.037551038 -0.050279196 -0.023422172 0.005447365
0.0653919 -0.046077974 0.05514614 0.0056493958 -0.042848438 0.07005215 -0.03354763 -0.019085508
0.059474956 -0.04686846 0.06329579 0.0052610305 -0.010406274 -0.056394394 0.008191879 0.0001260923
0.017493935 0.04593418 0.00046282104 0.08271058 0.036238395 0.0014491415 -0.06954386 -0.050795645
00000000: b59c abbd 93f1 713c 6ed4 7b3d f140 343d
00000010: 3e7c 423c a3a5 4e3d 31e1 543d be98 1bbb
00000020: f6cc b5bc 1a60 94bd 1958 febb a75e 143d
00000030: d897 6dba 89b8 bb3c e7d8 63bd cdf0 363d
00000040: 01c4 023c 21f6 613d e1f4 0ebd 6992 9abd
00000050: 7b36 793d 873a 323d fe54 703d b587 9abd
00000060: 8b4b 16bd 0a43 dfbc 522f 8a3d e1b9 8d3c
00000070: b0d1 bf3c 0116 c63c 19f8 0f3d 3fcc 2a3d
00000080: edb9 1fbd 9d64 f63c 0986 76bd 7f9a 09bd
00000090: a313 38bb f271 623c fd75 04bd d371 91bd
000000a0: 408b 803d b387 a63d bb3d 5fbc 6bb7 90bd
000000b0: 87ff b1bc 3f7b 013b 43f9 a2bd 9b44 393d
000000c0: 202f 3ebd 13dc 973d e7fd 093d af3b e53c
000000d0: 6842 3f3d c584 ad3c bc06 edbc 85df 2c3d
000000e0: 7e75 66bc ad69 303d 24ff edbc 32b8 2ebd
000000f0: fa8b 97bd 0dae 213d 1491 acbc 8f3e d4bc
00000100: 8b2c af3c e399 343d cdfe 1e3d cd5a 5c3d
00000110: 6753 823c 49ac 0cbd 8769 2ebd dd9f 9bbd
00000120: 5dd8 ab3d 16d2 8abd 1e07 8abd e9a6 6dbd
00000130: 7112 523d a9fb 343d a622 8dbd ae94 7dbc
00000140: 1ebe b03d 19f0 05bc 3235 b53a f5cc 9bbd
00000150: 2334 efbc 4be0 b13d a7a7 1dbd 8c80 4ebd
00000160: fcd0 9a3d fbf1 163b 418e 903d 0396 9c3d
00000170: e84f 903c 9eea c3bc 2dd9 763b e853 9e3d
00000180: 4da4 29bd dd15 6dbd 86be 6cbc fdca 7c3d
00000190: 69fe 53bc 71ac 323d f966 2cbd a5a2 8cbd
000001a0: d4b3 ac3d db9b 8abd d012 fabc a310 6f3d
000001b0: 7fd2 55bd 43ca 8ebd 2db2 a33d 6534 803d
000001c0: d662 893d 60a5 a2bd e795 223d a890 0fbd
000001d0: 6211 9e3d 79d2 4dbd 5cbe aebd e900 50bb
000001e0: 5cd4 acbb 6ff2 993c f7dd 883d 8baa 65bd
000001f0: 1218 9bbc 4d17 613d bdbb b73c 8cfb c2bc
00000200: 16f4 bebc 5823 503d 7959 b0bd 0629 593c
00000210: ebaa 21bd e4e4 5c3c 56f1 f2bc 0303 743d
00000220: 451c 263d 0992 d9bc f50a 3b3d 7975 3cbd
00000230: 02a0 b1bd 2a91 2abd 1de5 49bd 61ac 9c3c
00000240: 5e68 5a3d e061 2d3d 7f1c abbd f09a 45bd
00000250: 6679 84bd a929 723d 4fe4 6ebd c71c ecbc
00000260: 45e1 373c 2ced edbc 0751 483c 4149 05bd
00000270: 43e5 10bd f106 8fbd 7b5e 853d 46b3 833d
00000280: f4b8 20bd 75f5 6abd bce3 943c 3883 5bbd
00000290: ec6d d6bc 8248 f83c 2343 93bc 1a58 5fbd
000002a0: f645 e43c 2f33 813d 7450 853d 08e1 9b3c
000002b0: 0fe0 b1bd 6b1b e43c 0b40 1f3d 1bb1 ab3b
000002c0: 4431 5cbd 973e 82bd 1a88 2bbd f460 64bc
000002d0: 63b4 b93c af38 65bd e15f 0ebc 35dd dc3c
000002e0: f04c b1bd 7ed2 23bc 5e23 39bd 6dfd fb3b
000002f0: 4f8a e53b 107e 43bc 2b98 aabd 4a81 9c3c
00000300: 76c5 0fbd 9706 75bd 66a3 5a3d e8aa 223d
00000310: e8e2 25bd f1e4 373d 7245 7ebb a50f 2abc
00000320: 5468 b3bd 0c8a 96bd c707 9ebd 24b1 513d
00000330: ecf0 573d 7445 47bd 50d1 65bc 902a 6f3d
00000340: 5269 4cbd 4e91 95bc 81dd 75bd e2d3 0fbd
00000350: f6f0 613b 764c 97bd 7df2 a0bd 4690 12bd
00000360: 36c9 4d3c b7a2 86bc 1fd0 683d c92e ee3a
00000370: 6cdd 8f3c 17d3 3e3d 74ad 46bd 0d17 80bd
00000380: 6369 a63d e2f4 adbd de13 253d 3375 7e3c
00000390: 1ecf 193d 8ff1 4dbd dbdf bfbc cf7f b23b
000003a0: 30ec 853d 42bc 3cbd ebe0 613d 911e b93b
000003b0: d881 2fbd 8077 8f3d 3d69 09bd 3659 9cbc
000003c0: 039c 733d 24f9 3fbd 39a1 813d b964 ac3b
000003d0: 147f 2abc cffd 66bd 3b37 063c a537 0439
000003e0: 714f 8f3c 7b25 3c3d caa6 f239 2a64 a93d
000003f0: b66e 143d 1ff1 bd3a 036d 8ebd 180f 50bd

conv2.bias f4 [32]
0.056963872 0.019055845 0.035019245 0.06264198 -0.053596877 0.04130558 -0.043110933 0.048630394
-0.07275423 0.07716198 -0.06717496 0.07021448 -0.005642772 -0.011670916 0.0062748822 -0.049590692
0.050981887 0.049852487 0.002200167 -0.07027435 0.055665534 -0.08786327 -0.08643734 -0.03813699
0.08496215 -0.0675014 0.06732175 0.049352422 0.06914181 -0.009847344 -0.0575883 0.007592036
00000000: f352 693d 011b 9c3c 5770 0f3d 704a 803d
00000010: 6688 5bbd 0a30 293d 1795 30bd aa30 473d
00000020: 2b00 95bd 1a07 9e3d 0793 89bd 9ccc 8f3d
00000030: 01e7 b8bb 5f37 3fbc 879d cd3b 9c1f 4bbd
00000040: 62d2 503d 1f32 4c3d ad30 103b 00ec 8fbd
00000050: 8b01 643d a8f1 b3bd 0f06 b1bd 8835 1cbd
00000060: a300 ae3d 2d3e 8abd fcdf 893d c425 4a3d
00000070: 399a 8d3d c156 21bc b6e1 6bbd 9dc6 f83b

fc.weight f4 [2, 9600]
-0.012977348 -0.008444278 -0.009280555 -0.0152478935 -0.013242584 -0.011252301 -0.0077782148 -0.013667767
-0.0026793347 -0.009829858 -0.00885346 0.000990675 -0.007779283 0.0021134578 -0.005451026 -0.015209965
-0.0022978343 -0.012040007 -0.009925618 -0.0149196545 -0.004395661 -0.01267443 -0.012928082 -0.0081159985
-0.008279354 -0.009984409 -0.008976264 0.0041783 -0.005333898 -0.0084780855 -0.009109281 -0.015923718
-0.0015286455 -0.0068414262 -0.00027326294 -0.009315785 -0.0045640804 -0.013309889 -0.0095239915 -0.011202075
-0.011051034 0.0025794578 -0.009964656 -0.015262149 0.002143963 -0.0085525215 -0.0038804065 -0.008746604
-0.012340149 0.003245863 -0.015222295 -0.011090308 -0.0065340707 -0.015533087 -0.010028547 -0.005188543
-0.011086252 -0.011772488 -0.0075524077 0.0012295326 -0.0018897435 0.0008689297 -0.0014905361 -0.013932418
-0.010395832 -0.012657185 0.0036870274 0.0030771059 -0.013975321 0.0016785489 0.00043284334 -0.0019943607
0.0028719269 0.0015558326 0.0019592457 -0.0092078205 -0.0063080005 -0.0114616165 -0.010448434 -0.0064346665
0.003946538 -0.015720025 -0.008891899 -0.0030226116 -0.009679724 0.0021096645 -0.016044961 -0.0016842134
-0.011556744 -0.00492149 -0.0012153859 -0.0017303725 -0.0038085706 -0.01421184 -0.010429319 -0.00080244406
-0.007475052 -0.0042363857 -0.007785314 -0.011587561 -0.00705788 0.003266852 -0.0063203275 -0.0138504235
-0.013532145 7.631525e-05 -0.010396404 -0.002109817 -0.0067218062 -0.015391482 0.0013914958 0.0011533151
-0.015516526 -0.010274345 -0.011139455 -0.0004638897 -0.014296639 -0.0012989272 -0.015722105 -0.011221612
0.0003437948 -0.013763471 0.0035971417 -0.015635474 -0.013760324 -0.0012217722 -0.0031305903 -0.0066465246
-0.0059679667 0.0030979414 -0.015131317 -0.0022208395 -0.0104853455 -0.0051587834 -0.016139273 -0.0014370836
-0.0055149193 -0.006181612 0.0032493293 -0.013579626 -0.009625871 0.0020815656 -0.0041559795 -0.006420304
-0.01148116 -0.010545721 -0.011501227 -0.0021274989 -0.0018031606 -0.016154723 0.003018579 -0.013378866
0.0009886184 -0.011593448 -0.00047689458 0.0013021213 0.0026882165 -0.005696601 -0.0014134317 0.0036816201
-0.004658223 -0.01505062 -0.0060827024 -0.002922735 0.0024574916 0.0008568303 0.0032479877 -0.008359767
-0.010580026 -0.00011036715 0.0006846117 -0.014648415 -0.008925216 0.0034430432 -0.008251585 0.0012177363
-0.0020776752 -0.003704793 -0.0006942984 -0.0023145238 -0.0004253288 -0.0015999336 -0.011553653 0.0007702428
-0.0043200483 0.0012296758 -0.0060934834 -0.0013171802 -0.0071947444 -0.010729602 0.00312988 -0.013330681
-0.0028317622 -0.004427404 -0.0054034637 -0.011704069 -0.010406701 -0.008076518 -0.00239965 0.0037815513
-0.011745575 0.0030375617 -0.012284993 -0.010972178 -0.001526268 0.0012385179 -0.009417595 -0.014024823
-0.008466096 -0.01288878 -0.011247887 0.003114987 -0.009051845 -0.0141088255 -0.013017331 -0.010062662
-0.0130803855 -0.012120597 -0.0076572336 -0.006072789 -0.008098607 -0.002546206 -0.012922708 -0.0069165733
-0.012958798 -0.0024373939 -0.014731675 -0.013229168 0.0036250572 -0.00833178 -0.0007219114 -0.0029726506
-0.00044118555 -0.004324894 -0.0032020311 -0.008728585 -0.0057048537 0.0005811996 0.0006987737 -0.0045727356
-0.013492307 -0.0017877303 -0.013553089 0.0029811787 -0.005858065 -0.011108171 -0.01257171 -0.0022549068
-0.015389671 -0.013580587 -0.007724917 -0.0057418314 -0.0015527399 0.00301043 0.0017229388 -0.014950835
00000000: f19e 54bc de59 0abc 780d 18bc 4dd2 79bc
00000010: 6cf7 58bc 925b 38bc 65e0 febb c5ee 5fbc
00000020: c797 2fbb 6a0d 21bc 1a0e 11bc 89d9 813a
00000030: 5be9 febb f081 0a3b 859e b2bb 3833 79bc
00000040: 4397 16bb 7343 45bc 0f9f 22bc 9171 74bc
00000050: 7a09 90bb 6aa8 4fbc 4ed0 53bc f7f8 04bc
00000060: 21a6 07bc a695 23bc 2e11 13bc 1fea 883b
00000070: fbc7 aebb abe7 0abc 183f 15bc 7572 82bc
00000080: d55c c8ba 0b2e e0bb bb44 8fb9 3ca1 18bc
00000090: 488e 95bb b811 5abc 840a 1cbc e888 37bc
000000a0: 650f 35bc 1f0c 293b cc42 23bc 180e 7abc
000000b0: bb81 0c3b e01f 0cbc 6b4e 7ebb eb4d 0fbc
000000c0: 562e 4abc 8bb8 543b ef66 79bc 20b4 35bc
000000d0: c21b d6bb 7d7e 7ebc c64e 24bc a704 aabb
000000e0: 1ca3 35bc 65e1 40bc 307a f7bb 4528 a13a
000000f0: 45b1 f7ba e3c8 633a 185e c3ba cc44 64bc
00000100: 4853 2abc 1560 4fbc 0ea2 713b 45a9 493b
00000110: bff8 64bc c102 dc3a 40ef e239 d2b3 02bb
00000120: f036 3c3b 14ed cb3a b066 003b 66dc 16bc
00000130: 58b3 cebb 81c9 3bbc e92f 2bbc e5d9 d2bb
00000140: f651 813b 48c7 80bc 54af 11bc 0217 46bb
00000150: b597 1ebc 4c42 0a3b b970 83bc d3c0 dcba
00000160: 7f58 3dbc 7344 a1bb 954d 9fba abcd e2ba
00000170: 3699 79bb c7d8 68bc bcdf 2abc 1c5b 52ba
00000180: 48f1 f4bb 61d1 8abb f31b ffbb c1d9 3dbc
00000190: ca45 e7bb af18 563b c01a cfbb e3ec 62bc
000001a0: eeb5 5dbc 700b a038 ae55 2abc db44 0abb
000001b0: 9942 dcbb 8e2c 7cbc da62 b63a d52a 973a
000001c0: 0739 7ebc ba55 28bc 4382 36bc 3936 f3b9
000001d0: 733c 6abc c440 aaba a5cb 80bc dada 37bc
000001e0: 5b3f b439 2e80 61bc 06be 6b3b f715 80bc
000001f0: fb72 61bc df23 a0ba 972a 4dbb 17cb d9bb
00000200: ef8e c3bb d506 4b3b 58e9 77bc 818b 11bb
00000210: baca 2bbc 030b a9bb 8236 84bc 865c bcba
00000220: 7fb6 b4bb 1f8f cabb b3f2 543b 147d 5ebc
00000230: d4b5 1dbc e06a 083b e22e 88bb 6a61 d2bb
00000240: 7a1b 3cbc f6c7 2cbc a46f 3cbc 826d 0bbb
00000250: 0858 ecba e956 84bc 5ad3 453b 0833 5bbc
00000260: 8794 813a 72f2 3dbc b507 fab9 f1ab aa3a
00000270: ca2c 303b 8daa babb e642 b9ba 5647 713b
00000280: 02a4 98bb e096 76bc 6851 c7bb 5b8b 3fbb
00000290: de0d 213b e89c 603a 31dc 543b 67f7 08bc
000002a0: d857 2dbc ea74 e7b8 8377 333a e8ff 6fbc
000002b0: 123b 12bc aea4 613b a831 07bc 739c 9f3a
000002c0: 9b29 08bb 1dcc 72bb 9401 36ba 44af 17bb
000002d0: aafe deb9 ddb4 d1ba 884b 3dbc 1fea 493a
000002e0: 318f 8dbb 132d a13a d8ab c7bb 3ca5 acba
000002f0: e4c1 ebbb 36cb 2fbc ac1e 4d3b ee68 5abc
00000300: 1695 39bb c213 91bb 8a0f b1bb 6cc2 3fbc
00000310: de80 2abc 5f53 04bc 7243 1dbb e7d3 773b
00000320: 8370 40bc d411 473b ff46 49bc a6c4 33bc
00000330: 0e0d c8ba c455 a23a 424c 1abc 5fc8 65bc
00000340: 61b5 0abc 762b 53bc 0f49 38bc cf24 4c3b
00000350: 314e 14bc b428 67bc a546 55bc dddd 24bc
00000360: 1d4f 56bc 7895 46bc 88e9 fabb 3ffe c6bb
00000370: 05b0 04bc 3fde 26bb c4b9 53bc 6ca4 e2bb
00000380: 2351 54bc afbc 1fbb 205d 71bc 27bf 58bc
00000390: 5e92 6d3b 0582 08bc a73e 3dba cdd0 42bb
000003a0: ec4e e7b9 d7b7 8dbb 2bd9 51bb 5702 0fbc
000003b0: c8ef babb a55b 183a e92d 373a e3d6 95bb
000003c0: d60e 5dbc 4652 eaba c70d 5ebc e15f 433b
000003d0: 03f5 bfbb 0cff 35bc 93f9 4dbc 0fc7 13bb
000003e0: f524 7cbc 1c81 5ebc 4d21 fdbb f925 bcbb
000003f0: 4e85 cbba a24a 453b 3cd4 e13a 59f4 74bc

fc.bias f4 [2]
-0.0016057226 0.014548668
00000000: 1c77 d2ba 895d 6e3c
