saved_models/pd_model_0x35_s.pth (torch, 98776 bytes, 6 tensors)

conv1.weight f4 [16, 1, 3, 3]
0	0xbe28e69f	-0.16494225
1	0xbdcaaa2c	-0.09895739
2	0x3db5e1d5	0.08880965
3	0x3de69902	0.11259653
4	0x3e9ca32f	0.3059325
5	0xbe3ee185	-0.18640716
6	0x3e8f325c	0.2796811
7	0xbebe4382	-0.3716088
8	0x3e635593	0.22200613
9	0x3e298288	0.165537
10	0x3eab3be7	0.3344414
11	0x3e941443	0.28921708
12	0xbe5855ac	-0.21126431
13	0x3e4024b9	0.18764009
14	0x3e080e8f	0.13286804
15	0xbc69ec9c	-0.0142776035
16	0x3ec6ea1f	0.38850495
17	0xbe299064	-0.16558987
18	0xbe3068b3	-0.1722744
19	0xbd18b618	-0.037283033
20	0xbea53b5a	-0.32271844
21	0x3ecab01d	0.3958749
22	0xbeb3d993	-0.35126933
23	0xbe6f9cd0	-0.23399663
24	0x3e6d25a8	0.23158896
25	0x3ea72fd4	0.32653677
26	0x3dd02dfb	0.1016502
27	0x3eab2f39	0.33434466
28	0xbe0a205b	-0.13488905
29	0xbe819665	-0.25310054
30	0x3e942962	0.28937823
31	0x3e3fd8f4	0.18735105
32	0xbd2da5d6	-0.04239448
33	0x3ece736a	0.4032243
34	0x3ec8a8d9	0.3919132
35	0xbeabe109	-0.33570126
36	0xbe838555	-0.25687662
37	0xbd8ff458	-0.07029027
38	0x3e9b36c5	0.30315223
39	0xbdfada30	-0.12248647
40	0x3ddb27c8	0.10700947
41	0xbe90c66e	-0.2827639
42	0x3dda1ef9	0.10650439
43	0xbe95834a	-0.29201728
44	0x3e9bcf40	0.30431557
45	0xbe5718b5	-0.21005519
46	0x3eb427f2	0.35186726
47	0x3ea33dd9	0.31883124
48	0xbe9ac363	-0.30227193
49	0x3d3107b4	0.043220237
50	0xbe7cc19e	-0.24683234
51	0x3e98a6a7	0.29814646
52	0xbeaa1f59	-0.3322704
53	0x3e267d40	0.16258717
54	0xbe8b23b1	-0.27175668
55	0x3ec66822	0.38751322
56	0xbd765500	-0.060139656
57	0xbc92e71f	-0.017932473
58	0x3ced8cfd	0.028997893
59	0xbe6b76c6	-0.22994527
60	0x3d3d2cfd	0.046185482
61	0x3e5669b2	0.20938757
62	0xbe98ca6e	-0.29841942
63	0xbd921526	-0.0713294
64	0xbcef8323	-0.029237336
65	0x3e666c01	0.22502138
66	0xbc9d24e7	-0.019182635
67	0x3d889e43	0.06670811
68	0xbe1ec944	-0.15506464
69	0x3e8a64ce	0.27030033
70	0xbd0d41a1	-0.034486417
71	0xbe9f3de3	-0.31101903
72	0x3ec45310	0.38344622
73	0x3e2d3a11	0.16916682
74	0xbe22a241	-0.15882207
75	0x3e624118	0.22095144
76	0x3e073318	0.13203084
77	0x3ecc3f16	0.3989188
78	0xbe1a8b2c	-0.15092152
79	0xbeaf6e2e	-0.34263748
80	0x3ea22c7a	0.31674558
81	0xbe3be0da	-0.18347493
82	0xbe04369b	-0.12911455
83	0x3ebb8ca5	0.3663074
84	0x3eacd5bc	0.33756816
85	0x3e60942f	0.21931528
86	0x3e53b874	0.20675832
87	0x3ebfe672	0.37480503
88	0x3e8a9642	0.27067763
89	0xbc50e82a	-0.012750665
90	0x3e7ebeb6	0.24877438
91	0x3e4b9338	0.19880378
92	0xbe167225	-0.1469198
93	0x3e1e42c0	0.1545515
94	0xbdd64d2c	-0.10463938
95	0xbbbd2bd8	-0.005773049
96	0xbe0e7668	-0.13912356
97	0xbdff4286	-0.1246386
98	0xbe830737	-0.25591442
99	0x3eb80b90	0.3594632
100	0x3eadf020	0.33972263
101	0xbe62d6ae	-0.22152206
102	0xb9f336bb	-0.0004638935
103	0x3e6428e3	0.22281222
104	0x3d5aade0	0.053388476
105	0xbe8c2817	-0.27374336
106	0xbe253f9b	-0.16137545
107	0xbe6cd740	-0.23128986
108	0xbec30755	-0.3809153
109	0xbe726a34	-0.23673326
110	0x3ebdad94	0.37046492
111	0xbd899e47	-0.06719642
112	0xbea220cc	-0.31665647
113	0x3e9caa5c	0.30598724
114	0xbe689183	-0.22711758
115	0x3d83b93a	0.064318135
116	0xbe7b5203	-0.24543004
117	0xbe966189	-0.29371288
118	0xbc8fc4b9	-0.01754986
119	0x3e838b01	0.2569199
120	0xbd8f53e7	-0.06998425
121	0x3e97c54c	0.29642713
122	0x3e567dbe	0.20946404
123	0x3bc4a6b3	0.0060013174
124	0x3e962dc8	0.29331803
125	0x3dd46973	0.10371675
126	0x3e8c8ebe	0.27452654
127	0x3e945495	0.2897078
128	0x3df9af46	0.12191634
129	0x3de259cb	0.11052283
130	0x3d3030d9	0.043015335
131	0x3e34ffe4	0.1767574
132	0xbe8267e8	-0.254699
133	0x3dec3bbf	0.11534833
134	0x3da617fd	0.08110044
135	0xbe0c56b2	-0.13704947
136	0x3e79eaec	0.24406022
137	0x3ed28b61	0.41121963
138	0xbea733a8	-0.32656598
139	0x3ea15a41	0.3151417
140	0xbda7ff6d	-0.082030155
141	0xbe3cd841	-0.1844187
142	0xbe375a60	-0.17905569
143	0x3e8ca386	0.27468508

conv1.bias f4 [16]
0	0x3ab4240f	0.0013743656
1	0x3c1e63e3	0.00966737
2	0xbd53506e	-0.051590376
3	0x3bcff280	0.006346047
4	0xbe992329	-0.29909638
5	0xbd91cf90	-0.071196675
6	0xbd221cfa	-0.039578415
7	0x3d9d6741	0.0768571
8	0x3e514c61	0.20439292
9	0x3ad8ead0	0.0016549472
10	0xbe78747f	-0.2426319
11	0xbcba77c4	-0.022762187
12	0x3a9e4a25	0.001207654
13	0xbe955df1	-0.29173234
14	0xbe8f1587	-0.27946112
15	0xb921f47e	-0.00015445237

conv2.weight f4 [32, 16, 3, 3]
0	0x3d2ba3ff	0.041904446
1	0x3d1581eb	0.036500853
2	0xbd5ef68b	-0.05443434
3	0xbda4aa03	-0.0804024
4	0xbdb779ae	-0.089587554
5	0x3cf8e0c2	0.03038061
6	0xbc9fbcf1	-0.019499274
7	0xbde613c0	-0.11234236
8	0x3d4fbd49	0.050717626
9	0x3e0ffbb8	0.14060867
10	0x3d118b0e	0.035533004
11	0x3d4bfbc5	0.049800653
12	0x3d3faf6c	0.046798155
13	0x3d0012df	0.031267997
14	0x3d614311	0.0549956
15	0xbdf49e29	-0.11944229
16	0xbc5179da	-0.012785399
17	0xbb4e1344	-0.0031444589
18	0xbd38a7d1	-0.045081917
19	0x3da88fd6	0.082305595
20	0x3ccf2b36	0.02528916
21	0xbdc38645	-0.09547094
22	0xbdc60ef6	-0.09670822
23	0xbda7b6eb	-0.08189186
24	0xbd043489	-0.032276664
25	0x3c81b6b2	0.015834186
26	0x3c90e209	0.017685907
27	0x3d9e7526	0.07737188
28	0xbb4480f6	-0.0029984093
29	0xbcdfb5a7	-0.027308298
30	0xbdf78648	-0.12086159
31	0x3d0830bc	0.0332496
32	0x3c1f597e	0.009725926
33	0xbd8f91f8	-0.07010263
34	0xbdfdfc99	-0.12401695
35	0xbd34dae1	-0.04415405
36	0xbda6acc7	-0.081384234
37	0xbc2ece2b	-0.010669271
38	0x3d3e2957	0.046426143
39	0xbd83cc7f	-0.06435489
40	0xbd8826b9	-0.06648011
41	0xbd9d913b	-0.07693716
42	0x3a0a1c44	0.0005268494
43	0x3d1c3187	0.03813317
44	0x3c6d7e89	0.0144955
45	0x3cecac78	0.028890833
46	0x3d59db82	0.053187855
47	0xbd727264	-0.059191123
48	0xbd358640	-0.044317484
49	0x3b9dd0a1	0.0048161303
50	0xbcc39244	-0.023873456
51	0xbaa076f3	-0.0012242481
52	0x3ca9f489	0.020746486
53	0x3d37bdf3	0.044858884
54	0x3e1ef15c	0.15521759
55	0xbc2fe9f3	-0.01073693
56	0x3d1e622d	0.038667846
57	0x3d41b585	0.04729225
58	0x3cc46892	0.023975644
59	0x3d34a5f2	0.04410357
60	0xbc329d06	-0.010901695
61	0x3cf37fd0	0.029724032
62	0x3d1803bf	0.037112948
63	0x3dd30387	0.10303407
64	0x3dc82e5a	0.09774466
65	0xbc439462	-0.011937233
66	0x3bed7bbc	0.0072474163
67	0xbc77af71	-0.015117512
68	0xbcdfc156	-0.02731387
69	0xbc4ea6f2	-0.012613045
70	0x3d66c17a	0.056336857
71	0xbc2ecf1a	-0.010669494
72	0x3db736a5	0.089459695
73	0x3cf69088	0.030098215
74	0x3bc2e59d	0.005947782
75	0x3d53b2e6	0.051684283
76	0xbd861f94	-0.06548992
77	0x3cc5b598	0.024134442
78	0xbc4e15a5	-0.012578403
79	0xbd3ab982	-0.04558707
80	0xbd9ad3a8	-0.075599015
81	0x3d89114c	0.06692752
82	0x3dfdf7a2	0.12400748
83	0x3d728240	0.059206247
84	0xbc8bf43c	-0.017084233
85	0xbcd95332	-0.026528928
86	0xbd96cf0b	-0.07363709
87	0xbdfbfa6e	-0.12303625
88	0xbd749b82	-0.059718616
89	0x3d14a84a	0.036293305
90	0x3cd98928	0.026554659
91	0xbe022ebf	-0.12713145
92	0xbca9a916	-0.02071051
93	0xbd023e59	-0.03179774
94	0x3c8671df	0.01641172
95	0x3c2c9bd9	0.010535204
96	0xbce9ac6d	-0.028524602
97	0xbe141ff8	-0.1446532
98	0xbdc1856d	-0.09449277
99	0x3e0c83c5	0.13722141
100	0x3d520c20	0.051281095
101	0x3d819ccd	0.063287355
102	0x3d4fd286	0.05073788
103	0x3d68e3e6	0.056857966
104	0x3d069fae	0.032867126
105	0xbd476d90	-0.04868847
106	0xbba0b542	-0.00490442
107	0x3c653b63	0.01399121
108	0x3e1ad473	0.15120105
109	0x3bcf3eca	0.0063246237
110	0x3d137b47	0.03600624
111	0x3d6171f0	0.0550403
112	0xbdab3100	-0.083589554
113	0x3b8ad43f	0.0042367275
114	0xbe29c374	-0.16578466
115	0x3c011a1b	0.007879759
116	0xbdcd03d9	-0.100104995
117	0xbc8fadd7	-0.017538948
118	0x3d04dbd0	0.032436192
119	0xbda0d40b	-0.07852944
120	0xbd086e98	-0.033308595
121	0x3cac70ce	0.021049883
122	0xbcd9d5bd	-0.026591176
123	0xbdf72383	-0.1206732
124	0xbd634800	-0.055488586
125	0xbd524bcd	-0.05134182
126	0xbdc81c0c	-0.097709745
127	0x3b8567c2	0.004071207
128	0xbc2755e4	-0.010213349
129	0xbe15149f	-0.14558648
130	0x3caa15f8	0.020762429
131	0x3d22dd1c	0.039761648
132	0xbdd014d6	-0.10160224
133	0xbd5bad15	-0.05363186
134	0xbca4305d	-0.020042593
135	0x3d9dce65	0.07705382
136	0xbcaaf883	-0.020870453
137	0xbcc4a322	-0.024003569
138	0x3dbb3857	0.09141605
139	0x3d36e16c	0.044648573
140	0x3c1ee19c	0.009697344
141	0xbcb2c96c	-0.021824561
142	0x3bc3dc79	0.00597721
143	0xbd89780f	-0.067123525
144	0x3c4aeffe	0.01238632
145	0xbcdc030a	-0.026856918
146	0x3c845cb4	0.016157486
147	0x3d521a22	0.051294453
148	0x3c9fda7d	0.019513363
149	0x3c4fbedc	0.012679782
150	0x3d283a7c	0.0410714
151	0x3d2fa2cd	0.04287987
152	0xbcde571b	-0.027141144
153	0xbdb83473	-0.08994379
154	0x3c3f24ec	0.011666518
155	0x3d114d02	0.03547383
156	0x3d3f1537	0.04665109
157	0x3d8536c2	0.06504585
158	0xbc065040	-0.008197844
159	0xbd99bba2	-0.07506491
160	0xbda319df	-0.07963919
161	0x3cf76d0b	0.030203363
162	0x3d00fb9e	0.03148996
163	0x3c9b9e26	0.01899631
164	0xbca31a22	-0.019909922
165	0x3d8a0c34	0.06740609
166	0x3c75b90b	0.014997731
167	0x3d616be0	0.05503452
168	0xbdcc9145	-0.099886455
169	0x3d58cdd8	0.052930683
170	0x3c63070d	0.0138566615
171	0xbdc98944	-0.098406345
172	0x3d8f54d5	0.06998602
173	0x3aef16df	0.0018241069
174	0x3d88900d	0.066681005
175	0x3d5695f7	0.05238911
176	0x3d826677	0.063672
177	0x3d08d9df	0.033410903
178	0xbd4f0b14	-0.050547674
179	0xbd8db883	-0.069199584
180	0xbd3b4c1b	-0.045726877
181	0xbdaa7438	-0.08322948
182	0xbd5df1d6	-0.05418571
183	0x3caf6b4c	0.021413468
184	0xbd74f4f5	-0.05980392
185	0xbd845b36	-0.064627096
186	0xbdaab74e	-0.08335744
187	0xbc106723	-0.008813652
188	0xbd9abcef	-0.075555675
189	0x3c81625c	0.015793972
190	0xbdb67c56	-0.08910434
191	0x3d0ee541	0.034886602
192	0xbd981a13	-0.07426848
193	0x3d215d09	0.039395366
194	0xbd792775	-0.060828645
195	0x3d0e3a76	0.03472372
196	0xbdd2944e	-0.10282193
197	0xbd0a0ceb	-0.033703726
198	0xbc81f187	-0.01586224
199	0xbd2a135e	-0.041522376
200	0x3d0dfaad	0.03466289
201	0xbdaa05d6	-0.08301894
202	0x3c9b2cfc	0.018942349
203	0x3bb663ca	0.005566095
204	0x3d1b38f6	0.03789612
205	0x3d1c06ec	0.03809254
206	0xbd9132c6	-0.070897624
207	0xbd54f971	-0.0519957
208	0x3cc8037b	0.024415722
209	0x37daf570	2.6101916e-05
210	0x3d3c027e	0.045900814
211	0xbcbc8601	-0.023013117
212	0x3d9c8753	0.076429985
213	0xbbc750f4	-0.0060826484
214	0xbd5b5872	-0.053551145
215	0x3d89a435	0.06720773
216	0xbd03cc65	-0.032177348
217	0xbcba9fce	-0.022781279
218	0xbda756fa	-0.08170886
219	0x3d850c9f	0.06496548
220	0xbd600341	-0.054690603
221	0xbd42c24c	-0.047548577
222	0xbcbecabd	-0.023290033
223	0xbcebb1e9	-0.028771358
224	0x3d686de3	0.05674542
225	0x3bdae4bf	0.0066801007
226	0x3d0af781	0.033927444
227	0x3cbeaa64	0.023274608
228	0xbd3447d6	-0.04401382
229	0x3cd85ff3	0.02641294
230	0x3c2b50d2	0.010456281
231	0x3d0a9154	0.033830002
232	0x3c5a1592	0.013310807
233	0x3c11e504	0.008904699
234	0xbcc8c7e8	-0.024509385
235	0x3d3b0273	0.045656633
236	0x3cbd7771	0.023128243
237	0xbdecad99	-0.115565486
238	0xbd255b61	-0.04037035
239	0x3d2df8a3	0.042473447
240	0xbda0710b	-0.07834061
241	0xbe09e7e3	-0.13467364
242	0xbcbfe54b	-0.023424765
243	0x3d077165	0.033067126
244	0xbd8b3c38	-0.06798595
245	0xbd7b515d	-0.06135689
246	0x3d4e3810	0.050346434
247	0xbaab580d	-0.0013072506
248	0xbd716048	-0.05892971
249	0x3b64687e	0.0034852321
250	0xbd7f7990	-0.06237179
251	0x3d96cb86	0.07363038
252	0xbd81ef09	-0.063444205
253	0xbd1a170a	-0.037619628
254	0x3d03e186	0.032197498
255	0xbceaf897	-0.02868299

conv2.bias f4 [32]
0	0xbcc5e7fb	-0.024158468
1	0x3caf919c	0.021431737
2	0xbc7ccf85	-0.015430336
3	0x3cb55364	0.02213449
4	0x3cdf82a4	0.027283974
5	0x3da76b1f	0.081747286
6	0xbd8eb40a	-0.069679335
7	0xbc05f3f2	-0.008175837
8	0x3d8bdfd8	0.06829804
9	0x3d49e618	0.0492917
10	0x3d38c6b2	0.045111366
11	0x3d4ee0f0	0.050507486
12	0x3c0ce95d	0.00860056
13	0x3d1ceb74	0.038310483
14	0x3d97f565	0.07419852
15	0xbd1c41c4	-0.038148656
16	0xbd88ce2b	-0.066799484
17	0xbd7ffffa	-0.062499978
18	0x3d859966	0.06523399
19	0x3b660d08	0.0035102982
20	0x3c99d245	0.018777022
21	0x3d03c364	0.03216876
22	0xbc98494e	-0.018589642
23	0xbd40a0a8	-0.047028214
24	0xbcde3cc1	-0.02712858
25	0xbbc7d138	-0.006097939
26	0xbc9f7511	-0.019465001
27	0x3c999c15	0.018751184
28	0xbdb175c2	-0.08665039
29	0xbb92930d	-0.004473096
30	0x3d41ef30	0.047347248
31	0xbd24906d	-0.040176798

fc.weight f4 [2, 9600]
0	0xbbaf8e79	-0.0053575602
1	0xbd1ebbf2	-0.038753457
2	0x3c76b161	0.015056939
3	0xbbc3bb29	-0.005973239
4	0xbbe7e891	-0.0070772846
5	0xbb750e5d	-0.0037392594
6	0xba6e3893	-0.00090874097
7	0xbd18e0a3	-0.037323605
8	0xbd75abc6	-0.05997827
9	0x3c125d3f	0.008933364
10	0xbb7d6ad2	-0.0038668406
11	0x3c6c27a5	0.014413749
12	0xbcb9f4ab	-0.022699675
13	0x3b81c30b	0.0039600185
14	0xbd3c3817	-0.04595193
15	0x3b787d0e	0.0037916335
16	0xbb47c180	-0.0030480325
17	0xbb81bac5	-0.0039590322
18	0xbd4c79ef	-0.049920972
19	0xba87e5fd	-0.0010368224
20	0x3b938450	0.004501857
21	0xbcabbb5a	-0.02096336
22	0xbd233c37	-0.039852347
23	0xbd2e9142	-0.042618997
24	0x3b40f4d8	0.0029442813
25	0x39a1e286	0.00030877086
26	0x3bcb7d76	0.0062100245
27	0x3c72f79d	0.014829543
28	0xbd5c7e1d	-0.05383121
29	0xbd68c6e3	-0.0568303
30	0xbc04bb44	-0.008101288
31	0x3b159d2f	0.0022829284
32	0x3cb75bd3	0.022382652
33	0x3c4de95f	0.012567847
34	0x3bf71cbb	0.0075412667
35	0xbc721c47	-0.01477725
36	0xb9dce56a	-0.00042132597
37	0x3c2dfa52	0.010618763
38	0x3be2ae38	0.006917741
39	0xbbbab32c	-0.0056976285
40	0xbc09b2e8	-0.008404471
41	0xbc0ecfc2	-0.0087165255
42	0xbd0c4050	-0.03424102
43	0xbd5dd7c6	-0.054160856
44	0xbc556340	-0.013024151
45	0xbb25d479	-0.0025303646
46	0xbc893146	-0.016747128
47	0xbd602cb0	-0.054730117
48	0x3c80d832	0.01572809
49	0x3bf56eb2	0.0074900026
50	0xbb2f3c1e	-0.0026738713
51	0xbc65b5e9	-0.014020422
52	0x3c486ffe	0.012233732
53	0x3c05393b	0.008131321
54	0xbc23ad3b	-0.009990032
55	0xbc82eaff	-0.015981195
56	0xbbe00107	-0.00683606
57	0xbba19645	-0.0049312436
58	0xbb445067	-0.002995515
59	0xbc04db79	-0.008108967
60	0x3c62ce74	0.013843168
61	0xbc54aa37	-0.0129800355
62	0xbaa0bd40	-0.0012263432
63	0x3c545e65	0.012961959
64	0xbc110906	-0.008852249
65	0x3c6f725a	0.014614666
66	0x3c70a536	0.014687827
67	0xbb92869a	-0.004471612
68	0x3c4b4a6b	0.012407879
69	0xbbad933c	-0.0052970927
70	0xbc8c5131	-0.017128559
71	0xbce4c04c	-0.027923726
72	0x3b4d0d78	0.0031288546
73	0xbc46260a	-0.01209403
74	0x3833695c	4.277505e-05
75	0x3b9fad23	0.0048729344
76	0xbb2cddef	-0.00263774
77	0xbc98961a	-0.018626262
78	0xbb1ee8f5	-0.002424774
79	0xbabd26ca	-0.0014431116
80	0xbabe7af9	-0.0014532498
81	0x3c9dc10b	0.01925709
82	0x3bef4821	0.0073022996
83	0x3c64412e	0.013931556
84	0x3b8377b7	0.004012074
85	0xbc39641c	-0.011315372
86	0x3c38a570	0.011269912
87	0x3b658798	0.0035023447
88	0x3c97a752	0.018512402
89	0xbbaf9d9c	-0.0053593647
90	0x3c285565	0.010274266
91	0x3cf7c605	0.03024579
92	0x3adee5e7	0.0017005772
93	0x3c80c8af	0.015720693
94	0xbc02a42c	-0.007973712
95	0x3af67c82	0.0018805417
96	0xbc1cf550	-0.009579971
97	0x3c61eccd	0.013789368
98	0x3bc64109	0.0060502333
99	0x3a05598f	0.00050868926
100	0x3b006963	0.0019594065
101	0xbc952663	-0.01820678
102	0xbb37fb41	-0.0028073343
103	0x3997bff8	0.00028943992
104	0x3ac5e9ed	0.0015099623
105	0xbb92bb8c	-0.0044779237
106	0xbc20a7db	-0.009805645
107	0xbc50f52a	-0.012753764
108	0xbc0bb96d	-0.008528096
109	0x3c4d8350	0.012543514
110	0x3c5c9778	0.013463847
111	0x3caa5531	0.020792576
112	0x3c444c3b	0.011981065
113	0xba50e0cd	-0.0007968068
114	0x3c2997b5	0.010351111
115	0x3b92c82e	0.0044794297
116	0x3c4cbd7f	0.012496351
117	0x3bf52c0e	0.0074820584
118	0xbc271cda	-0.01019975
119	0x3a9a7953	0.0011785425
120	0x3c8a2924	0.01686532
121	0x3c847889	0.016170757
122	0xbc0512e1	-0.008122177
123	0xbba47fea	-0.0050201314
124	0x3bbbe9ad	0.0057346434
125	0x3bb755b2	0.0055949325
126	0x3b94e1cc	0.0045435186
127	0x3c9c47c4	0.01907719
128	0xbc79f571	-0.015256272
129	0xbb2330c7	-0.00249009
130	0x3c625a1c	0.013815429
131	0x3ca2c6f9	0.019870268
132	0x3c808cb5	0.015692094
133	0xbc6c8cc3	-0.014437857
134	0xbc87321a	-0.016503382
135	0xbb494ec9	-0.0030717126
136	0x3a8e21cb	0.0010843811
137	0x3b5065a9	0.0031798875
138	0x3bbcca8c	0.00576145
139	0xbb9fc0fc	-0.0048753005
140	0x3c8b1f94	0.016982831
141	0x3bd27a0d	0.006423241
142	0x3be38fad	0.0069446177
143	0xbc843b33	-0.01614151
144	0xbc0dde38	-0.008658938
145	0x3b4f0a7a	0.0031591938
146	0x3bdb9400	0.0067009926
147	0x3c3de226	0.0115895625
148	0xbb0482ed	-0.002021964
149	0x3c24ad96	0.010051152
150	0x3bb4c430	0.0055165514
151	0x3cba6864	0.022754855
152	0x3be2caa3	0.006921129
153	0x3bdfb260	0.006826684
154	0x3a515f39	0.00079869066
155	0xbbaabfef	-0.0052108685
156	0x3c85c642	0.016329888
157	0x3ad62707	0.0016338535
158	0x3c972a04	0.018452652
159	0x3c88f9fa	0.01672076
160	0x3c6f27f2	0.014596926
161	0x3ceaa206	0.028641712
162	0x3abbcb10	0.0014327485
163	0x3b478b4f	0.0030448025
164	0x3c5c0ccc	0.013430785
165	0xbdf2b316	-0.11850564
166	0xbd0591ef	-0.032609876
167	0x3d93cf76	0.072173044
168	0xbbb1f694	-0.0054310057
169	0xbb8e4a83	-0.0043423786
170	0xbc9a635d	-0.018846208
171	0xbc58fe32	-0.013244199
172	0x3d19523a	0.037431933
173	0x3b8696ae	0.004107318
174	0xbc4cfb6c	-0.0125111155
175	0xbc08add7	-0.008342228
176	0x3c8ac69f	0.016940413
177	0x3ce54372	0.027986262
178	0x3c751e16	0.014960786
179	0x3b18a632	0.002329242
180	0x3c80c432	0.015718553
181	0x3d3a484b	0.0454791
182	0xbb19d93e	-0.0023475434
183	0xbc6d8040	-0.014495909
184	0x3b9cde03	0.004787208
185	0x3c43bca3	0.01194683
186	0xbd40696b	-0.046975534
187	0xbd658ae1	-0.05604065
188	0xbd7c7fbe	-0.061645262
189	0xbd18cf0f	-0.03730684
190	0xbd757488	-0.059925586
191	0xbd1e0d1d	-0.038586725
192	0x3ca80c31	0.020513626
193	0xbbee2ec3	-0.007268758
194	0x3b802b9d	0.003911449
195	0x3d3cd4d2	0.0461014
196	0x3d1e0896	0.038582407
197	0xbc7d7adb	-0.015471186
198	0xbd69103a	-0.05690024
199	0x3c432010	0.0119095
200	0x3d7e1f3f	0.062041517
201	0x3ca4dd2d	0.020124996
202	0xbdaa4343	-0.083136104
203	0xbd21a723	-0.039466035
204	0xbc8e1d9a	-0.0173481
205	0xbd380484	-0.04492618
206	0xbccb5863	-0.02482242
207	0xbc80989c	-0.01569777
208	0xbca740fd	-0.020416731
209	0x3d04b175	0.0323958
210	0xbd097afe	-0.03356456
211	0xbbfccb83	-0.00771469
212	0xba10de50	-0.0005526291
213	0x3be3e230	0.006954454
214	0x3ccdccd9	0.025122093
215	0x3d085b65	0.033290286
216	0x3c74e45b	0.014947022
217	0xbd87afeb	-0.066253506
218	0x3b899411	0.004198559
219	0xbd5c96dd	-0.053854812
220	0x3aedb654	0.0018136003
221	0xbc973de3	-0.018462127
222	0xbd64a3f5	-0.055820424
223	0xbc8652c5	-0.01639689
224	0x3cf278d7	0.029598637
225	0x3d959c34	0.07305184
226	0x3d3c70eb	0.046006124
227	0x3d276273	0.040865373
228	0x3d39f2f8	0.04539773
229	0x3c7c3194	0.01539268
230	0x3b57ba62	0.003291749
231	0x3c6cff8a	0.014465222
232	0xbc9615bd	-0.018320912
233	0x3d5f85c2	0.05457092
234	0xbd0d91e7	-0.03456297
235	0xbb5fd538	-0.0034154188
236	0xbd14312c	-0.036179706
237	0xbd289c96	-0.041164957
238	0x3c2be31c	0.010491159
239	0xba5af3c5	-0.00083523645
240	0x3cb5131b	0.022103837
241	0x3d4c5eac	0.049894974
242	0x3a096b46	0.000524212
243	0xbcbdd9a0	-0.02317506
244	0xbd5057a4	-0.05086483
245	0xbd2c0438	-0.04199621
246	0xbcd30cc9	-0.025762932
247	0x3d47c478	0.04877135
248	0x3d386548	0.045018464
249	0xbb01304f	-0.0019712632
250	0xbadb587e	-0.0016734747
251	0x3cee0fa2	0.029060189
252	0xbc2d1c83	-0.01056588
253	0x3cff4005	0.031158457
254	0xb9c8ee22	-0.00038324395
255	0xbc774155	-0.01509126

fc.bias f4 [2]
0	0xba2b2fd0	-0.0006530257
1	0xbb4658bb	-0.003026529
