saved_models/pd_model_0x36_s.pth (torch, 44247 bytes, 5 tensors)

conv1.weight f4 [16, 1, 3, 3]
00000000: 8de8 5bbd ec3e 31bd a09e a03d 6dd4 1b3d
00000010: 7855 a63d 1d2b 1ebe 0f64 43bd 2585 453d
00000020: 3545 9e3e 17c4 7bbc 19b4 343e fec9 203e
00000030: 6e24 8dbe 6ba5 8e3e 65e2 893e 4948 643d
00000040: 78c1 b3bd 047e 5bbe 2afb c33d 03fc afbe
00000050: a50b 9ebe b243 463e d0bb 28be 282e 193d
00000060: 08b0 bebd 4f60 be3d a161 56be e43b ab3e
00000070: 109c a4be 271a 15be 394b 0dbb e060 923e
00000080: 55df 32be b2a6 46bd 74f4 92be cf91 90be
00000090: 1b45 783e 0161 eabd 71a4 acbe 1263 94be
000000a0: 69ec 7b3e 8614 343c cd13 da3d cb7f 203e
000000b0: c92e 23bd 2a70 90be dbf9 9abd 2b52 9bbe
000000c0: 2f08 19be d8a8 763e 9409 913e 2e8c 54be
000000d0: 4412 2dbe 90a7 e53d 6a55 543e c9ab e23d
000000e0: aa1b 843e 28f1 0f3e 24f9 fb3b 9c0b 58be
000000f0: 9673 2b3e 3651 18be 4259 06be 99f3 7fbe
00000100: d7cb abbe 7929 a03e 5998 a23e 2b79 a33e
00000110: 32fd 353e 6ead 1cbe 1d67 8abe 47ed a43d
00000120: 7e27 1d3e e8b3 84be 2b1d a6bb 1294 89be
00000130: ccdc 693e 9d23 e03c 2d7d 6e3d c6f2 703d
00000140: a833 1f3e 8a97 c53c 5232 5c3e 2f3d fdbd
00000150: 312f 9ebe 3e83 543d 2912 bfb9 7699 50be
00000160: 4460 fb3d dd5c 7fbe 78c4 69be 5081 81bd
00000170: 35fd fc3d a2c3 3cbe 878d a13e e097 163e
00000180: 6696 a4be 39c4 f2bd ffa5 a0be 4719 623e
00000190: c786 d5bc d33c 6bbe 7167 94bd 84b9 c8bd
000001a0: 5176 923e 6188 693e 5a67 b03d 5875 6c3e
000001b0: 96c8 83be 60d0 36bd 4727 a93d d1c7 17be
000001c0: 8600 273e 2857 f6bc 3757 113e 8994 923e
000001d0: 2d34 89bd 8977 6b3e f791 883e f623 953d
000001e0: 79ee 1b3e 8b35 d83c ae1a 963c dfbb a33e
000001f0: 0d0f 50be ff43 333e f689 0fbe ee4f 033e
00000200: 5ce7 f3bd ab02 b4bd 6493 6d3e 5932 51bd
00000210: 4090 31be 03df 16be c65d acbe 3ec7 8ebe
00000220: 3e30 8abe e761 33be 4abe 2dbe a23f 7d3e
00000230: 22db 9bbe 35d5 67be a2ee 9b3e e17f 203e
-0.053688575 -0.043272898 0.07842755 0.038044382 0.081217706 -0.15446134 -0.047702845 0.04822268
0.30912176 -0.015366576 0.17646827 0.15702054 -0.27566856 0.2786058 0.26930538 0.055733
-0.087771356 -0.2143479 0.0956939 -0.34371957 -0.3086826 0.19361761 -0.16477895 0.037397534
-0.09310919 0.09295713 -0.2093568 0.3344413 -0.32150316 -0.14560758 -0.0021559729 0.28589535
-0.17468007 -0.048498817 -0.28702128 -0.28236243 0.24245112 -0.11444283 -0.3371921 -0.28981835
0.24601902 0.010991221 0.10648308 0.15673749 -0.03983954 -0.28210574 -0.075671874 -0.30336127
-0.14944528 0.24087846 0.2832762 -0.207566 -0.16901499 0.11213601 0.20735708 0.11067922
0.25802356 0.14056838 0.007689612 -0.21098179 0.16743311 -0.1487473 -0.13119987 -0.24995269
-0.33553955 0.3128164 0.31756857 0.3192838 0.17772368 -0.15300533 -0.27031794 0.080530696
0.15347096 -0.25918508 -0.005069395 -0.2687078 0.22838134 0.027360732 0.058224846 0.058825277
0.15547049 0.024120111 0.2150357 -0.123651855 -0.3089538 0.051882975 -0.0003644389 -0.2037104
0.122742206 -0.24937768 -0.22828853 -0.063234925 0.12352983 -0.18434003 0.3155329 0.14706373
-0.32145995 -0.11853833 -0.31376645 0.22079955 -0.026065243 -0.22972421 -0.072462924 -0.09801009
0.28605893 0.2280593 0.08613463 0.23091638 -0.25738972 -0.044632316 0.08259445 -0.14822318
0.16308793 -0.030070856 0.14193426 0.28628948 -0.06699405 0.22994818 0.26673862 0.0728225
0.15227689 0.026392719 0.018323269 0.31979272 -0.20318241 0.17506407 -0.14017472 0.1282346
-0.11909363 -0.087895714 0.23200756 -0.051073406 -0.17340183 -0.1473351 -0.33665293 -0.27886385
-0.2698993 -0.17517816 -0.16967121 0.24731305 -0.30440623 -0.22639926 0.304555 0.15673782

conv1.bias f4 [16]
00000000: 8abc 69be 2bbb 2c3d 05c6 933e 79df debd
00000010: 8dc3 89be 11ce 893e b754 91bd a126 753d
00000020: c9a0 c53d 3f76 48be 0ca8 993e c987 99be
00000030: abd2 993e 10ba b43d 5854 2abe e392 9cbe
-0.22825828 0.042170685 0.28862014 -0.10882468 -0.26907006 0.2691503 -0.07096236 0.059851293
0.09649808 -0.19576357 0.30011022 -0.29986408 0.3004354 0.08824551 -0.16633737 -0.30580816

conv2.weight f4 [32, 16, 3, 3]
00000000: 6179 c73c dc75 89bd 0117 98bd 844d 81bd
00000010: 64d5 a13d dc4c 4cbd 2241 153d b453 a6bc
00000020: b6ae f33c d897 40bd df0f 9e3d ac33 cf3c
00000030: 4e17 8c3d 9ff6 a2bc 7311 88bd 39f9 a03c
00000040: 2f90 043d ba4d 7abd 942a a8bd a8f9 61bc
00000050: eb8a 51bc 0f53 95bd 2e40 fabc bff8 423d
00000060: a5b2 2fbd cf33 cabd 23e4 29bc 5bee 76bd
00000070: b1fc b93d 62fc efbc bb4e 7bbd fe43 4dbd
00000080: 0349 183c 6480 a6bb a092 25bc 0e47 a43d
00000090: 25df 5938 4143 993d b6df a53d 8ef7 083b
000000a0: a28a 883d 4479 05bc ab8f ddbc 7819 193d
000000b0: 3778 563d 74c0 633c 8162 91bc 09ee 0c3d
000000c0: 2b47 2fbd 67b0 063d 5f86 3bbd e0d8 bfbc
000000d0: 6b94 b0bc 5776 0cbd cada b13c d4c4 a03d
000000e0: db66 833d 7697 9c3d 0e26 453d 97e7 863c
000000f0: e69b c13d 5246 4f3d 94dd 85bc d26c 103d
00000100: 9a58 74bd 1616 3d3d 2dfc e13c 96fe a33d
00000110: c902 21bd e286 14bc e639 0ebc 49ed b2ba
00000120: 3541 2dbc 790f 983d b54d 8f3d 99cf a53d
00000130: 1aa5 133c 72c1 cab9 0211 a0bd ec58 b43b
00000140: c1aa 13bc 1e8f c33d 2028 963d 6a3e a33d
00000150: b73d 9abc 2422 543b cc85 ad3b 3629 9c3d
00000160: eab2 903d dc01 4d3d 56cb b53c 4325 4f3d
00000170: fd43 363d 504e 95bd ab57 afbd d634 8dbd
00000180: 6912 4c3d fb34 693a 5b49 4dbd cb61 9abc
00000190: 4c50 2e3c 56f6 ebbc f75c 033d a652 f9bb
000001a0: 9ab8 c6bc ecfe f8bc 7951 923c 7198 6b3d
000001b0: 684e 923d bc6d 433d 5efc 1e3d 306c 353b
000001c0: 7d4d 373d 8172 85bd 57a1 d8bc c8cc 63bd
000001d0: e4d2 833d 8719 313d 9c49 5abd b0cd 9d3d
000001e0: 6191 893b f690 85bd 78a8 56bd 67a7 003d
000001f0: 2773 8abd dc65 983d fb00 95bd ca2f 9d3c
00000200: dc01 61bd 0f13 863d 887e 57bd c1d3 febb
00000210: 8dfc 3dbc ce69 b53c e78c 09bb f9df 36bc
00000220: 2991 a9bd 8d59 8e3d 1940 ab3d 4d2a d3bc
00000230: 9bfc c5bc 0e75 963d bf2d 7fbd ada1 0abd
00000240: 9c8b 3abd 2c01 123c c3cf d8bb 0517 bb3d
00000250: 21b6 debc 2b59 dabb ad73 2b3c 8e80 11bd
00000260: 8d83 53bd 31ef b03d 1f12 9d3d 9d5b dabb
00000270: adb8 ab3c 23f7 95bd 93fa 9b3d 92e0 793d
00000280: b2b5 6d3b 92d0 fdbc 15ce 353d 4c28 22bd
00000290: a65b b6bd 1f97 32bd c461 d1bc 6167 ddbc
000002a0: 5821 243d 0899 d33c 4cd1 ad3c 9199 f73c
000002b0: 7287 5abd 6f6f 473d d45e 06bd 9a01 093c
000002c0: 06bf debc 5a80 8e3d 440e 8c3d 685a 93bd
000002d0: 0034 8bbd 27cb 363c 4af4 7dbd d168 2dbd
000002e0: 27de 0bbb 29d4 113d 9159 f0bc 9c67 c9ba
000002f0: 76a8 ea3c acc2 523d 4d2f bc39 680f 093d
00000300: 2a40 1f3d 273a debc 616b 63bd a093 b8bc
00000310: 75ab 4abd fb2f 643d e198 8f3d 0185 923c
00000320: b5a2 7c3d 1b93 b33d 78d2 953d 82cc 863d
00000330: 0b71 eebc a5ef 6fbd e369 293d 754c 003c
00000340: 543b ad3d a6e7 b4bb 4270 2abc 251d b93c
00000350: 4898 023d 41ec 69bc eeb3 5c3d 23fd 213d
00000360: 3f02 863d dd6e 6dbd 0873 28bd 7844 483d
00000370: 38f1 f33c e44a 393d 7eaf bebc 2f6a 483d
00000380: 406a f33b 64bf 443d e0ab 903c e33d 68bd
00000390: f9ad 773d 60aa 53bd 1c80 7f3d 7f4c 9d3c
000003a0: ed22 99bd c0e1 16bd 3873 6dbd 48d8 6cbd
000003b0: 7110 7a3d e7c4 a9bc 40bc 30bc bf59 5cbd
000003c0: 0e1c 9ebd c045 28bd 12f5 393d 0bcf 3cbd
000003d0: cdc5 4cbd ebf1 9e3d ce72 87bd bc08 fe3c
000003e0: 2c1f 283c 415d 81bc 0d06 2c3d f68c 9abc
000003f0: 1f3d e9bb 2097 193d dc62 1a3d 3cd8 c03c
0.02434987 -0.06711933 -0.07426263 -0.06313613 0.07902029 -0.049877986 0.03643907 -0.020303585
0.029746395 -0.04701981 0.07717871 0.025293194 0.068403825 -0.019892989 -0.06643953 0.019650089
0.032364067 -0.061109282 -0.08211246 -0.013792433 -0.012789468 -0.07291233 -0.030548181 0.047600504
-0.042894978 -0.09873163 -0.010369333 -0.060285907 0.090814 -0.02929515 -0.06135438 -0.05011367
0.009294751 -0.0050812233 -0.010105759 0.08021365 5.194465e-05 0.07483531 0.0809931 0.0020899507
0.06667067 -0.008146588 -0.027046045 0.037377805 0.05236074 0.013900865 -0.017747166 0.034406696
-0.04279248 0.032883074 -0.045782443 -0.023418844 -0.021555146 -0.034292545 0.021710772 0.07850042
0.064161025 0.076460764 0.048131995 0.016467853 0.094535634 0.050604172 -0.016341008 0.03526003
-0.05965481 0.04616364 0.027586067 0.08007543 -0.039309297 -0.009065362 -0.008680796 -0.0013651039
-0.010574629 0.07424826 0.06997243 0.08096237 0.009011531 -0.0003867257 -0.07815744 0.0055037644
-0.009012879 0.09548782 0.07331872 0.07970889 -0.018828256 0.0032368982 0.005295491 0.07625048
0.07065375 0.0500506 0.022191685 0.050572645 0.044498432 -0.072903275 -0.08561643 -0.06894843
0.049822245 0.00088961393 -0.050118785 -0.01884546 0.010639261 -0.028803986 0.03207108 -0.0076087294
-0.024257947 -0.030394994 0.017861115 0.057518426 0.07143861 0.047712073 0.038814895 0.0027682893
0.044751633 -0.065159805 -0.02644412 -0.055615216 0.064367086 0.043237235 -0.053292856 0.077052474
0.0041982387 -0.0652179 -0.052406758 0.031409647 -0.06760245 0.07441303 -0.07275578 0.019187827
-0.054933414 0.06546604 -0.052610904 -0.007776708 -0.011595857 0.022145178 -0.0020988525 -0.011161798
-0.0827964 0.06950674 0.08361835 -0.025777007 -0.024168303 0.07346545 -0.062299486 -0.033845592
-0.045543298 0.008911412 -0.006616564 0.0913525 -0.027186455 -0.0066634617 0.010464591 -0.03552299
-0.05163913 0.08639372 0.07669472 -0.006663753 0.020962084 -0.07322528 0.076161526 0.061005183
0.003627163 -0.030983243 0.04438599 -0.03958921 -0.08904199 -0.04360115 -0.025559314 -0.027026834
0.04007086 0.025829807 0.021217965 0.030224593 -0.053351827 0.048690256 -0.03280528 0.008362198
-0.027190696 0.06958075 0.068386585 -0.07194978 -0.067970276 0.011156834 -0.06200055 -0.04233629
-0.002134213 0.035602722 -0.029339584 -0.0015365961 0.028644782 0.051455185 0.00035893396 0.03346196
0.03887955 -0.027127339 -0.055522326 -0.02253133 -0.04947992 0.05570982 0.07011581 0.017885687
0.061678607 0.087682925 0.07315534 0.065819755 -0.029106637 -0.058578152 0.041360747 0.007830729
0.084585816 -0.0055207787 -0.010402741 0.022596905 0.031883508 -0.014277519 0.05388253 0.03954805
0.06543397 -0.057967056 -0.041125327 0.048893422 0.029778108 0.045237437 -0.02327704 0.04892939
0.0074284375 0.048034087 0.017660081 -0.056699645 0.060468648 -0.051676154 0.062378034 0.019201515
-0.07477365 -0.036836386 -0.05797121 -0.05782345 0.061050836 -0.020723773 -0.01078707 -0.053796526
-0.07720195 -0.041082144 0.045399733 -0.04609589 -0.049993325 0.07760986 -0.06613694 0.031010024
0.010261338 -0.015791537 0.041997958 -0.018866044 -0.007117882 0.03749764 0.037691936 0.023540609

conv2.bias f4 [32]
00000000: a523 c53c 9d7a 71bd 8964 3cbc 13e8 30bd
00000010: 2943 0ebd 1b6c 633d b448 cc3d 25a6 25bd
00000020: a8b3 5cbc 8e81 1b3d d93a 273c 111b 46bd
00000030: b010 9e3d df18 3d3d 368d 2d3d b55d dd3d
00000040: ea9f 3ebb 9f83 a9bd 9f0e d6bb 88e8 afbd
00000050: bb74 fc3d b1f8 c4bc 21e1 783d 54ee 0fbc
00000060: a18e 8b3c 3ddf b7bc 7f58 dd3c baa6 1dbd
00000070: a84c 9f3d 7940 a7bd f159 a33c 2a03 7dbd
0.024064848 -0.058954824 -0.011498579 -0.043190073 -0.034732018 0.05552302 0.099748045 -0.04044165
-0.013470568 0.03796535 0.0102069015 -0.048365656 0.07718027 0.046166297 0.042370997 0.10808889
-0.0029087015 -0.08277058 -0.0065325047 -0.08589274 0.12326952 -0.024044367 0.060761575 -0.008784849
0.017035784 -0.022445315 0.027019737 -0.03848908 0.07778293 -0.08166594 0.019940348 -0.061770596

fc.weight f4 [1, 5760]
00000000: 370e 143c bf42 4f3c 4235 f5ba be8b 643b
00000010: 9b4d 603b e2c4 d5bb 8552 dfbb 3a33 d63a
00000020: f458 7a3b 9d13 583c 9ae9 4fbb fd64 9dbb
00000030: a930 ad39 0520 183c c7c9 5ab8 73a8 7d3c
00000040: dea9 403c 7159 d53b c7c5 cf3a 163e c8bb
00000050: 3650 9d3b b42b fd3b 380e 573c 6a6f 7f3c
00000060: 7e0f 933c 2215 b83b 3077 0e3c 176d 203c
00000070: f3eb 93bb 64cd 873c 0ab8 cdbb b924 90bb
00000080: 8434 ee3b 2924 5d3c 434a 743c c186 583b
00000090: 3a16 bbbb f525 213c a765 663c 2986 443c
000000a0: 80d5 f93b 5151 773c 9e0e 433c 28de c93b
000000b0: 53f9 5a3c 487c 0d3c a5e5 403b 57d7 0dbb
000000c0: f092 5a3c c586 babb 19e0 7a3c 7656 0d3c
000000d0: 5814 243c 1659 9b3b a052 ad3b 6ad2 353c
000000e0: aa3f 19bb 95d1 5b3b 599c 9d3b cf3d debb
000000f0: 739b f3ba 4897 9c3c 7870 623c cfa1 593c
00000100: 546a 4c3b acdc c53b 93a9 bebb 985e 7f3c
00000110: b070 5abb 6c00 a5bb f5a3 963c 73d7 e2bb
00000120: 5de9 433c 9383 b53b 774e 1bbb 8846 dcbb
00000130: 81a5 26bb 5dcb 25ba af75 0a3b 3277 91b8
00000140: 51b0 66bb 04af 0a3a 7295 343c e3df 4c3c
00000150: a620 533c 0e75 e6bb a563 93bb a108 d43b
00000160: c7bd 963b 2c1b 633c 565d 08bc a2b9 393c
00000170: 4d93 173b 4d33 873c fb44 803c 557f 243c
00000180: 4a09 1f3c def7 843c ae2e 763c b733 983c
00000190: f776 2d3c 394a 413c db9e 5d3c dcdb 183c
000001a0: cf7a 0f3b 9800 be39 b640 9a3c 7f98 9a3a
000001b0: 78f2 7c3b 0532 8a3c af1c 3f3c 9ce3 813c
000001c0: c9a9 c5bb 213a afbb ec9a debb 769f eb3a
000001d0: ef27 363c b367 5ebb 531d 96bb 413a 0f3b
000001e0: 3bc0 f8bb bfb1 0c3c 87f8 9f3b f25c 783c
000001f0: 9b8a d83b 2378 323c 2a1c e4bb 403c a33a
00000200: a81e 9c3c d2cd e438 ccda 0e3c 0b51 563c
00000210: e76c eebb a965 4d3b 174d b1bb 7c6d a13b
00000220: c690 853c 2ed1 8d3c 9fb7 7d3c 45e0 1e3c
00000230: d232 6c3c f425 1e3c 77d2 3539 b447 993a
00000240: e099 ab3b 63de 4f3c f500 143c 3e31 633c
00000250: 9698 953c 1b26 8e3c 1831 8a3c 8bd1 c63b
00000260: b8bb e7bb aa0a 2a3c ac51 b4bb b69a 1d3c
00000270: ebdc 153c c4a5 aebb dbba 623c 5253 703c
00000280: 70cf 723b 30a9 703c 3739 6cba 443f 8f3c
00000290: 96d8 df3b 744b f9bb 3c02 213c 7c2c 923c
000002a0: db3b 2d3c a116 843b 615e e63a 3d6e 9738
000002b0: 8eae 3f3b 3524 193c 43ee 13bb 1a0a e7ba
000002c0: 3c80 eabb 15a9 c63b 4c23 b83b 6c39 713c
000002d0: d60f e03a 0326 8c3c 33a0 a63b 44b7 ac3b
000002e0: d198 993b 76d8 a03b d304 a5bb f05e 36ba
000002f0: 592a 2b3c d3a0 b73a 8727 743b 9d19 b93b
00000300: ca75 1d3c 3859 843c 1fd5 ecba 4e91 32b9
00000310: 6c04 863b 7018 e2bb cee1 08bb 4dd1 7038
00000320: 6305 ed3b 917d 8b3c efea 133c 2ef2 7a3c
00000330: 37e8 953c 075e 073b d9ca 8dbb 1812 2d3c
00000340: 8aab 163c 6b84 903b 9664 5f3b e671 a73b
00000350: e9bb 8e3c 495b 953c ee75 413c 30eb 7f3c
00000360: 9246 0d3c ec4f 4a3b dd16 093c dbc4 a93a
00000370: 0f76 783c e59b ba3b 313c ad3b 20c4 2b3c
00000380: 87b2 9a3b 7a6f 8e3b 8440 923c 5589 823c
00000390: d8db 53b7 0516 fa3b 06c1 7e3c 02ef 073c
000003a0: 8a05 923b 0b7a 2e3c 1bb2 603c 065a 883a
000003b0: 6412 8f3c 7af1 183c 7e81 8d3c 4dbf c03b
000003c0: d359 2c3c 6dc8 5d3c 08ef 523c 48a4 893c
000003d0: 1843 74bb d133 123b 27d4 233c 419b a63b
000003e0: bdba 91bb 20ba 60bb d29e 51b9 0bd8 7f3c
000003f0: 8d85 fe39 1f3b f9bb b87c ee3b b049 7c3b
0.009036592 0.012650191 -0.0018707889 0.0034873332 0.0034225944 -0.0065237144 -0.006815257 0.0016342171
0.0038199993 0.01318827 -0.003172493 -0.0048032985 0.00033033386 0.009284978 -5.216317e-05 0.015482056
0.0117592495 0.0065109064 0.0015851789 -0.006110917 0.0048008217 0.007726157 0.013125949 0.015590528
0.017951723 0.0056177536 0.008695409 0.009791634 -0.0045142113 0.01657743 -0.0062780427 -0.004398909
0.007269444 0.013497391 0.0149102835 0.0033039304 -0.0057094367 0.00983571 0.014062322 0.011994877
0.007624328 0.015095071 0.0119053405 0.0061605163 0.013365108 0.008635588 0.0029433754 -0.0021643245
0.013340697 -0.0056923353 0.015312218 0.008626571 0.010014616 0.0047408445 0.0052893907 0.01109753
-0.0023383894 0.0033541669 0.004809898 -0.0067822705 -0.0018585756 0.019115105 0.01382076 0.013283207
0.0031191306 0.006038269 -0.0058185547 0.015586518 -0.0033331327 -0.0050354507 0.018388728 -0.006922656
0.011957494 0.0055393665 -0.0023697892 -0.006722275 -0.0025428238 -0.0006324554 0.0021127274 -6.936341e-05
-0.0035200308 0.00052903616 0.011021959 0.012504551 0.012886202 -0.007032997 -0.0044979625 0.006470755
0.00460026 0.013861459 -0.008323034 0.011335762 0.002312857 0.016503954 0.015657892 0.010040124
0.0097068045 0.016231474 0.015025778 0.018579347 0.010587445 0.011797481 0.013526644 0.009329762
0.0021893268 0.00036240066 0.018829685 0.0011794715 0.003859667 0.016869554 0.011664554 0.015855603
-0.006032203 -0.0053475057 -0.0067933705 0.00179766 0.011117919 -0.0033936321 -0.0045811324 0.002185479
-0.007591275 0.0085873 0.0048819217 0.015158879 0.00660832 0.010892901 -0.006961365 0.0012453869
0.019057587 0.00010910224 0.008719157 0.013080846 -0.0072761658 0.0031341112 -0.005410801 0.0049263816
0.016304385 0.017311659 0.015485673 0.009697025 0.014416413 0.009652603 0.0001733991 0.0011694343
0.005236849 0.0126872985 0.009033431 0.013866721 0.018261235 0.017352154 0.016869113 0.00606746
-0.0070719384 0.010378519 -0.0055029 0.0096194055 0.009146909 -0.0053298194 0.013838495 0.014668303
0.0037049912 0.014688775 -0.0009011211 0.017486222 0.006831239 -0.0076078717 0.009827193 0.017843477
0.010573353 0.004031018 0.0017575735 7.2207746e-05 0.002924833 0.009347011 -0.0022572435 -0.0017626912
-0.0071564 0.0060626366 0.005619442 0.014723163 0.0017094563 0.01710797 0.005085015 0.0052708704
0.0046874066 0.0049086167 -0.0050359755 -0.0006956896 0.010447108 0.0014009721 0.0037255005 0.0056488053
0.009610603 0.016155824 -0.0018068886 -0.00017029533 0.0040898826 -0.006899886 -0.0020886543 5.7415386e-05
0.007233308 0.017027648 0.0090281805 0.015316529 0.018299205 0.002065541 -0.00432716 0.010563396
0.009196172 0.0044103167 0.0034087054 0.0051100133 0.017423587 0.018232005 0.011807902 0.015620038
0.008622782 0.003087039 0.008367267 0.0012952344 0.015164866 0.0056948536 0.0052867164 0.010483772
0.004720989 0.004346785 0.01785303 0.015934626 -1.2627766e-05 0.0076320195 0.01554895 0.00829673
0.0044562267 0.0106492145 0.013714339 0.0010402806 0.017464824 0.009334916 0.01727366 0.00588218
0.010519463 0.013536555 0.012874372 0.016801968 -0.0037271436 0.0022308717 0.0099993115 0.0050844257
-0.0044473098 -0.0034290627 -0.00019990958 0.0156154735 0.00048546158 -0.0076059247 0.007278051 0.003849607
