saved_models/pd_model_0x35_s.pth (torch, 98007 bytes, 6 tensors)

conv1.weight f4 [16, 1, 3, 3]
-0.20459822 -0.26457062 -0.12386074 -0.15427098 -0.31025848 0.043077324 -0.16259347 -0.2309586
0.30380613 0.15927799 -0.15761138 0.10586181 -0.2280984 -0.30135828 -0.16886206 0.25938544
-0.14653732 0.15684564 0.118974626 0.05618555 0.13832586 0.1794384 -0.26678312 -0.10571355
0.27131367 0.19149652 -0.031777456 0.09357652 0.22844878 0.17090024 -0.0017863959 -0.14654738
0.10771045 0.2714588 0.30070892 0.31584123 -0.3099044 -0.30043444 0.2996987 -0.22807355
-0.11444304 -0.09635976 0.24100144 -0.296554 -0.3151504 -0.08602654 -0.28389278 -0.27658477
0.08049894 0.11068566 0.28640154 0.043229148 0.24287076 0.2387659 0.21564488 -0.09569726
-0.30591902 0.2744728 0.2542229 0.3298692 -0.23555446 0.037996158 0.25453508 -0.19543366
-0.22428031 -0.037596144 -0.20469566 -0.10231703 0.25770473 0.10413468 0.32976487 -0.22870432
0.21447581 -0.107577875 0.06540137 0.21908754 -0.19629188 -0.1955811 -0.040970456 -0.09900874
0.2750503 0.12520963 0.13600112 0.154336 0.06157326 0.115071505 -0.014600187 0.32828668
-0.12552011 -0.27790883 -0.33921266 -0.2578565 -0.14931186 0.010024114 -0.27392647 0.026673708
0.3045211 0.012622616 -0.21207875 -0.31009102 -0.07469155 0.1290519 0.2988585 0.03906807
0.09713428 0.19266425 0.0156045 0.055543046 0.2842568 0.3165602 0.010048676 0.15564169
-0.224333 -0.09544675 0.19998772 0.037866246 0.18380228 -0.044408202 0.30118072 -0.32356274
0.12932642 -0.28376836 0.027566668 0.12804426 -0.23406376 0.12741785 0.096914396 -0.0073021166
-0.27410722 0.052701816 0.13438712 -0.07568841 0.16727172 -0.084613316 0.21052247 -0.16158758
-0.24371286 -0.07940649 -0.20473203 0.09908128 0.24222332 -0.03387842 -0.17946866 0.0026071733
00000000: 3282 51be cd75 87be b3aa fdbd 36f9 1dbe
00000010: 33da 9ebe d971 303d e77e 26be 6980 6cbe
00000020: 7a8c 9b3e c519 233e e164 21be 14ce d83d
00000030: a192 69be a24b 9abe 2dea 2cbe 2bce 843e
00000040: e10d 16be 259c 203e f8a8 f33d d222 663d
00000050: 4ba5 0d3e b3be 373e cc97 88be 5880 d8bd
00000060: a0e9 8a3e aa17 443e 1429 02bd 0ca5 bf3d
00000070: 7aee 693e 7900 2f3e 8025 eaba 8410 16be
00000080: 4c97 dc3d a6fc 8a3e 85f6 993e f1b5 a13e
00000090: caab 9ebe 8bd2 99be 1c72 993e 1d8c 69be
000000a0: 1d61 eabd 4458 c5bd 15c9 763e edd5 97be
000000b0: 655b a1be af2e b0bd 655a 91be 859c 8dbe
000000c0: a1dc a43d 2aaf e23d 39a3 923e 0c11 313d
000000d0: 1db3 783e 0c7f 743e 03d2 5c3e edfc c3bd
000000e0: 6ba1 9cbe b387 8c3e 8129 823e 9ee4 a83e
000000f0: 3035 71be dca1 1b3d 6c52 823e c31f 48be
00000100: bda9 65be 6afe 19bd bd9b 51be 978b d1bd
00000110: e0f1 833e 9044 d53d f1d6 a83e 7731 6abe
00000120: 8c9f 5b3e ca51 dcbd 27f1 853d 7c58 603e
00000130: bd00 49be 6946 48be a3d0 27bd 18c5 cabd
00000140: 65d3 8c3e f436 003e e143 0b3e 420a 1e3e
00000150: 3e34 7c3d 9caa eb3d 9f35 6fbc 3115 a83e
00000160: 5888 00be 114a 8ebe 48ad adbe c405 84be
00000170: 35e5 18be 2e3c 243c 1740 8cbe d282 da3c
00000180: 31ea 9b3e 17cf 4e3c 2c2b 59be 40c4 9ebe
00000190: e2f7 98bd 2e26 043e fb03 993e d705 203d
000001a0: 56ee c63d c749 453e 04aa 7f3c 1b81 633d
000001b0: 1b8a 913e 2e14 a23e 34a3 243c 8960 1f3e
000001c0: 8db7 65be 9679 c3bd 95c9 4c3e a319 1b3d
000001d0: aa36 3c3e 60e5 35bd 5c34 9a3e 04aa a5be
000001e0: 256e 043e 164a 91be 7ed3 e13c 091e 033e
000001f0: 69ae 6fbe d379 023e 0e7b c63d 9846 efbb
00000200: c857 8cbe dcdd 573d c79c 093e 8602 9bbd
00000210: 4749 2b3e bf49 adbd 3493 573e 3777 25be
00000220: dd8f 79be df9f a2bd 46a5 51be 20eb ca3d
00000230: 6409 783e 19c4 0abd a2c6 37be 1cdd 2a3b

conv1.bias f4 [16]
0.34945303 0.17553592 0.065225095 -0.16324179 -0.08577195 0.36073577 -0.24634762 -0.13432929
-0.2724858 0.19972093 0.061424866 0.2334219 -0.31776828 -0.3253346 0.32168964 0.055800524
00000000: 82eb b23e b0bf 333e bc94 853d db28 27be
00000010: 34a9 afbd 5cb2 b83e 8d42 7cbe 9e8d 09be
00000020: 4283 8bbe a583 4c3e a498 7b3d 2706 6f3e
00000030: 86b2 a2be 4292 a6be 81b4 a43e 178f 643d

conv2.weight f4 [32, 16, 3, 3]
0.08157562 0.05028664 0.05345619 0.087879725 0.09464857 -0.0066141468 0.08443901 0.06663162
0.01273714 -0.064635664 -0.06630137 -0.06049228 -0.0031142181 -0.0588551 0.08675701 -0.05401926
-0.010134997 0.03482034 -0.067742124 -0.057051856 -0.01278476 -0.04537843 -0.06589237 0.053597257
0.050176047 0.08595442 0.014833565 0.017301613 -0.0028947848 0.020775268 0.042490054 -0.059314266
-0.0048699677 0.03615989 0.042379558 -0.009885193 -0.07094562 0.039568417 -0.057331577 0.04579068
-0.066961296 -0.07383847 -0.015542891 -0.08105415 -0.05121301 0.0038173846 0.026621029 -0.0008859049
-0.06982064 -0.0062408145 0.053057093 0.012520005 0.015346941 -0.053469196 -0.02002417 -0.08100328
0.005102346 -0.05428845 0.07381761 0.07569897 0.075546324 0.004453744 0.01551518 -0.0729389
-0.012205934 0.036982194 0.07508631 -0.067721784 -0.031116728 -0.03136942 0.02006542 -0.043610606
0.07920565 -0.008058853 -0.06642993 0.03886626 -0.048118755 -0.069080085 -0.020789333 0.0019374283
-0.0046782354 -0.02297327 0.08963417 -0.05793295 -0.07579837 0.041724604 0.032368604 0.07715905
-0.031487357 0.03265485 0.07742634 -0.015193 -0.053002704 -0.030395929 -0.072622284 -0.0029544001
-0.0543208 0.032111555 -0.003955384 -0.017934792 0.032634843 -0.04765019 -0.003074615 0.06184339
0.08366263 -0.06674395 -0.0152540915 0.010491017 0.015754828 -0.0069062226 -0.011488145 0.03914246
0.0040870165 -0.0479023 -0.028828783 0.022016462 -0.07452356 0.043375067 0.045562506 -0.08706973
-0.043404274 0.023475135 -0.048829816 -0.00079224206 -0.033718646 0.019777296 0.02481569 -0.05348641
-0.060380913 -0.009905643 -0.05519561 0.007438662 0.06517338 -0.055365846 0.01753879 -0.019515047
0.069576494 -0.04237266 0.016423792 0.055840865 -0.029658196 0.008960879 -0.070556626 -0.014542503
0.051128246 -0.0046753953 0.035787284 0.028365 0.03201152 0.04849531 0.044379584 0.051862426
-0.08086851 0.027887441 0.010391626 0.054341197 -0.058734573 0.055725325 0.061213173 -0.0031717329
0.064535126 0.0647521 -0.070647754 -0.044466108 -0.08434323 -0.048487354 -0.039036795 0.0274866
0.0010834397 -0.0025221666 -0.051705714 0.00791759 0.010099054 -0.031958025 0.013589492 -0.046977796
0.0069250055 -0.018874982 0.04964191 0.04146453 0.082192525 -0.032990817 0.021230515 9.357938e-06
0.054220084 0.07341408 -0.03546803 0.069573954 0.07056192 -0.07858818 0.010613925 -0.07298267
-0.017694594 0.05754074 -0.04237518 -0.0791061 0.039746813 -0.068784274 -0.060486175 0.083843075
0.06754301 -0.05264526 -0.08375416 0.011445038 -0.028437285 0.075150624 0.045262598 0.022085225
0.03358265 -0.00244689 0.081203386 0.04065951 -0.06760497 -0.019566694 0.039075125 0.021964349
-0.0003821296 -0.024716077 0.041560166 -0.034163617 -0.050271668 0.08398732 0.031022135 -0.032109458
-0.053508453 -0.051020473 0.067476906 0.046121 -0.0005314987 -0.019739514 0.027759783 0.025973668
0.013645633 0.032318655 -0.013135369 -0.028065046 0.038727436 0.055246703 -0.058731496 -0.021124354
-0.043949157 -0.06445707 -0.05037448 -0.036874384 -0.009004212 0.06288205 -0.011444529 -0.021792784
0.011762056 -0.0839604 -0.012968915 -0.07859515 -0.031823464 -0.06921835 -0.0014982154 -0.00051154784
00000000: 1e11 a73d 5df9 4d3d e1f4 5a3d 49fa b33d
00000010: 1cd7 c13d 7cbb d8bb 5cee ac3d 2976 883d
00000020: 70af 503c b45f 84bd 03c9 87bd c1c6 77bd
00000030: e917 4cbb 0c12 71bd a9ad b13d 4d43 5dbd
00000040: 420d 26bc c69f 0e3d 62bc 8abd 35af 69bd
00000050: 2c77 51bc bcde 39bd 94f2 86bd cc88 5b3d
00000060: 6685 4d3d df08 b03d 7b08 733c 1dbc 8d3c
00000070: 6eb6 3dbb e530 aa3c 0d0a 2e3d 84f3 72bd
00000080: 4094 9fbb 651c 143d 3096 2d3d 81f5 21bc
00000090: f04b 91bd 7e12 223d 84d4 6abd 028f 3b3d
000000a0: 0123 89bd a038 97bd 9ca7 7ebc b8ff a5bd
000000b0: bcc4 51bd 162d 7a3b 5814 da3c 123c 68ba
000000c0: 20fe 8ebd bf7f ccbb 6552 593d b520 4d3c
000000d0: bc71 7b3c 8402 5bbd ba09 a4bc 0ce5 a5bd
000000e0: 9531 a73b 915d 5ebd b02d 973d 1008 9b3d
000000f0: 08b8 9a3d b6f0 913b 6233 7e3c fd60 95bd
00000100: 66fb 47bc a47a 173d dac6 993d b8b1 8abd
00000110: 82e8 febc 397d 00bd 3c60 a43c 09a1 32bd
00000120: 9236 a23d 4809 04bc 6a0c 88bd 3a32 1f3d
00000130: 2c18 45bd dc79 8dbd 644e aabc 4ef1 fd3a
00000140: e24b 99bb 7032 bcbc 1f92 b73d 1a4b 6dbd
00000150: 2d3c 9bbd 6be7 2a3d f194 043d 9005 9e3d
00000160: e3f8 00bd 18c1 053d b391 9e3d 10ec 78bc
00000170: 5d19 59bd e200 f9bc feba 94bd 9c9e 41bb
00000180: 7d7f 5ebd 6887 033d 2a9c 81bb fceb 92bc
00000190: 1dac 053d d82c 43bd 7b7f 49bb 7f4f 7d3d
000001a0: 5057 ab3d 0db1 88bd 4cec 79bc 84e2 2b3c
000001b0: 4510 813c 984d e2bb c638 3cbc d853 203d
000001c0: 61ec 853b 3435 44bd 572a ecbc de5b b43c
000001d0: cf9f 98bd 0eaa 313d c09f 3a3d 9d51 b2bd
000001e0: aec8 31bd ed4e c03c c601 48bd 77ae 4fba
000001f0: 901c 0abd ff03 a23c 464a cb3c 9114 5bbd
00000200: fa51 77bd 474b 22bc cb14 62bd 05c0 f33b
00000210: 9f79 853d 4cc7 62bd 82ad 8f3c 05de 9fbc
00000220: 1f7e 8e3d f48e 2dbd 308b 863c 64b9 643d
00000230: bff5 f2bc a7d0 123c fe7f 90bd ae43 6ebc
00000240: da6b 513d 0f34 99bb b095 123d b75d e83c
00000250: 831e 033d 05a3 463d 5ec7 353d b26d 543d
00000260: 649e a5bd 3474 e43c a341 2a3c e094 5e3d
00000270: aa93 70bd 3d40 643d aaba 7a3d d9dc 4fbb
00000280: fe2a 843d c09c 843d c5af 90bd 1822 36bd
00000290: 25bc acbd ad9a 46bd 0ce5 1fbd 942b e13c
000002a0: 3402 8e3a ef4a 25bb 5fc9 53bd c8b8 013c
000002b0: 8176 253c 6be6 02bd 76a6 5e3c ca6b 40bd
000002c0: 28eb e23b b59f 9abc 5155 4b3d b6d6 293d
000002d0: 8e54 a83d 6121 07bd 9eeb ad3c 0a00 1d37
000002e0: e115 5e3d 1f5a 963d ed46 11bd ca7c 8e3d
000002f0: c582 903d d7f2 a0bd 07e6 2d3c f077 95bd
00000300: 41f4 90bc d7af 6b3d 9991 2dbd 6102 a2bd
00000310: 8ecd 223d c5de 8cbd 5ac0 77bd ebb5 ab3d
00000320: fd53 8a3d 8ea2 57bd 4d87 abbd f883 3b3c
00000330: 4ff5 e8bc 92e8 993d 4665 393d 13ec b43c
00000340: f68d 093d 015c 20bb f64d a63d 968a 263d
00000350: 7974 8abd 554a a0bc 3d0d 203d 94ee b33c
00000360: 9158 c8b9 5f79 cabc fe3a 2a3d 26ef 0bbd
00000370: aae9 4dbd 8b01 ac3d 2222 fe3c 3585 03bd
00000380: ae2b 5bbd d8fa 50bd 5531 8a3d 60e9 3c3d
00000390: 4654 0bba c3b4 a1bc 7c68 e33c bbc6 d43c
000003a0: ef91 5f3c 9160 043d bb35 57bc abe8 e5bc
000003b0: a9a0 1e3d 5e4a 623d 7090 70bd fb0c adbc
000003c0: 0804 34bd 1102 84bd 7955 4ebd 9809 17bd
000003d0: 6786 13bc 4ec8 803d d581 3bbc c886 b2bc
000003e0: a3b5 403c 6ef3 abbd 927b 54bc 7ef6 a0bd
000003f0: 5259 02bd 5ac2 8dbd c45f c4ba 6519 06ba

conv2.bias f4 [32]
0.04886484 -0.013937701 0.017852383 0.020016983 -0.05610334 0.036744174 -0.05193361 0.015044249
0.05076088 -0.01681545 0.029822975 -0.0113497125 -0.015122337 0.1025934 0.0850857 0.04852716
-0.068248674 0.09492907 -0.004329495 -0.01729835 0.0019332024 -0.059437644 -0.01890229 -0.07871723
0.06143448 0.050093647 0.06179303 0.07939696 -0.004139351 -0.05323688 0.01557658 0.086289525
00000000: 8026 483d f45a 64bc 293f 923c a8fa a33c
00000010: 9ecc 65bd 0f81 163d 56b8 54bd 277c 763c
00000020: a4ea 4f3d 8ec0 89bc 504f f43c 25f4 39bc
00000030: aec3 77bc 7d1c d23d 6941 ae3d 6ac4 463d
00000040: f6c5 8bbd 2c6a c23d 70de 8dbb 45b5 8dbc
00000050: 8263 fd3a e374 73bd fad8 9abc 8036 a1bd
00000060: b9a2 7b3d ff2e 4d3d b01a 7d3d e09a a23d
00000070: 65a3 87bb ea0e 5abd e934 7f3c 90b8 b03d

fc.weight f4 [2, 9600]
0.009656015 0.00047575336 -0.006784569 -0.0009619485 0.00064750575 0.00114259 -0.0017060225 -0.006227907
-0.00763502 -0.010237196 0.010162482 -0.015113462 -0.015391013 -0.021080177 -0.0061112074 0.010279891
-0.01537622 -0.0037267455 -0.016087892 -0.005516569 -0.0056546745 0.0024458151 -0.021674428 -0.00047088927
-0.004243054 -0.0029953509 -0.0013423224 -0.005202686 -0.0091974735 -0.013715145 0.002253986 -0.0017478009
-0.017752605 -0.011914026 -0.0057846806 -0.00018030216 -0.013260742 -0.023587639 -0.017178226 -0.005861438
0.008848169 -0.012484173 -0.006117382 -0.007844705 -0.009321639 0.002913958 -0.011350574 -0.00079849944
0.00085523725 -0.009561821 -0.006824464 -0.00095594866 -0.014318909 -0.017057411 0.004039763 -0.0040698294
-0.020391319 -0.012304646 -0.012286759 -0.0041313632 0.0068898555 -0.002821756 -0.012234816 -0.008898712
-0.011370879 0.00070098205 -0.008936898 -0.021735301 -0.0084972065 -0.01085393 0.0034384083 -0.016825885
-0.0014122536 -0.01139947 -0.004096997 -0.0058817985 -0.0007295794 -0.00617688 -0.0038162917 -0.011882276
-0.006066194 0.003280829 -0.00333884 -0.0029007508 0.0010854522 0.000746985 -0.0070994277 -0.008476798
0.00157448 -0.01318549 0.009729781 -0.0015968868 -0.01220532 -0.011115969 0.0031399876 -0.0064001796
-0.002587642 -0.0052281134 0.0016484656 0.011616377 0.0031565572 0.0057930965 0.00037886476 -0.00781799
-0.008856664 0.004158816 -0.0044694133 -0.007901686 -0.0027493332 -0.015661148 0.0051371506 -0.00076256617
-0.008871012 0.0022766888 -0.013876729 0.00040712522 0.0016578841 -0.018174252 -0.0021188 -0.008967028
0.008735021 -0.014209778 -0.009519858 -0.014781904 -0.0092621725 -0.0018766272 -0.015995083 -0.0056684553
-0.0046744803 -0.0013929531 -0.0021665364 -0.0066328356 -0.009340524 -0.0062256693 -0.0024341554 0.011706119
-0.010410533 0.0025951567 -0.018223902 -0.0021331196 -0.009926629 -0.006999698 -0.003981647 -0.01355782
0.006491214 -0.0021198909 -0.0023958709 -0.0019298402 -0.0020413187 -0.013935957 0.014099026 -0.00084803766
-0.016545705 -0.00015357445 -0.01498327 -0.0023113189 -0.004787198 -0.0053965566 -0.00672076 -0.0075458707
0.0065045957 -0.006535631 -0.0048396117 -0.004879103 -0.017017629 -0.0009937073 -0.014378661 -0.0013252078
0.0013204498 -0.0148220705 -0.0065174 -0.01594727 -0.012155389 -0.005475919 -0.011279779 -0.0041965125
-0.015881073 -0.0013397584 -0.017278096 -0.004274744 0.014458936 -0.0038879898 -0.0006992303 -0.005845435
-0.010693627 -0.0028717467 -0.0040628454 -0.010170597 -0.0040436867 -0.009371011 0.0013098229 -0.010676214
-0.000631266 -0.01333538 -0.006834661 0.0071725217 -0.0021307147 -0.005164663 -0.0018641195 -0.018746983
0.009845967 -0.0073339706 -0.01380679 -0.013090587 -0.0043196306 0.0046340358 -0.0040622717 -0.004844619
-0.00664865 -0.015118722 0.011872338 -0.0066802152 -0.006378534 0.00046162918 -0.0121760415 -0.0038822452
-0.0044916337 -0.013952358 0.0019430977 0.0020797942 0.009741434 0.00043241575 -0.0033403207 -0.009322848
-0.010655182 -0.0039790664 -0.009243432 -0.009198382 -0.010128277 -0.0073716952 -0.009702512 -0.015260742
-0.007689316 -0.017967293 -0.014454967 0.0066820625 -0.0003879754 -0.01231329 -0.0035535707 -0.010088223
0.010462335 0.0033196684 -0.008835708 -0.004802929 -0.009050374 -0.008049863 -0.011760498 -0.008982628
-0.009485893 -0.012229291 -0.0056164493 0.0027376206 -0.008300317 -0.017937124 -0.0066275876 0.009192759
00000000: 4334 1e3c 896e f939 1751 debb 452b 7cba
00000010: 60bd 293a f5c2 953a 9e9c dfba 7813 ccbb
00000020: 312f fabb eab9 27bc 8a80 263c 749e 77bc
00000030: 962a 7cbc 56b0 acbc 8640 c8bb fd6c 283c
00000040: 8bec 7bbc 6a3c 74bb c1ca 83bc 56c4 b4bb
00000050: d94a b9bb f849 203b 928e b1bc b0e1 f6b9
00000060: 5109 8bbb a64d 44bb def0 afba 4b7b aabb
00000070: 00b1 16bc 7db5 60bc 9cb7 133b 7716 e5ba
00000080: e96d 91bc 0c33 43bc 6b8d bdbb 7e0f 3db9
00000090: 9543 59bc dd3a c1bc 5ab9 8cbc 4e11 c0bb
000000a0: e9f7 103c 6b8a 4cbc 5274 c8bb 1487 00bc
000000b0: cab9 18bc 1af8 3e3b c2f7 39bc 6452 51ba
000000c0: 0032 603a 2fa9 1cbc c19f dfbb a198 7aba
000000d0: db99 6abc fcbb 8bbc fd5f 843b 345c 85bb
000000e0: b20b a7bc 6d99 49bc 674e 49bc 6360 87bb
000000f0: 4cc4 e13b 36ed 38bb 8a74 48bc e7cb 11bc
00000100: ec4c 3abc 1cc2 373a 116c 12bc 3b0e b2bc
00000110: de37 0bbc afd4 31bc eb56 613b 70d6 89bc
00000120: 5e1b b9ba d8c4 3abc 1a40 86bb 1abc c0bb
00000130: 3f41 3fba 6d67 cabb c01a 7abb e1ad 42bc
00000140: ecc6 c6bb 2d03 573b 71d0 5abb 861a 3ebb
00000150: bb45 8e3a 51d1 433a 51a2 e8bb 45e2 0abc
00000160: c85e ce3a f407 58bc a969 1f3c a14e d1ba
00000170: d3f8 47bc c11f 36bc 40c8 4d3b 99b8 d1bb
00000180: 6e95 29bb 9850 abbb 5411 d83a 9e52 3e3c
00000190: 3ede 4e3b 04d4 bd3b 5ea2 c639 0717 00bc
000001a0: 8b1b 11bc ad46 883b 2874 92bb 1376 01bc
000001b0: 282e 34bb cf4b 80bc 8b55 a83b f3e6 47ba
000001c0: b957 11bc 8034 153b 385b 63bc 6c73 d539
000001d0: 5c4d d93a 2be2 94bc 91db 0abb 71ea 12bc
000001e0: 551d 0f3c 21d0 68bc 2ef9 1bbc cd2f 72bc
000001f0: 5ec0 17bc 29f9 f5ba 1f08 83bc 73be b9bb
00000200: 622c 99bb c093 b6ba 73fc 0dbb 4258 d9bb
00000210: ff08 19bc b300 ccbb 5a86 1fbb 06cb 3f3c
00000220: f190 2abc 8113 2a3b 4b4a 95bc cfcb 0bbb
00000230: 4da3 22bc b95d e5bb 7a78 82bb 9e21 5ebc
00000240: 40b4 d43b deed 0abb 0b04 1dbb b1f2 fcba
00000250: a5c7 05bb a453 64bc 9aff 663c d84e 5eba
00000260: dc8a 87bc d408 21b9 647c 75bc 7f79 17bb
00000270: eddd 9cbb 99d5 b0bb d239 dcbb 5a43 f7bb
00000280: 8124 d53b d928 d6bb 9b95 9ebb e2e0 9fbb
00000290: 8e68 8bbc 493f 82ba 7a94 6bbc 98b2 adba
000002a0: f112 ad3a 45d8 72bc ea8f d5bb d9a3 82bc
000002b0: 6627 47bc 576f b3bb d2ce 38bc e682 89bb
000002c0: 0619 82bc d59a afba cb8a 8dbc 2713 8cbb
000002d0: 2ce5 6c3c a5cd 7ebb 8d4c 37ba 108b bfbb
000002e0: 5334 2fbc ea33 3cbb 9e21 85bb 93a2 26bc
000002f0: e780 84bb de88 19bc 5dae ab3a 49eb 2ebc
00000300: 8b7b 25ba a37c 5abc 4bf5 dfbb 7907 eb3b
00000310: 76a3 0bbb 553c a9bb 7955 f4ba 4693 99bc
00000320: fb50 213c ce51 f0bb e035 62bc e779 56bc
00000330: b08b 8dbb 1cd9 973b ce1c 85bb 9cbf 9ebb
00000340: ebdc d9bb 84b4 77bc 3284 423c b5e5 dabb
00000350: 0503 d1bb d206 f239 057e 47bc 446d 7ebb
00000360: 8e2e 93bb 6e98 64bc 8aaf fe3a 284d 083b
00000370: 899a 1f3c dcb5 e239 48e9 5abb dcbe 18bc
00000380: 1393 2ebc d462 82bb c471 17bc cfb4 16bc
00000390: 13f1 25bc 438e f1bb 49f7 1ebc 3108 7abc
000003a0: a8f6 fbbb 2530 93bc 87d4 6cbc 34f5 da3b
000003b0: 2d69 cbb9 aebd 49bc 06e3 68bb 1349 25bc
000003c0: 376a 2b3c cb8e 593b a5c3 10bc e361 9dbb
000003d0: 0548 14bc 93e3 03bc 1baf 40bc df2b 13bc
000003e0: b86a 1bbc 5d5d 48bc 310a b8bb a769 333b
000003f0: 0efe 07bc e0f0 92bc 3c2c d9bb 3a9d 163c

fc.bias f4 [2]
-0.009666381 0.009535158
00000000: be5f 1ebc 5a39 1c3c
