saved_models/pd_model_0x35_w.pth (torch, 60759 bytes, 5 tensors)

conv1.weight f4 [16, 3, 3, 3]
000000 84 bf ae 3d 46 24 f3 3d ba cb 37 3e bf 21 a3 3d
       0.085326225 0.11872153 0.1794881 0.07965421
000010 fc 59 2a be 98 23 b4 bc 85 e2 16 be 42 01 62 bd
       -0.16635889 -0.021989629 -0.14734848 -0.05517698
000020 02 43 f2 bd cd bf a3 3d 8a 54 a5 3d 0f 6f 3c 3e
       -0.11829187 0.079955675 0.08072765 0.1840174
000030 7c 4f 35 bd 80 fb a1 3d a9 1e fa bb 66 f4 36 be
       -0.044265255 0.07909298 -0.0076330495 -0.17866668
000040 60 29 e6 bc eb b0 f3 3c 25 d2 fe 3d 9c c9 81 3c
       -0.028095901 0.029747447 0.12442426 0.015843205
000050 f0 cb 16 3e c5 44 35 3d 4e 48 62 bc da 42 ff bc
       0.14726233 0.044255037 -0.013811184 -0.031159807
000060 97 80 31 3e d3 79 19 3e 40 de 2e 3e 8b aa d2 bd
       0.1733421 0.14987879 0.17076969 -0.10286435
000070 6b 80 46 3e 40 26 59 3d ed ab 27 3e 5b 37 0c be
       0.19384925 0.053014994 0.16374178 -0.13692991
000080 6f b9 24 3e 80 31 33 be 24 33 c5 3d dd 4a 3d 3e
       0.16086362 -0.17499352 0.09628895 0.1848559
000090 2c 4d a4 bc d5 64 0e 3c 95 f9 b7 3d a1 f4 49 3e
       -0.02005633 0.008691032 0.08983151 0.19722225
0000a0 c0 40 3d be b0 b2 51 bc 44 1b 2d 3e c8 74 21 3e
       -0.18481731 -0.01279895 0.16904932 0.15767205
0000b0 3f e8 02 be ba 6f 10 be a7 fa 41 3e 66 9f f4 3d
       -0.12783907 -0.1410512 0.18943273 0.11944465
0000c0 e9 a3 f3 bd 3f b3 15 3e 60 99 b9 bd 0b cd 87 bd
       -0.11896498 0.14619158 -0.09062457 -0.06630906
0000d0 58 e1 56 3d bc a5 04 be 7b 39 c9 3d 6c 69 98 3d
       0.052461 -0.12953848 0.09825417 0.074419826
0000e0 f3 b9 0f 3e ad ec f0 bd ea 08 ef 3d 2e 77 f0 bd
       0.14035778 -0.11763892 0.11671622 -0.11741482
0000f0 ee 69 3c 3e 16 a3 91 bd 42 ee 3d be 60 df cd bd
       0.18399784 -0.07111184 -0.1854792 -0.10052371
000100 f3 e3 cf 3d 3a 70 ab bd dc 09 80 bd d8 7e af bc
       0.101509 -0.08371015 -0.062518805 -0.021422789
000110 89 ef 2f 3e fb 7d 81 bd 24 05 77 bd 94 c3 74 bc
       0.17181219 -0.06322857 -0.060307637 -0.014939208
000120 ed 01 e9 3d db e2 2a 3e 64 f7 1d be 65 fa 40 bd
       0.113773204 0.16688101 -0.15426403 -0.047113795
000130 09 a6 a6 3d f7 c5 ec bd 74 91 22 be e1 5f ed 3d
       0.081371374 -0.11561196 -0.15875798 0.11590553
000140 4f 97 07 bd 84 69 91 3c 78 a8 91 bd ab 7a 85 3d
       -0.033103283 0.01775051 -0.07112211 0.06517538
000150 8b 84 c4 bb 39 be a7 3d 8b 78 8c 3d fa 95 88 3d
       -0.0059972457 0.08190579 0.06858929 0.06669231
000160 8f 88 5b bd 6e 9b ed 3d 5b 5e fc bd fb 9e 8d bb
       -0.05359703 0.116019115 -0.123226844 -0.0043219305
000170 59 0d cd bd 71 e5 eb bd 27 04 40 bd 28 d0 11 be
       -0.100123115 -0.11518372 -0.04687896 -0.14239562
000180 23 81 e0 3d fc b5 43 3e 17 9e 10 3e c9 62 15 be
       0.10962131 0.1911239 0.14122806 -0.14588465
000190 93 44 10 3d 0c f2 11 3e 3a 40 92 bd ea ea a6 3c
       0.035221647 0.1425249 -0.071411565 0.020375688
0001a0 56 c7 d3 bd 17 13 e0 bd 0c 4c 35 3e b4 c0 0a be
       -0.10340755 -0.10941141 0.17704791 -0.13550073
0001b0 de fd 90 3d ae 49 20 3e 30 ac 35 be 1c 27 be bd
       0.07079671 0.15653107 -0.17741466 -0.09284803
0001c0 0e d4 6a 3d f5 14 32 bd d5 06 06 bd df d6 b1 3d
       0.057331137 -0.043477017 -0.03272136 0.086835615
0001d0 b5 45 3b be e4 bf 2e be 42 7b 9c 3d fd 94 25 be
       -0.1828831 -0.17065388 0.07640697 -0.16170116
0001e0 5e 5c 10 bd be d8 16 bd 56 ca c6 3d 9b 52 dd bc
       -0.03524434 -0.036827795 0.09706561 -0.027016928
0001f0 c9 ff 18 be a8 c1 a4 3d 01 e3 3f 3e 4d 5e 31 3d
       -0.14941324 0.080447495 0.18738939 0.043302823
000200 95 b3 c6 3d 66 c1 78 3d 66 52 03 be b6 6d 27 3e
       0.09702221 0.060731314 -0.12824401 0.16350445
000210 9f ce a1 bc 97 4b c1 bd 37 5f 32 be 90 f6 c7 3d
       -0.019751845 -0.09438246 -0.17419134 0.09763825
000220 ec 7d 13 3e 17 a2 2f be c9 0d 38 3e a5 bb 2a 3e
       0.14403504 -0.17151676 0.17974009 0.16673143
000230 d1 69 19 3e 37 ed 61 bd c1 9b 29 3e a1 ab 1b 3e
       0.14981772 -0.055157866 0.16563322 0.1520219
000240 86 02 64 3d e5 39 6f 3c 02 b8 ea 3d 95 86 3d be
       0.05566647 0.0146012055 0.11460878 -0.1850837
000250 fc 76 42 3e 17 00 7e 3c 37 1f e6 bd 80 4f 16 bd
       0.18990701 0.015502951 -0.112364225 -0.03669691
000260 32 90 30 3e 5a ab dd bd fc 1f 3d 3d 53 11 02 bd
       0.17242506 -0.10823698 0.04617308 -0.031754803
000270 6a 57 a5 bd 8b cf f2 3d e1 0d 1c be fd fe 0f 3e
       -0.080733135 0.11855992 -0.1523967 0.14062114
000280 b8 8a 2b be 0e 9b 11 be f7 51 ea 3a a5 71 8b 3d
       -0.16752136 -0.14219305 0.0017877211 0.06808785
000290 49 1f a0 bd 93 1f 71 bd 14 2f d1 bd a8 78 83 bd
       -0.07818467 -0.058868002 -0.102140576 -0.06419498
0002a0 cb 31 8e 3d 5a e9 91 3d 77 aa c2 3d d1 22 c7 bd
       0.06943091 0.071245864 0.0950517 -0.097234376
0002b0 1a e0 07 3e 3a e4 00 3e 63 e2 93 3d 65 c6 2d 3e
       0.13269082 0.12587062 0.07220914 0.16970213
0002c0 0d fb 5d bd f2 be fa 3d 5a 59 2f be 96 5a b8 bd
       -0.0541945 0.12243451 -0.17123929 -0.09001653
0002d0 e5 13 1a 3e e0 94 50 3d 78 9e 9b bd de 43 bc bd
       0.15046652 0.05092323 -0.07598585 -0.09192632
0002e0 90 f5 6b 3d 20 78 1a 3e de 83 3f bd cf a5 25 be
       0.057607234 0.15084887 -0.046756618 -0.16176532
0002f0 4f d8 10 be b9 33 f4 bd f4 20 0d 3e 01 8d 25 be
       -0.14145015 -0.11923928 0.13782102 -0.1616707
000300 7a 9b fd bd 18 51 85 3d ca 7c 11 be 18 76 af 3c
       -0.123831704 0.06509608 -0.1420776 0.021418616
000310 b5 cc b0 bd d4 3d 30 3e f0 db d6 3d d4 46 93 bd
       -0.08632795 0.17211086 0.104911685 -0.07191244
000320 ad 64 d7 bd 9b 02 33 be 36 7e 07 be a8 71 dc 3c
       -0.10517249 -0.17481463 -0.1323174 0.026909664
000330 9e 15 0f 3e 83 67 dc 3d 04 2f 29 be 58 dc a8 39
       0.1397309 0.10761931 -0.16521841 0.00032207626
000340 2d 49 df bd 1a 6f 9d 3d 7d 25 3e be 91 b9 01 be
       -0.10902629 0.076872066 -0.18568988 -0.12668444
000350 0a 1c b4 3d 36 30 04 be 4b 6e cf 3c ee 03 29 be
       0.087944105 -0.12909016 0.025321146 -0.16505405
000360 f2 d8 e2 3c ee 92 01 be 0d a8 f7 bd 9b 31 3c 3e
       0.027691338 -0.12653705 -0.120926 0.18378298
000370 cc a7 cf bb 4b f9 dd 3a 84 44 ea 3d d2 4e 88 3b
       -0.0063371416 0.0016935257 0.114388496 0.0041597867
000380 ba b0 3a 3e 3a 31 d5 bd 15 34 dc 3a f0 24 0e 3e
       0.18231478 -0.1040978 0.001680019 0.13881278
000390 00 d4 aa bd e9 c2 4a bd 70 ef 1a bd 1c 87 00 3d
       -0.08341217 -0.049502287 -0.037826 0.03137885
0003a0 c2 44 93 3d 39 d8 14 be 56 3d db 3d fc bc 11 3e
       0.07190849 -0.14535607 0.10705058 0.14232248
0003b0 6a 53 2b 3e 1b 68 c5 3d f8 aa d0 bd 3a ae 12 3e
       0.16731039 0.09638997 -0.1018886 0.14324275
0003c0 15 b6 19 bd 1e a5 13 be 16 06 93 bd 4d f5 ea bd
       -0.037527163 -0.14418456 -0.07178895 -0.11472569
0003d0 c2 80 c9 bd fe ff 28 3e 2e b3 7a bd d2 c6 bb bd
       -0.09839012 0.16503903 -0.061206035 -0.09168781
0003e0 64 bb 94 3d c7 61 30 3e c7 ba cf 3d 4e 35 4d bd
       0.072623044 0.17224799 0.10143047 -0.050099663
0003f0 44 55 0f 3e 2e 9f f4 3d a5 10 37 3e 8c b6 0e be
       0.1399737 0.119444236 0.17877443 -0.13936824

conv1.bias f4 [16]
000000 c5 81 5d 3e fe c1 6f bd a0 03 9e 3e 67 38 0c be
       0.21631534 -0.058534615 0.3086214 -0.13693391
000010 c7 6e 79 bd eb 91 89 bd bf 79 04 be f8 a1 43 be
       -0.06089666 -0.06717285 -0.12937067 -0.19104755
000020 88 15 36 be 11 81 9b bd 36 be ce bd 0d f1 26 3e
       -0.17781651 -0.07592977 -0.100948736 0.16302891
000030 52 23 f8 bc ba 80 46 be c7 61 01 be 30 66 47 bd
       -0.03029028 -0.19385043 -0.12634955 -0.048681438

conv2.weight f4 [32, 16, 3, 3]
000000 65 0d 75 3d c7 9b 84 bd 2c b0 42 3d d9 84 50 bc
       0.059827227 -0.06475025 0.04753129 -0.012726986
000010 54 c4 83 3d dc 86 48 3d 88 52 52 3d 5c 91 99 bc
       0.06433931 0.048956737 0.05134824 -0.01874607
000020 03 31 4d bd 3b 34 f3 bc 8c a5 ac 3c 79 6e a7 bd
       -0.05009557 -0.029687991 0.021075033 -0.08175368
000030 c8 c8 a4 3c e3 1a 83 bc 05 bf b3 3c 25 bf 15 bc
       0.020115271 -0.016004032 0.021941671 -0.009139811
000040 f9 0b 70 bd 5e b7 97 bd aa 2a 95 3d 05 02 cd bc
       -0.058605168 -0.074080214 0.07283528 -0.025025377
000050 1b 80 89 3c ea 1c d3 3c b2 e1 df bc b6 a5 96 3b
       0.016784718 0.025770623 -0.0273293 0.004597391
000060 b0 d8 47 bd 1e 83 92 3d 4e 18 d5 bb ed 91 8c 3d
       -0.048790634 0.07153915 -0.0065031415 0.06863771
000070 d7 ae af bd 93 46 7a 3d 77 9f 93 3d e3 dc 92 bd
       -0.0857827 0.06110246 0.0720815 -0.07171037
000080 68 86 23 3b 85 2c de 3c 73 e2 9e bd 86 be 25 bd
       0.0024951939 0.027120838 -0.077580355 -0.0404649
000090 e4 8f e6 3c 4f 28 91 bd 9b e1 1c 3d ee d6 1f 3c
       0.028144784 -0.070877664 0.03830109 0.009755833
0000a0 88 91 32 bd ea 66 86 3d b3 37 9f bc c4 24 1c bc
       -0.04359582 0.06562598 -0.01943574 -0.00953025
0000b0 70 cd b4 3c fc a0 20 3d 6f ad 7e bd a9 c9 92 bd
       0.022070616 0.039216027 -0.062177118 -0.0716737
0000c0 3b c1 42 3d 57 c8 a9 bd f2 74 a0 bc f1 7d fd bc
       0.04754756 -0.08290165 -0.019587014 -0.030943843
0000d0 c5 3e 9a 3d 77 18 5d bd 08 21 9d 3d 16 d9 81 bd
       0.075315036 -0.05397841 0.07672316 -0.06340234
0000e0 aa 11 2f 3d 7c cf 28 bd dd e2 a4 3c d0 4a 95 3d
       0.042741455 -0.041213498 0.020127708 0.0728966
0000f0 f0 40 0b bd a6 55 93 3d 95 98 91 bd 98 c7 70 3d
       -0.033997476 0.071940705 -0.07109181 0.058784097
000100 b3 a6 86 3c 83 0a b2 bd 25 8d 7b bd d0 e7 69 3d
       0.01643691 -0.08693411 -0.061413903 0.05710584
000110 f8 96 05 bd 8f 1b 08 3d d0 bd 97 bd c1 e6 a6 bd
       -0.03261468 0.033229407 -0.07409251 -0.081494816
000120 66 6c bf 3c 3a 49 dc bb dd b1 af bd 8e 68 8d bd
       0.023367118 -0.0067225965 -0.085788466 -0.06904708
000130 29 f5 d2 3c d4 75 33 bd b5 e6 9d 3d 99 f2 92 bd
       0.025751667 -0.04381354 0.077100195 -0.07175178
000140 cc bd cb 3c b1 6c b6 bd fb 5e 7a 3d 46 bc 5a 3d
       0.024870776 -0.0890745 0.061125737 0.053402208
000150 48 f5 3d bb 61 7f 74 3d 7d e5 2d 3d 45 fa 97 bd
       -0.002898531 0.05969179 0.042455185 -0.07420782
000160 15 6c 5f bd a2 ec aa bc d7 d6 31 3c 4d a7 1a bc
       -0.054546434 -0.020864788 0.0108544445 -0.009439302
000170 9e 17 56 bc 0f 31 0c 3b af e2 a0 3b 1a 74 71 3c
       -0.013067154 0.0021391546 0.0049098353 0.014737153
000180 e5 61 18 bc 6a 15 b5 bd c6 5d 81 3d 52 76 86 3d
       -0.009300684 -0.08841975 0.06316714 0.065655366
000190 70 d1 93 bd 29 43 52 bd 3b fc a5 3b 30 48 28 3d
       -0.072176814 -0.05133358 0.0050654686 0.04108447
0001a0 23 13 b2 bb 4b 86 5a ba 64 10 a8 bd 41 78 a0 bd
       -0.00543441 -0.0008336051 -0.08206251 -0.078354366
0001b0 a2 c1 85 bd 9e ba 5e 3d 7a dd 4a bd cd c3 36 bd
       -0.06531073 0.05437719 -0.049527623 -0.044620324
0001c0 b3 a5 0d 3d 9c 5c 91 3d 9d f3 e2 bb c4 98 c5 bc
       0.03458185 0.07097742 -0.0069260136 -0.024120696
0001d0 ac 4b 0e bd 09 19 e4 3c 1c 92 8f bd ca 9d 7b bd
       -0.034740135 0.027843969 -0.0701029 -0.061429776
0001e0 af 46 52 3d 83 29 1b bc 60 25 8a bd ab 03 84 bd
       0.05133694 -0.009470346 -0.0674541 -0.06446012
0001f0 51 69 7c 3d 14 52 8d bc e2 c8 7f 3d 2a 07 3f 3d
       0.061623875 -0.017251052 0.062447436 0.04663769
000200 81 7d 36 bd fd 3c 83 3c 81 52 7b bd ac a7 1c 3d
       -0.044553284 0.016020292 -0.06135798 0.03824584
000210 18 e7 1a 3d 80 40 74 3d 0d d5 64 bd 1e ae 88 bd
       0.037818044 0.059631824 -0.055867244 -0.06673835
000220 4c 36 bb bc 49 1e 3e bd 6e 72 5a 3d 6c e5 de bc
       -0.02285304 -0.0464156 0.053331785 -0.027209006
000230 c8 7d ba 3c e4 cf a7 bd ea fa 79 3d da ef 81 bd
       0.022765055 -0.08193949 0.061030306 -0.06344576
000240 8d e0 8b bc ee 62 74 3d 82 12 82 3d c2 55 6e 3d
       -0.017074848 0.05966466 0.06351186 0.058187254
000250 ff 03 69 bd a6 0e 85 bc 93 0d 2a bd ab f5 72 3d
       -0.056888577 -0.016242336 -0.04151685 0.05931632
000260 88 d1 14 bc 89 59 63 bd 83 04 27 3d 62 08 ac bc
       -0.009083159 -0.05550531 0.040775787 -0.021000091
000270 27 96 82 3d 30 17 22 3d 78 b5 8a 3c 60 7c cf bb
       0.063762955 0.039572895 0.016932234 -0.0063319653
000280 48 f7 5f 3c a1 ad 89 3d 82 f0 8a bd b4 32 68 bd
       0.013669796 0.0672257 -0.067841545 -0.05668898
000290 70 b1 40 bd cf de 95 bd 77 e8 3a bd f3 64 3b bd
       -0.047044218 -0.07317888 -0.045631852 -0.04575057
0002a0 be aa 5e bd d5 63 e1 bc 53 0f 84 bc c4 86 2e 3d
       -0.05436205 -0.027513424 -0.016120588 0.04260899
0002b0 da 76 65 3d fe 33 9a bd 84 13 8b 3d 20 01 74 bd
       0.05602155 -0.07529448 0.06790832 -0.059571385
0002c0 80 2f fd 3c 82 31 98 bd d3 3a e8 3b a9 69 bc bc
       0.030906439 -0.07431318 0.0070870905 -0.022999601
0002d0 22 e1 9c 3c 88 f0 6e bd 17 d6 e1 bb 80 6e a0 ba
       0.01915032 -0.058334857 -0.0068919766 -0.0012239963
0002e0 2c d5 7b bd 3c 4f a0 3c 13 b8 92 3c a1 82 32 3d
       -0.061482593 0.019569032 0.017910039 0.04358161
0002f0 29 f9 5f 3d 92 fa 47 bc b1 ce 06 3d 76 03 44 3d
       0.054680977 -0.012205737 0.03291196 0.047854863
000300 71 04 54 bd 58 1d 60 3d 59 2c 2f 3c fe d6 41 bc
       -0.05176205 0.054715484 0.010691726 -0.011831043
000310 38 c5 43 bd 19 93 5a bd 5a 27 33 3d 57 48 01 bd
       -0.047795504 -0.05336294 0.0437387 -0.03156313
000320 a7 24 62 bd f0 6d 78 3d 8a 51 74 bc 2a f3 26 3b
       -0.055210736 0.06065172 -0.014912019 0.0025474527
000330 a0 84 7e 3c 8d 40 f1 3b ba dd 53 3d 9a 83 00 3d
       0.01553455 0.0073624314 0.051725127 0.031375505
000340 1b f0 5f 3d 00 1e b9 3c 96 95 77 bd 49 c3 95 bd
       0.05467234 0.022597313 -0.06044539 -0.07312638
000350 53 7e f4 bc ec 0b 3d 3d 0a a2 84 3d ab cb b7 3c
       -0.029845392 0.046153948 0.06476219 0.022435984
000360 77 32 15 3a be 64 d2 3c e6 2b 94 bd 06 4d 65 3d
       0.0005691419 0.025682803 -0.072349355 0.05598166
000370 26 04 fa 3c ce 8b 5c 3d ec 8a aa 3d 35 91 0a 3c
       0.030519556 0.053844266 0.083272785 0.008457472
000380 c7 48 d1 ba 0e cd dc bc 8b 30 2f 3d e2 34 63 bd
       -0.0015967124 -0.026953246 0.042770904 -0.055470355
000390 ba 48 86 bc 8a c8 1c bd 6f 9f fe bc 46 b3 9e 3c
       -0.0163921 -0.038277186 -0.031081883 0.019372594
0003a0 b9 21 a5 3d 90 62 74 3d 42 29 2f bd aa f3 06 bb
       0.08063073 0.05966431 -0.042763956 -0.0020592012
0003b0 70 39 92 3d 98 1a 2a bd 9a 53 ac 3d ba f8 cd 3c
       0.071398616 -0.041529268 0.08414383 0.025143016
0003c0 c2 ea a1 3d 2e 9b 76 3d eb 13 95 3d 5c 0b 1d 3d
       0.079061046 0.060206585 0.0727919 0.03834091
0003d0 bd 72 0d 3d 55 65 e2 bc f4 20 e5 3b b6 78 02 3c
       0.03453325 -0.02763621 0.0069924537 0.00796335
0003e0 fc 3d 95 3d c9 9c 52 3d eb 37 d9 3c 30 de 8d 3c
       0.07287213 0.051419053 0.026515922 0.017317861
0003f0 01 48 b5 3d e3 88 62 bc 76 7e 59 3d 21 8d 3e 3d
       0.08851624 -0.013826582 0.05309912 0.04652131

conv2.bias f4 [32]
000000 cf cb a8 bd 16 d4 40 3c 8a 46 30 bd 29 6e be bc
       -0.082419984 0.011769315 -0.04303602 -0.023245888
000010 fb 99 c1 bc f7 fb b2 bc 04 16 aa bd 62 02 9c bd
       -0.023632994 -0.021848662 -0.083049804 -0.07617642
000020 5c a1 6d 3c 6d 53 3e bd 6f 0c e9 bc fe 2f 45 bc
       0.014503803 -0.04646628 -0.028448312 -0.012035368
000030 33 b5 0c bd a9 e8 07 bd 15 1b 28 bd 6c b4 ec bc
       -0.034352493 -0.033180866 -0.041041452 -0.028894626
000040 03 55 6c bd 0b d9 89 bd 96 b5 2d 3e 68 ec 56 bd
       -0.05769826 -0.06730851 0.16963801 -0.05247155
000050 9f 1f c5 bc da a8 ba 3c cd cd 80 bc 51 a2 91 bd
       -0.02406293 0.022785593 -0.015723133 -0.071110375
000060 26 07 d1 bc 9c 97 e4 3c ca 99 af 3a 13 cf 94 bd
       -0.025516104 0.027904324 0.0013397273 -0.07266059
000070 5d 14 da bc 67 0a 4f bd f1 36 2c bd ad 40 20 bd
       -0.026621038 -0.05054703 -0.042044584 -0.03912418

fc.weight f4 [1, 9600]
000000 2b cd 04 bb 78 cd 81 ba e1 9b 44 3c 77 2c a7 39
       -0.0020263891 -0.0009903153 0.012000055 0.0003188585
000010 33 f1 50 3c 80 14 2c 3c b3 d3 45 3a 6c b5 1e 3b
       0.012752819 0.010502934 0.0007546499 0.0024217023
000020 06 fb 5a 3c 33 ac 16 3b 37 5b dd 3b 07 2e 80 3c
       0.013365513 0.0022990822 0.0067552584 0.015646948
000030 99 79 eb 3a 0b 9d 12 bb 2c 15 77 bb fd 94 66 3b
       0.0017965316 -0.0022371437 -0.0037701828 0.0035184019
000040 5e 90 06 3c be a1 82 3c d8 d9 00 3a 04 4a 4b 3c
       0.008213131 0.015946265 0.0004915274 0.012407783
000050 46 9a 05 bb 72 f9 87 3a 68 79 cb b9 88 0d 5b 3c
       -0.0020386144 0.0010374023 -0.00038809632 0.013369925
000060 45 4f b4 3b 93 98 00 3c d0 14 92 3b 01 ba 32 bb
       0.0055026137 0.0078488765 0.0044580474 -0.0027271511
000070 d0 4e a0 3b 13 43 c9 3b 1b 88 25 3c fa f2 79 3b
       0.0048922077 0.006142029 0.010103251 0.003813921
000080 e2 2b ca b8 ac d8 7b 3b 54 91 48 bb 0c 9a 74 3c
       -9.6402844e-05 0.0038428707 -0.00306042 0.014929306
000090 84 08 24 3b af c1 e9 ba bd 9a 0c 3c b8 1d 73 ba
       0.002502949 -0.0017834211 0.008581814 -0.0009274143
0000a0 f4 78 82 3c 29 f5 65 3c 9f 68 85 ba d0 a0 68 bb
       0.015926816 0.0140355015 -0.0010178274 -0.0035496242
0000b0 58 67 32 bb 78 25 1e 3c 98 d4 5e 3c 39 db 2c 38
       -0.0027222242 0.009652488 0.013600491 4.1212163e-05
0000c0 71 e6 6b 3c 56 9c 01 3c d1 40 36 3b c8 ba 5d 3c
       0.014398203 0.007910809 0.002780963 0.013533302
0000d0 b4 9f 79 3c 36 3b 07 bb 60 74 f6 3b 3d 29 90 3b
       0.01523583 -0.0020634658 0.007521197 0.0043994472
0000e0 93 76 1c bb ad e9 3e bb 26 7d 3e bb 06 3b a7 3b
       -0.0023874387 -0.002913098 -0.0029066294 0.0051034717
0000f0 c6 8f e1 39 13 e1 96 3b 1e b0 4d 3c 59 9c c4 3b
       0.00043022464 0.0046044677 0.012554197 0.0060000834
000100 16 38 54 3c 4b 26 57 bb 84 38 e6 b9 95 58 e5 3b
       0.012952825 -0.003282922 -0.00043911126 0.006999085
000110 62 56 7b 3c 70 4f 4d 3c 13 0e 4b bb e9 83 bd ba
       0.0153404195 0.012531146 -0.003098373 -0.0014458868
000120 3f 3e b7 3b 7e d8 42 3b e8 fe 3a 3c d7 15 ba 3b
       0.005592137 0.002973109 0.011413313 0.005678873
000130 45 4d 7b 3c 81 94 5e 3c 1e 1a 33 bb c3 db 42 3b
       0.015338247 0.013585211 -0.00273288 0.002973304
000140 68 32 5d 3c 56 f5 4c bb 32 ff a7 b8 9f be 87 bb
       0.013500787 -0.0031274161 -8.0107144e-05 -0.004142597
000150 d6 35 09 3c cd e8 89 3b 27 d6 81 3c bc 6a 85 3b
       0.008374652 0.00420866 0.015849186 0.0040715616
000160 2b a7 99 3a 8d e9 25 bb 23 0c 07 3c 8b fa da 3b
       0.0011722794 -0.002531621 0.00824264 0.006682699
000170 dc 03 3d 3c fc 0e 57 3b f0 72 09 3c d1 be 15 3b
       0.011536565 0.0032815328 0.00838922 0.002284933
000180 01 03 3e 39 d8 4e ff 3a 7a 00 ac 3b b8 5c 78 3c
       0.00018120931 0.0019478453 0.0052490802 0.015158825
000190 81 86 4b 3c 4e 5f 71 ba 5c da 5f 3b 16 43 20 3c
       0.012422205 -0.0009207622 0.0034157252 0.0097816195
0001a0 f0 9c 27 3c ab 97 b1 ba 20 19 56 3c a3 a2 3f 3b
       0.010230288 -0.0013549229 0.013067514 0.0029241226
0001b0 35 f1 c5 3b 78 2c 10 3c 2f 5b b8 b9 4a 1e b8 3b
       0.006040717 0.008799665 -0.00035163152 0.005618845
0001c0 ae 4b 2b 3c ae e1 6f 3b 70 12 76 3c 46 30 80 3b
       0.010455055 0.0036603021 0.015019044 0.0039120046
0001d0 02 e8 0d 3c 72 1b 84 3c 16 5b 59 3b 76 01 41 bb
       0.008661272 0.016126368 0.0033165864 -0.0029450334
0001e0 09 03 4a bb 52 c8 83 3b bb 1e 37 3c ec db bb 3b
       -0.0030824563 0.004021683 0.01117676 0.005733004
0001f0 17 0a 37 3b 14 5c ff 3b bd 44 3e 3c b1 59 e5 3a
       0.0027929598 0.007792959 0.011613068 0.0017498044
000200 37 32 4f 3b 64 d3 fb 39 64 ff b8 3b 9d 6b 1a 3c
       0.0031615624 0.0004803195 0.0056456793 0.009425071
000210 06 69 5b 3c 1c db 1d 3c a4 86 c1 3a 64 2d e8 ba
       0.013391739 0.009634759 0.0014764857 -0.0017713723
000220 70 d6 2a bb 94 61 1e 3c f1 a1 32 ba e0 7e f6 3b
       -0.0026067756 0.009666819 -0.0006814292 0.007522449
000230 7c 77 12 3c 5f 41 33 3c 27 6e ab 3b 0e 90 6f 3c
       0.00893962 0.010940879 0.005231637 0.014621748
000240 c1 bd 23 3c 28 2c 1f ba 09 5b 14 3c ab f5 6d bb
       0.009993971 -0.00060719484 0.009054908 -0.003630976
000250 cc f7 ae 3a f2 81 3a bb 32 bc 95 3b 00 61 79 3c
       0.0013348996 -0.00284588 0.004569554 0.0152208805
000260 a3 b2 45 3b 74 c1 51 3c 00 84 2c 3c f0 b2 bd 3a
       0.003016629 0.0128024705 0.010529518 0.0014472883
000270 23 4f 02 3c 80 b7 be 3a 96 d8 fd 3b aa 13 73 3c
       0.007953438 0.0014550537 0.0077467663 0.014836231
000280 54 42 83 3b fd 77 13 3c b6 83 22 3b d4 f5 64 3b
       0.0040057097 0.009000775 0.0024797744 0.0034936564
000290 e5 b3 80 3c 1f 81 42 3c 82 d2 a0 b8 8a 85 b4 ba
       0.01571078 0.011871605 -7.668605e-05 -0.0013772708
0002a0 9a e3 27 3c d2 b3 77 3c d0 64 48 3c 20 97 d1 3b
       0.010247136 0.015118556 0.012231067 0.0063961893
0002b0 35 18 08 3c c0 b4 39 3c db 11 3b 38 a4 59 66 3c
       0.008306553 0.011334598 4.4600903e-05 0.014059458
0002c0 7d 2c 60 3c f5 b6 49 3a d2 e4 1f bb e7 ac d7 3a
       0.013682482 0.0007694804 -0.0024397862 0.0016454727
0002d0 a4 ab 52 3c db 73 80 3b 52 34 e4 3a 09 f1 1b 3c
       0.012858305 0.003920061 0.0017410612 0.0095179165
0002e0 4e 96 7e 3c aa 93 f7 3b a6 9f 40 3a 14 b2 07 3c
       0.015538765 0.0075554447 0.0007348008 0.008282203
0002f0 ab 91 10 bb 70 64 74 3b 54 9e bd 3a 0e 6e 8e ba
       -0.002205948 0.003729131 0.0014466741 -0.0010866539
000300 97 39 68 3a 41 ba 68 3c 8b 5f e4 3b 5c 1d e8 3b
       0.0008858679 0.014204563 0.0069693974 0.007083578
000310 7a 76 31 3c 36 d2 bc 3b ea 3a 89 bb 72 54 81 3c
       0.01083147 0.005762364 -0.0041879313 0.015787337
000320 d0 5f bb 3b 00 17 33 3c 0b f0 a2 3a 9e c9 13 3a
       0.005718209 0.010930777 0.0012431158 0.0005637648
000330 35 76 81 3c fc f0 6d 3b 18 f9 6f 3c a6 7b 47 bb
       0.015803436 0.0036306968 0.014646791 -0.003043869
000340 53 f5 69 3c 24 54 6e 3c 1b 29 73 bb f8 59 44 3c
       0.014279681 0.014546428 -0.0037103358 0.011984341
000350 86 32 82 3b 3c 65 f9 3a a7 16 70 3c 67 9b 22 3c
       0.003973308 0.0019027363 0.014653838 0.009924746
000360 b1 2b 5b ba b2 00 4a bb 8f 06 6e ba 1e 76 10 3c
       -0.00083606975 -0.0030823168 -0.0009079957 0.008817224
000370 0b 48 82 3b cd be 79 bb 3d 55 65 3c 1d d0 e7 3b
       0.0039758733 -0.003810811 0.013997373 0.0070743696
000380 e0 fb 62 3c cf 83 f2 3b f8 da 82 3a d0 49 81 3a
       0.013853997 0.0074009667 0.0009983471 0.0009863917
000390 02 3d f3 39 4b 77 90 3a 27 1c 3f 3c 91 30 2b 3b
       0.00046394026 0.001102188 0.011664427 0.0026121477
0003a0 9b cc 4e bb 0b 7b ce 3b 95 1f b9 3b a7 ab 3a 3c
       -0.003155506 0.006301289 0.005649517 0.011393464
0003b0 ef 36 d0 3a 6b d7 19 3c f9 4f dd 3b 2e a9 d2 38
       0.0015885512 0.009389739 0.0067539182 0.000100450925
0003c0 05 07 00 bb e4 87 4f 3c f3 67 84 3b 0d 46 7e 3b
       -0.0019535434 0.012666676 0.004040712 0.0038799078
0003d0 af c4 4b b7 c6 f0 5a 3b cf bc 84 bb e1 2c b8 3a
       -1.2145537e-05 0.0033407672 -0.004050828 0.0014051461
0003e0 98 90 fd 3b 10 01 12 bb 96 51 5f 3c ce 55 c2 3b
       0.007738184 -0.0022278465 0.013630291 0.005930639
0003f0 67 d1 e5 3b c7 a8 a2 35 19 b7 16 3c 0a 6e 74 3c
       0.007013488 1.2119061e-06 0.009198927 0.0149188135
