saved_models/pd_model_0x31_w.pth (torch, 2519 bytes, 5 tensors)

fc1.weight f4 [8, 4]
00000000: b53f e5bf 35b2 e0bf 453a 37bd ed6f d3be
00000010: 3531 2b40 d36b 0340 2d69 b23e 5f82 01bf
00000020: 6d5d 2040 e7e2 e83f b974 ffbe 91fb f13e
00000030: 5445 d0bf d448 acbf 4f79 a4be b89d 14be
00000040: 4fc6 cbbf 6688 aabf 4be9 a2be 7b35 3bbe
00000050: e304 ec3f 0760 a43f eae7 7ebf 2fc7 4dbd
00000060: f064 f43f 76dd a43f 9ccf 553f 4be7 8b3d
00000070: e3cf 443e e8b5 5d3f adbc 143e 8c7c f93e
-1.7910067 -1.7554384 -0.044733305 -0.4129633 2.6748784 2.053456 0.34845868 -0.50589556
2.5057023 1.8194245 -0.4989374 0.47262242 -1.6271157 -1.3459725 -0.321238 -0.1451329
-1.5919894 -1.3322875 -0.31818613 -0.1828212 1.8438991 1.2841805 -0.9957262 -0.050238784
1.9093304 1.2880085 0.8351991 0.06831225 0.19219927 0.8660569 0.14525099 0.48727834

fc1.bias f4 [8]
00000000: 2d7d 11bf c2ba 3dbe c893 2ebe d97a 21bf
00000010: d616 dabe e3f5 febd e203 05be e2f8 bcbc
-0.5683163 -0.18528274 -0.17048562 -0.63078076 -0.42595547 -0.12449243 -0.12989762 -0.023067895

fc2.weight f4 [4, 8]
00000000: 38f5 523f f9c5 20bf 04b5 95bf 9e12 b43e
00000010: eb67 223f 824d 863e def0 95be fe2b 903d
00000020: 3746 8abf a41b e73f 6791 b23f 39d6 36bf
00000030: 1841 d0be 1c19 333f c433 ad3f d1a7 943e
00000040: 0720 cbbe bc63 aebf 711f 1bbf 128e c3be
00000050: 1788 65be f799 32be 1128 e0be b47d 25bf
00000060: 3fee 193f 78c5 51bf a18c 5bbf aa3a ba3e
00000070: 0bc4 483f fd80 693e 244e 89be 1313 5c3e
0.82405424 -0.6280208 -1.1695867 0.35170454 0.63439816 0.2623101 -0.2928533 0.07039641
-1.0802678 1.805531 1.3950623 -0.7142063 -0.40674663 0.6996019 1.3531423 0.29034284
-0.39672872 -1.3624187 -0.6059485 -0.3819433 -0.22415195 -0.17441545 -0.43780568 -0.6464493
0.6012916 -0.8194194 -0.8576146 0.36372882 0.7842414 0.22803111 -0.2681743 0.21491651

fc2.bias f4 [4]
00000000: ffcd d9be 3acc e9b8 261f 2740 d085 55be
-0.42539975 -0.00011148346 2.6112761 -0.20851827

fc3.weight f4 [1, 4]
00000000: e9cd b3bf 6022 0a40 bc51 5bc0 0b5f 82bf
-1.4047214 2.158348 -3.4268637 -1.0185255
