saved_models/pd_model_0x31_w.pth (torch, 1871 bytes, 3 tensors)

fc1.weight f4 [8, 4]
-0.29569322 -0.0019111633 -0.37086815 0.24993181 -0.32927984 0.4627247 -0.23539978 -0.033959508
-0.19183213 -0.15797085 -0.015251994 -0.45549822 -0.02366309 -0.2999323 -0.20859082 0.1956909
-0.26979354 0.35662186 0.33525196 0.31675646 4.0164585 4.4407415 0.46965125 0.965769
0.255484 0.16231996 -0.04266123 -0.052045546 -0.16872728 0.4969387 0.02579397 0.123702586
00000000: 1a65 97be 0080 faba 6ee2 bdbe 20ee 7f3e
00000010: 5e97 a8be 40ea ec3e a40c 71be 2019 0bbd
00000020: a46f 44be 1cc3 21be 80e3 79bc 1037 e9be
00000030: 19d9 c1bc ba90 99be d598 55be 3263 483e
00000040: 6122 8abe 2497 b63e 25a6 ab3e e72d a23e
00000050: d486 8040 8e1a 8e40 2176 f03e a33c 773f
00000060: cdce 823e 3437 263e 8bbd 2ebd b62d 55bd
00000070: d8c6 2cbe c06e fe3e e04d d33c c857 fd3d

fc1.bias f4 [8]
-0.067617 -0.39763057 -0.45548695 -0.0103523685 -0.19215372 -0.04254174 -0.15719648 -0.42747462
00000000: c87a 8abd 3c96 cbbe 9635 e9be fb9c 29bc
00000010: f2c3 44be 3f40 2ebd 1df8 20be f4dd dabe

fc2.weight f4 [1, 8]
-0.1781999 -0.32764834 -0.23131606 0.06485654 -0.1967276 3.7403445 -0.1919076 0.013086975
00000000: 097a 36be 86c1 a7be 1ede 6cbe 81d3 843d
00000010: f672 49be ce61 6f40 6d83 44be c06a 563c
