saved_models/pd_model_0x36_w.pth (torch, 69208 bytes, 6 tensors)

conv1.weight f4 [16, 3, 3, 3]
0.11233806 0.11785583 0.13248107 0.12156725 0.024413325 0.1485434 0.055182785 0.17568597
6.897312e-05 0.0373829 -0.1493539 0.0030314724 -0.0025847587 -0.055532143 -0.10113679 -0.13738663
-0.15947467 0.097956605 0.012437032 -0.17223714 0.10705367 -0.15246187 -0.022222146 -0.05424749
-0.110355705 -0.0497489 0.14611018 -0.10392685 0.15840508 -0.16428053 0.17982791 -0.01369566
0.10379381 0.041248024 0.15248968 0.074009605 0.08332533 -0.022426613 -0.08180191 -0.02054443
-0.15887955 0.13513911 0.09087052 -0.04564017 -0.12843549 0.11577866 0.16216761 0.14188091
-0.1534307 0.14650488 -0.013468695 -0.19657478 0.08086391 -0.061397262 0.12235918 0.0840704
-0.10133585 0.0047412235 0.15375432 0.11466625 -0.14108218 -0.16600071 0.09008097 -0.030546874
-0.18409754 -0.14626576 -0.016626291 0.13201405 -0.14369482 -0.03973494 0.037347868 -0.23655467
0.004866191 0.0011613651 -0.1810686 -0.14574689 -0.10670436 -0.19173624 -0.20677899 0.17080344
0.14358363 -0.10982828 0.18757188 -0.048473146 0.03822025 -0.07740028 -0.14095971 -0.036046855
0.029478436 0.1803569 -0.1611939 0.15686993 -0.10210584 0.18358538 0.17444822 0.12360883
0.058940474 -0.039180025 0.02644294 -0.021489939 0.10861979 0.010927262 0.010781804 -0.07581501
0.16555111 -0.06248544 -0.006674845 -0.06971229 0.19664112 -0.035694133 -0.15568438 -0.120463625
0.054461233 0.018268388 0.08772421 -0.11316363 0.17608252 -0.122271426 0.014310633 0.059503455
0.07280341 0.0024446822 0.14294086 0.10226513 -0.029417897 -0.0053459527 0.051944926 0.016423305
0.073529 -0.08980361 -0.13416533 -0.10311422 -0.12212609 0.012770869 -0.1665737 -0.13014932
-0.08471724 -0.15431732 -0.15402587 -0.18509977 0.13022259 0.14828953 0.084113024 0.14986941
0.1405367 0.11032016 0.11127965 0.14102727 -0.044144288 0.16964433 0.07967771 0.06437684
0.08464973 0.112182595 0.108161695 -0.10023012 -0.037169952 -0.15767932 -0.0034926157 -0.09693879
-0.17193262 -0.10966785 0.034156777 -0.16696355 0.019439708 0.2244609 -0.17393547 0.07334021
0.17356856 -0.029910658 -0.12749647 -0.09710649 -0.20168664 -0.029142547 -0.16483156 0.16353999
0.093129836 0.07242183 -0.04597512 0.016650688 0.13500251 -0.046024952 0.192067 -0.19576474
0.004985163 -0.17901607 -0.022681601 0.008776156 0.13158004 -0.13400303 -0.20226692 -0.14523125
-0.019201597 0.059254337 -0.028960278 0.16048847 -0.1327141 -0.10077359 0.017826814 -0.13229506
0.14362632 0.135016 0.014259448 0.1321403 0.19827212 0.056465633 -0.10570166 -0.15471901
-0.051334236 -0.15422355 0.07577445 0.09561722 0.046882138 -0.13324094 -0.06477376 -0.031962797
0.072049186 0.07496329 0.1849141 0.06988366 -0.006963742 0.02486314 -0.19054548 0.03844835
0.10738585 -0.020791989 -0.14771436 -0.18527101 0.10452071 0.20799679 -0.10681145 0.15995061
0.038853858 -0.011046292 0.025410207 -0.029508907 0.17584325 -0.15437673 0.03536972 -0.11729105
0.040775392 -0.14846544 0.16518986 -0.12183019 -0.11209054 0.10821832 -0.075064346 -0.16881128
-0.1676598 -0.017815085 -0.10890915 0.012095923 -0.10992489 0.051067207 0.16639625 -0.113519594
00000000: 7f11 e63d 665e f13d 1ea9 073e 40f8 f83d
00000010: 74fe c73c c31b 183e 5807 623d 06e7 333e
00000020: a9a5 9038 d01e 193d 3bf0 18be abab 463b
00000030: 0e65 29bb ac75 63bd ce20 cfbd 15af 0cbe
00000040: 544d 23be 799d c83d b1c4 4b3c ef5e 30be
00000050: f43e db3d f71e 1cbe 380b b6bc 9e32 5ebd
00000060: 2c02 e2bd 81c5 4bbd e89d 153e 9ad7 d4bd
00000070: f134 223e 2839 28be cf24 383e c363 60bc
00000080: d991 d43d b0f3 283d 4126 1c3e 5992 973d
00000090: 78a6 aa3d 04b8 b7bc c387 a7bd cb4c a8bc
000000a0: 52b1 22be e861 0a3e 531a ba3d 30f1 3abd
000000b0: 9884 03be 5d1d ed3d 440f 263e 3b49 113e
000000c0: f01c 1dbe 6005 163e cdab 5cbc e64a 49be
000000d0: fa9b a53d b27b 7bbd 7397 fa3d 1a2d ac3d
000000e0: 2c89 cfbd 445c 9b3b c671 1d3e 24d6 ea3d
000000f0: d977 10be 17fc 29be 5f7c b83d 703d fabc
00000100: 1184 3cbe b1c6 15be dc33 88bc b12e 073e
00000110: bc24 13be 1bc1 22bd 14fa 183d 633b 72be
00000120: 9274 9f3b f238 983a 0c6a 39be ac3e 15be
00000130: d187 dabd 8156 44be dfbd 53be 19e7 2e3e
00000140: 9607 133e a6ed e0bd d812 403e c78b 46bd
00000150: d68c 1c3d 0a84 9ebd be57 10be dea5 13bd
00000160: c37c f13c 7baf 383e 0410 25be 83a2 203e
00000170: de1c d1bd cefd 3b3e 8ea2 323e a026 fd3d
00000180: 916b 713d 3c7b 20bd dd9e d83c ab0b b0bc
00000190: 0d74 de3d 4208 333c 2aa6 303c e644 9bbd
000001a0: 3b86 293e bcf0 7fbd a8b8 dabb 51c5 8ebd
000001b0: 4a5c 493e 0334 12bd ba6b 1fbe a2b5 f6bd
000001c0: be12 5f3d 96a7 953c c0a8 b33d 55c2 e7bd
000001d0: fa4e 343e 7169 fabd 2577 6a3c e5b9 733d
000001e0: f419 953d f636 203b 175f 123e 6170 d13d
000001f0: cdfd f0bc 1a2d afbb 34c4 543d 2b8a 863c
00000200: 5f96 963d f5ea b7bd a362 09be 8c2d d3bd
00000210: 3e1d fabd e83c 513c 4c92 2abe dd45 05be
00000220: 3b80 adbd 5c05 1ebe f5b8 1dbe cb8a 3dbe
00000230: 1259 053e 36d9 173e 7343 ac3d 5e77 193e
00000240: dae8 0f3e 89ef e13d 96e6 e33d 7469 103e
00000250: a4d0 34bd 3eb7 2d3e 112e a33d 01d8 833d
00000260: d65c ad3d fdbf e53d e183 dd3d 7345 cdbd
00000270: 853f 18bd b076 21be 5ee4 64bb d887 c6bd
00000280: 1b0f 30be 8a99 e0bd fae7 0b3d 7ef8 2abe
00000290: 0640 9f3c 14d9 653e 241c 32be 6433 963d
000002a0: f5bb 313e 3207 f5bc 6f8e 02be c4df c6bd
000002b0: f186 4ebe 5abc eebc 9bc9 28be 0777 273e
000002c0: dbba be3d e551 943d 6850 3cbd 0667 883c
000002d0: 193e 0a3e a984 3cbd 36ad 443e 8d76 48be
000002e0: 945a a33b fd4f 37be c4ce b9bc dec9 0f3c
000002f0: ebbc 063e 1738 09be 0f1f 4fbe 80b7 14be
00000300: ab4c 9dbc adb4 723d 1b3e edbc 1757 243e
00000310: 34e6 07be 6262 cebd 8a09 923c 5b78 07be
00000320: c712 133e a241 0a3e 76a0 693c c94f 073e
00000330: d907 4b3e 8248 673d 1d7a d8bd a96e 1ebe
00000340: d943 52bd c7ec 1dbe a32f 9b3d f6d2 c33d
00000350: 7c07 403d 5070 08be 1ba8 84bd 6ceb 02bd
00000360: 868e 933d 5a86 993d 1f5a 3d3e 2a1f 8f3d
00000370: 1a30 e4bb c9ad cb3c 5b1e 43be 047c 1d3d
00000380: 1ded db3d f653 aabc 6f42 17be afb7 3dbe
00000390: f40e d63d 1cfd 543e f6bf dabd 18ca 233e
000003a0: 3925 1f3d 82fb 34bc 1129 d03c aabc f1bc
000003b0: 4110 343e ef14 1ebe d7df 103d 4a36 f0bd
000003c0: 1904 273d 5307 18be 8827 293e 1b82 f9bd
000003d0: ba8f e5bd 91a1 dd3d 56bb 99bd dddc 2cbe
000003e0: 03af 2bbe f1f0 91bc c30b dfbd fa2d 463c
000003f0: 4d20 e1bd d92b 513d c763 2a3e f67c e8bd

conv1.bias f4 [16]
0.1367783 -0.013870167 -0.023928411 -0.17647313 0.021476455 0.14164515 -0.13988383 0.11351859
-0.19414958 -0.1696618 0.10270718 0.029672896 -0.090990946 -0.10645369 0.012959058 0.081873
00000000: 9c0f 0c3e b23f 63bc 8405 c4bc 5fb5 34be
00000010: 64ef af3c 6d0b 113e b53d 0fbe 6f7c e83d
00000020: 26cf 46be d3bb 2dbe 2458 d23d 9314 f33c
00000030: 7659 babd 6404 dabd 3b52 543c 08ad a73d

conv2.weight f4 [32, 16, 3, 3]
-0.046454344 0.06886362 -0.02590121 -0.06384365 -0.05781483 0.021677729 -0.10299821 -0.04420126
-0.07755528 -0.04618654 0.041968793 0.068459444 0.053973734 0.042189963 -0.047466535 0.007060051
-0.0217916 0.023873255 -0.050905753 0.09161141 0.05929514 -0.050744575 -0.026319604 0.025906906
0.037741415 0.08473968 0.07226444 0.045209594 -0.046072666 -0.0669492 -0.07892683 0.025413634
-0.019688407 0.026330322 0.039975196 -0.00040683214 -0.10201412 0.08469286 0.010506354 -0.019920621
-0.02905878 -0.008958852 -0.03490845 0.035799645 0.038647875 -0.016362423 -0.07602775 -0.013867429
0.057399098 0.024514737 -0.08029118 -0.06304722 -0.056364506 -0.007997176 -0.015274133 0.037572995
0.02515787 -0.085500054 0.07262083 -0.042753313 0.07296184 0.061703697 0.045648146 -0.061394077
-0.022990238 -0.0385706 0.07299534 -0.044810623 0.060588516 -0.05152454 -0.022954047 -0.066391945
-0.039411083 0.07472592 0.07580899 -0.06622397 -0.039805107 0.034980886 -0.024357313 0.037050143
0.020571427 -0.03420552 -0.012182858 -0.063247204 -0.05007636 -0.049353324 -0.05567563 -0.0023848838
-0.049318913 -0.006489537 -0.058646537 -0.025783734 0.022330547 -0.004647948 0.049338076 0.01532581
-0.079867266 -0.003224326 0.02536588 -0.03398096 0.06342861 0.0046808207 0.056914803 0.016791526
-0.031878978 0.07640483 -0.073442854 -0.05456142 0.05916528 -0.036965247 -0.013883857 0.032211907
-0.10287917 -0.07516233 0.059512585 -0.033925552 -0.07250999 -0.05478744 0.037873752 0.06647128
-0.048471134 -0.038913343 0.069671735 -0.01039128 0.08334724 0.060032696 -0.06565961 0.0124814045
0.029504282 0.08316072 0.05825002 0.046225157 -0.10896839 -0.059899677 -0.053982344 -0.07109467
0.02079186 0.040552065 -0.015810441 0.050241724 0.033152413 -0.040775117 0.00483581 0.05741722
-0.012833583 -0.08848027 -0.08919267 0.020500012 -0.023735406 0.010271825 0.029876782 0.04502447
-0.10584725 0.023013975 -0.00033697658 -0.050175726 -0.028359551 0.013369807 -0.060747497 -0.045816623
0.04175252 -0.02858902 0.019483555 -0.034796845 -0.0407614 -0.05511194 -0.05783656 0.06947213
-0.03409559 0.04221268 -0.045236643 -0.07514071 -0.042293824 0.06485695 0.0701966 0.044684842
-0.03120281 0.06784587 -0.018083224 0.010957072 -0.092542715 -0.022364236 0.05342018 -0.04911795
0.05683323 0.00357627 0.043182507 -0.041383766 0.0024273174 -0.010628566 -0.025018724 -0.06892661
-0.06574422 -0.068752974 -0.05625849 0.055406168 -0.06893032 0.040021855 -0.045906994 -0.010760958
0.01798679 0.043429095 0.075827315 -0.08105307 -0.0008578054 -0.045837514 -0.0066603897 -0.043367483
0.05259715 -0.097791605 0.029553609 0.017904552 -0.06671385 0.037525073 -0.04066486 0.048518855
0.057689406 0.04952276 -0.076267295 0.018029418 0.042812604 -0.086504936 -0.04416538 -0.04044112
-0.06227113 -0.02958076 -0.07208642 -0.025452474 0.0024305414 0.004578516 0.068245016 -0.071965046
-0.049463835 0.004670714 -0.07594746 0.057501204 0.03435028 -0.019829152 0.033541024 -0.0051626186
-0.048544623 0.045699026 0.10186253 -0.045068167 -0.009906568 0.0712488 -0.009386789 -0.045130838
0.076933526 -0.061968032 1.1535529e-05 0.053205997 -0.04526767 -0.011659545 0.016991252 0.044441834
00000000: e946 3ebd 5f08 8d3d c62e d4bc 76c0 82bd
00000010: 3ecf 6cbd 7e95 b13c baf0 d2bd 610c 35bd
00000020: 4dd5 9ebd 192e 3dbd 78e7 2b3d 7734 8c3d
00000030: 9013 5d3d 62cf 2c3d 456c 42bd 0058 e73b
00000040: 4c84 b2bc d891 c33c 8d82 50bd c39e bb3d
00000050: 76df 723d 8bd9 4fbd 369c d7bc b83a d43c
00000060: be96 1a3d ff8b ad3d 61ff 933d b22d 393d
00000070: b1b6 3cbd aa1c 89bd 64a4 a1bd 4130 d03c
00000080: 9549 a1bc b0b2 d73c 08bd 233d 164c d5b9
00000090: c7ec d0bd 7373 ad3d d822 2c3c 9230 a3bc
000000a0: ae0c eebc 26c8 12bc 2afc 0ebd a6a2 123d
000000b0: 3c4d 1e3d 7d0a 86bc 70b4 9bbd 3734 63bc
000000c0: 511b 6b3d 21d3 c83c b46f a4bd e71e 81bd
000000d0: 78de 66bd 9606 03bc 5b40 7abc 24e6 193d
000000e0: e117 ce3c a71a afbd 3bba 943d 191e 2fbd
000000f0: 046d 953d 04bd 7c3d 8df9 3a3d 5b78 7bbd
00000100: 0656 bcbc 35fc 1dbd 957e 953d 588b 37bd
00000110: aa2b 783d 650b 53bd 200a bcbc 80f8 87bd
00000120: 846d 21bd e709 993d be41 9b3d 6fa0 87bd
00000130: ae0a 23bd 1e48 0f3d fd88 c7bc e4c1 173d
00000140: 6985 a83c 161b 0cbd 9c9a 47bc c087 81bd
00000150: df1c 4dbd b626 4abd 210c 64bd b64b 1cbb
00000160: a102 4abd 2fa6 d4bb 5a37 70bd 6938 d3bc
00000170: 8dee b63c d04d 98bb b916 4a3d 1b19 7b3c
00000180: 7391 a3bd 374f 53bb 1bcc cf3c 9e2f 0bbd
00000190: dce6 813d 9261 993b 7f1f 693d 628e 893c
000001a0: 8893 02bd 237a 9c3d 3569 96bd cc7b 5fbd
000001b0: 4b57 723d df68 17bd 1e79 63bc a2f0 033d
000001c0: 50b2 d2bd b5ee 99bd 78c3 733d 85f5 0abd
000001d0: 1e80 94bd cb68 60bd 8221 1b3d 1822 883d
000001e0: ab89 46bd 9963 1fbd 0eb0 8e3d 3040 2abc
000001f0: f5b1 aa3d d8e4 753d 8c78 86bd ce7e 4c3c
00000200: f7b2 f13c 2b50 aa3d 9397 6e3d 9756 3d3d
00000210: d22a dfbd 5d59 75bd 971c 5dbd 159a 91bd
00000220: b153 aa3c ec19 263d e684 81bc 44ca 4d3d
00000230: d3ca 073d cf03 27bd b775 9e3b 522e 6b3d
00000240: f343 52bc 2535 b5bd a6aa b6bd a4ef a73c
00000250: c170 c2bc 284b 283c 27c0 f43c 946b 383d
00000260: 71c6 d8bd ce87 bc3c 3bac b0b9 1085 4dbd
00000270: 4a52 e8bc 090d 5b3c 5ed2 78bd 36aa 3bbd
00000280: b104 2b3d 8533 eabc fa9b 9f3c 2387 0ebd
00000290: 6df5 26bd 0fbd 61bd 07e6 6cbd 6747 8e3d
000002a0: d1a7 0bbd 34e7 2c3d 0f4a 39bd 5fe3 99bd
000002b0: 4a3c 2dbd b8d3 843d 3cc3 8f3d 7407 373d
000002c0: 099d ffbc c7f2 8a3d 4523 94bc 4a85 333c
000002d0: 0987 bdbd 3435 b7bc 1ecf 5a3d e72f 49bd
000002e0: f6c9 683d db5f 6a3b 24e0 303d 0682 29bd
000002f0: a113 1f3b 7023 2ebc 11f4 ccbc 6529 8dbd
00000300: e8a4 86bd 5cce 8cbd 4d6f 66bd 94f1 623d
00000310: 572b 8dbd f5ed 233d f908 3cbd bb4e 30bc
00000320: 0859 933c b5e2 313d 5a4b 9b3d 27ff a5bd
00000330: 59de 60ba 1ec0 3bbd 663f dabb 1aa2 31bd
00000340: 1c70 573d f746 c8bd 691a f23c 91ac 923c
00000350: 45a1 88bd e4b3 193d 3290 26bd b5bb 463d
00000360: ba4b 6c3d 61d8 4a3d 0732 9cbd 6eb2 933c
00000370: 455c 2f3d 8029 b1bd c2e6 34bd 96a5 25bd
00000380: 0310 7fbd 5a53 f2bc 0ca2 93bd b581 d0bc
00000390: b849 1f3b 6007 963b 0bc4 8b3d 6962 93bd
000003a0: 979a 4abd ca0c 993b 588a 9bbd 6286 6b3d
000003b0: e1b2 0c3d bf70 a2bc 5062 093d 2f2b a9bb
000003c0: bad6 46bd e72e 3b3d 4d9d d03d 6699 38bd
000003d0: 284f 22bc e4ea 913d 0ccb 19bc 1ddb 38bd
000003e0: 538f 9d3d 31d2 7dbd b888 4137 88ee 593d
000003f0: 986a 39bd ad07 3fbc 3d31 8b3c a408 363d

conv2.bias f4 [32]
-0.030539945 -0.022837082 -0.049883384 -0.0060955114 -0.076279566 -0.024689985 0.053173553 0.047505435
0.05880764 -0.062311478 -0.028599665 -0.032007664 -0.05398617 0.0128422305 -0.0045075696 -0.006201721
0.07160641 0.049613766 0.02039634 0.016202573 -0.020111656 -0.04562846 0.05212811 0.009486757
-0.028346842 0.054813746 -0.047703885 0.029187303 0.05894334 -0.0698792 -0.028658446 0.032065026
00000000: e82e fabc d514 bbbc 8552 4cbd dbbc c7bb
00000010: 7638 9cbd a742 cabc 83cc 593d 0f95 423d
00000020: 48e0 703d 523a 7fbd d849 eabc 781a 03bd
00000030: 9a20 5dbd 3868 523c 3cb4 93bb ce37 cbbb
00000040: 62a6 923d ce37 4b3d 3a16 a73c 42bb 843c
00000050: 33c1 a4bc e8e4 3abd 4984 553d 586e 1b3c
00000060: a337 e8bc 6184 603d 2665 43bd 361a ef3c
00000070: 926e 713d d31c 8fbd 1ec5 eabc 9e56 033d

fc.weight f4 [2, 5760]
0.027111769 -0.008797576 -0.015724214 -0.010683493 0.010533987 0.013901604 0.003120882 0.009794849
0.01590839 0.011652839 0.0090782875 0.008624694 0.006806229 0.02522243 -0.006397285 -0.009943125
0.018514685 -0.0073304446 0.009464867 -0.009600644 -0.019761162 -0.019840594 -0.021974606 -0.0070661157
0.001080703 -0.009738714 0.006814464 0.017692879 0.0060864957 -0.014533679 0.01658404 0.009476446
0.0111269625 -0.021109574 -0.024232712 0.010938184 -0.02288299 -0.002211765 -0.004514231 0.0013357874
0.0013936702 -0.011764344 0.0070306016 0.0069505475 -0.005576648 0.0022122357 0.0051011494 -0.004235115
-0.0017590235 0.00238482 -0.00979559 -0.021187961 -0.002769527 0.0088677015 0.039049122 -0.0010723043
0.0044360207 0.022705263 0.014725225 -0.013745701 0.02513866 -0.027394136 0.0066551454 -0.0045234775
0.0015605679 0.005480752 0.010312489 -0.012580114 -0.0077131526 0.0006863689 0.008899438 -0.0050037773
-0.007420939 -0.0052535255 -0.017455658 0.031650744 -0.025619265 0.019017488 0.0034774803 -0.0068991287
0.0042628967 -0.0027889742 0.009399093 0.008613706 0.014213508 -0.0022960862 -0.02241769 0.020684648
0.011772687 0.0186927 0.021632168 -0.013865995 0.016952036 -0.009948806 0.009625585 0.020682441
0.015158886 0.004828722 0.017582824 -0.0033834286 0.0015782482 -0.0080506075 0.017681066 0.01637284
-0.0031525623 -0.005326732 0.009717999 -0.0025790613 -0.016341051 0.03154985 -0.019315481 -0.00792428
-0.024441626 0.010384684 -0.0020282208 -0.0038428588 -0.012230294 -0.010551898 0.027209036 -0.0036627029
0.0019104381 -0.009429132 0.0019224246 0.009794117 0.009971328 -0.0056920755 -0.020903176 -0.016746337
-0.00917215 0.008612706 -0.004312341 -0.017209198 0.019804412 -0.007016708 0.0061628483 -0.0025736855
0.0019693733 -0.009180653 -0.010464204 0.017695578 -0.010041129 -0.003503408 0.007712749 -0.071482316
0.0014694482 -0.011924206 -0.0018307613 0.021311276 0.009740545 -0.00042669137 0.003406309 0.007487799
-0.008968605 0.008418696 0.004877132 0.008505619 0.023661288 0.0016045393 0.0003256074 0.0046147453
0.00016750023 -0.004097455 0.01093822 0.029840404 -0.0031121601 0.015137725 0.0105309915 -0.004316794
-0.010526383 -0.011195977 -0.030400157 -0.006434652 -0.004727508 -0.006352273 -0.011716221 0.005398645
-0.00044025417 0.0082040215 0.020929363 -0.08226711 -0.003714948 0.007333097 0.0040238732 0.010366826
0.0020711385 0.01376959 0.0006733297 -0.0029313066 0.013370546 0.008817204 0.007744074 0.010088055
0.013106098 0.007947726 0.0010259687 0.015017842 0.0055691265 0.005109201 -0.0014778388 0.0057594655
-0.0040402943 0.00021909022 -0.0025676198 0.0025686354 -0.007367555 0.0011561946 -0.012040204 0.015511436
0.0026376364 0.02027478 0.0036106259 -0.00794392 0.008146746 -0.003945859 -0.025590323 -0.005450014
-0.019620413 -0.0027961123 0.01437704 -0.00043125584 -0.0034835753 -0.0035876604 -0.00014776662 -0.014336191
-0.0013018857 0.012383316 0.0012766784 -0.0068986346 0.003489153 0.0013458245 0.0054601245 -0.014414739
0.010661748 -0.006649263 -0.0052529415 -0.009609174 -0.014231031 0.009723226 0.002460348 -0.0075964113
0.011685954 0.010704058 0.0006455198 0.00411102 0.017633809 0.007815523 -0.005732221 -0.0011649204
0.01376291 8.58976e-05 0.0007430268 0.010121793 0.015539029 0.015780268 0.004209858 0.015873408
00000000: 8019 de3c b523 10bc 11d0 80bc d109 2fbc
00000010: be96 2c3c 8ec3 633c b687 4c3b 937a 203c
00000020: 5052 823c 8deb 3e3c 19bd 143c 974e 0d3c
00000030: c906 df3b 459f ce3c 51a0 d1bb 7de8 22bc
00000040: 1cac 973c 3a34 f0bb 8812 1b3c 054c 1dbc
00000050: 29e2 a1bc be88 a2bc 1704 b4bc e08a e7bb
00000060: 60a6 8d3a 218f 1fbc de4b df3b a8f0 903c
00000070: 3a71 c73b ab1e 6ebc 41db 873c 1843 1b3c
00000080: dd4d 363c fced acbc ae83 c6bc 1236 333c
00000090: 1c75 bbbc 42f3 10bb 1dec 93bb 9615 af3a
000000a0: d0ab b63a 3cbf 40bc f660 e63b 6bc1 e33b
000000b0: 50bc b6bb 28fb 103b 8b27 a73b b8c6 8abb
000000c0: 098f e6ba a44a 1c3b af7d 20bc 6092 adbc
000000d0: f480 35bb d649 113c f9f1 1f3d 908c 8cba
000000e0: 0a5c 913b 6300 ba3c 1242 713c a635 61bc
000000f0: 97ef cd3c ab69 e0bc 6813 da3b ae39 94bb
00000100: f88b cc3a e197 b33b b7f5 283c d31c 4ebc
00000110: 9dbe fcbb 70ed 333a f3ce 113c baf6 a3bb
00000120: 592b f3bb c425 acbb 2bff 8ebc 36a4 013d
00000130: 7edf d1bc 90ca 9b3c 70e6 633b 1612 e2bb
00000140: c5af 8b3b 39c7 36bb a7fe 193c 8020 0d3c
00000150: c6df 683c ef79 16bb 4ea5 b7bc da72 a93c
00000160: 3ae2 403c 6f21 993c f235 b13c 332e 63bc
00000170: ffde 8a3c 5100 23bc a1b4 1d3c 396e a93c
00000180: fa5c 783c 423a 9e3b db09 903c 83bc 5dbb
00000190: 39dd ce3a b2e6 03bc e2d7 903c 5620 863c
000001a0: 389b 4ebb de8b aebb 3e38 1f3c 7805 29bb
000001b0: abdd 85bc 6a3a 013d 803b 9ebc d7d4 01bc
000001c0: ce39 c8bc 8624 2a3c e6eb 04bb 79d8 7bbb
000001d0: 9261 48bc dee1 2cbc 7ce5 de3c f509 70bb
000001e0: aa67 fa3a a57c 1abc def9 fb3a 8177 203c
000001f0: c85e 233c 9784 babb 233d abbc 9d2f 89bc
00000200: c946 16bc 4f1c 0d3c 8a4e 8dbb 4efa 8cbc
00000210: dd3c a23c 6aec e5bb b8f1 c93b 47ab 28bb
00000220: 9a10 013b 736a 16bc 0d72 2bbc 51f6 903c
00000230: 8c83 24bc 6f99 65bb 3abb fc3b 5265 92bd
00000240: 809a c03a bf5d 43bc 28f6 efba fc94 ae3c
00000250: cf96 1f3c 8cb5 dfb9 623c 5f3b 365c f53b
00000260: 0ef1 12bc 92ee 093c 59d0 9f3b 275b 0b3c
00000270: 51d5 c13c 684f d23a 49b6 aa39 4a37 973b
00000280: 00a3 2f39 f243 86bb 3836 333c dd73 f43c
00000290: 62f5 4bbb 3804 783c 2e8a 2c3c e573 8dbb
000002a0: da76 2cbc 556f 37bc c009 f9bc c6d9 d2bb
000002b0: 36e9 9abb ba26 d0bb 65f5 3fbc 1ee7 b03b
000002c0: ead1 e6b9 296a 063c 0e74 ab3c a97b a8bd
000002d0: 7c76 73bb 7a4a f03b b2da 833b 9fd9 293c
000002e0: f0bb 073b d999 613c 6482 303a 2a1b 40bb
000002f0: 2210 5b3c 0976 103c 00c2 fd3b 5f48 253c
00000300: f6ba 563c 2e37 023c cc79 863a 650d 763c
00000310: 387d b63b 166b a73b 0bb4 c1ba e6b9 bc3b
00000320: 7264 84bb 95bb 6539 8345 28bb 8d56 283b
00000330: 886b f1bb 748b 973a 4744 45bc ae23 7e3c
00000340: 32dc 2c3b 4c17 a63c 40a0 6c3b 3727 02bc
00000350: ee79 053c 444c 81bb cca2 d1bc 0896 b2bb
00000360: fdba a0bc fb3e 37bb ad8d 6b3c 2e1a e2b9
00000370: b24c 64bb f41e 6bbb cdf1 1ab9 58e2 6abc
00000380: 09a4 aaba 64e3 4a3c 3856 a73a f10d e2bb
00000390: 46aa 643b 6066 b03a d8ea b23b cc2b 6cbc
000003a0: 9dae 2e3c 10e2 d9bb de20 acbb cc6f 1dbc
000003b0: 4529 69bc 2a4e 1f3c ca3d 213b 51eb f8bb
000003c0: 7276 3f3c 1360 2f3c 1a38 293a bcb5 863b
000003d0: c774 903c ae0c 003c 5bd5 bbbb 3eb0 98ba
000003e0: d47d 613c ec23 b438 afc7 423a e0d5 253c
000003f0: 6997 7e3c 9f45 813c d9f2 893b f308 823c

fc.bias f4 [2]
-0.008258474 -0.00012431807
00000000: 8d4e 07bc 615b 02b9
