saved_models/pd_model_0x36_w.pth (torch, 45399 bytes, 5 tensors)

conv1.weight f4 [16, 3, 3, 3]
000000 43 81 41 3e 00 1d fd 3a 64 82 07 be ce 50 b5 3d
       0.18896966 0.0019311011 -0.13233334 0.08853303
000010 0e 76 25 be bf 7f 06 be ca 38 e4 3d a4 72 06 bd
       -0.16158316 -0.13134669 0.11143644 -0.032824174
000020 ad 9e 39 3e f4 4d e1 bd 48 93 c4 3c 77 9d 33 3e
       0.18126936 -0.110011965 0.02399601 0.17540537
000030 d9 b9 33 be 52 2f 9d 3d e0 a6 c4 bb 4a f7 b2 3d
       -0.17551364 0.07675041 -0.0060013384 0.08738573
000040 48 6d 3d bd 6f 89 40 be 35 6d c7 bd 14 46 3b bd
       -0.046246797 -0.18802427 -0.097376265 -0.04572113
000050 00 94 c4 3a 0c 70 2c be 99 73 26 3e bf cc 18 3e
       0.0014997721 -0.16839617 0.16255035 0.14921854
000060 fa 4b e9 3d 18 f2 a1 3c 42 b9 10 be 88 d3 2b be
       0.113914445 0.01976876 -0.1413317 -0.16779912
000070 91 21 33 3e f3 90 18 3e 02 6c fe 3d e7 85 17 be
       0.17493273 0.14899044 0.124229446 -0.14797173
000080 80 fd e4 3c 00 cb 37 3b 60 dc f7 bc 01 d8 1a 3e
       0.02795291 0.0028044581 -0.03025645 0.15121461
000090 20 39 84 3c 84 33 78 3d 7e f2 af 3d cf 68 28 be
       0.01614052 0.060596004 0.085911736 -0.16446231
0000a0 8a 16 0e be a0 56 f7 bc 80 fe a2 bd 60 3f a7 bc
       -0.13875785 -0.030192673 -0.07958698 -0.020415962
0000b0 89 49 2d 3e bd 60 03 3e d0 34 fe bc fe 8e 38 be
       0.16922583 0.12829871 -0.031031042 -0.18023297
0000c0 0c 01 12 be a2 a3 24 be 0c bb 3e 3d 80 18 09 be
       -0.14258212 -0.16078046 0.0465651 -0.13388252
0000d0 e8 0f d2 3c 6a e6 24 be ae eb 37 be c0 57 d5 bb
       0.02564235 -0.16103521 -0.17960998 -0.0065107048
0000e0 e6 eb cc bd f6 df 2a be 36 67 3e be 5e ef 8f 3d
       -0.100059316 -0.16686997 -0.1859406 0.070280775
0000f0 28 b3 eb bc be f7 b7 3d 3e 0c 91 3d 80 24 7e bd
       -0.028771952 0.089828 0.07082413 -0.062046528
000100 e4 6b 4e 3d 63 2e e0 bd 00 94 01 bd e8 40 02 bd
       0.05039586 -0.109463476 -0.031635284 -0.03180018
000110 a6 c7 8f 3d 92 8b 09 be 32 4f cc bd 5e 0a f6 3d
       0.07020502 -0.13432148 -0.09976043 0.12013696
000120 f1 d2 15 3e 81 bf 44 be 90 c7 c6 bc c9 34 34 3e
       0.14631249 -0.19213678 -0.02426508 0.17598261
000130 f2 98 af 3d d9 bb 2d be f8 07 1d bd 34 fb 10 bd
       0.08574094 -0.1696619 -0.038337678 -0.035395816
000140 dd d2 12 3e 0e ff e4 3d a7 d3 1c 3e e5 a1 3d 3e
       0.1433825 0.1118146 0.15315114 0.18518789
000150 0c c2 8b bd 94 a7 3d bd a7 fa e8 bd 00 26 d3 3c
       -0.06824121 -0.046302393 -0.11375933 0.025774956
000160 54 fb 1d be 6c 2e 23 be 95 9e 3a be d1 1e 9d bd
       -0.15427905 -0.15935677 -0.18224557 -0.076718934
000170 93 cb 08 3e 85 5b 41 3e 22 a7 06 be 16 d7 c8 bd
       0.13358907 0.18882568 -0.13149694 -0.098066494
000180 6e 97 08 be 0c 6c 3e be da 06 2a be c1 90 e2 bd
       -0.13339016 -0.18595904 -0.16604176 -0.11062766
000190 13 37 ad bd c0 21 0c bd 71 f5 9b bd 58 aa 84 bd
       -0.0845777 -0.034211874 -0.076151736 -0.06477803
0001a0 6c c6 b0 bd d4 32 08 3d 94 de 2e be 81 0c 3f 3e
       -0.08631596 0.0332516 -0.17077094 0.18657114
0001b0 11 1e 00 3e a7 0b 11 3e fa b7 c2 bd 9a ae f4 3d
       0.1251147 0.14164601 -0.09507747 0.11947365
0001c0 00 5f 48 bb 1b 82 23 3e 6f 35 e9 bd 19 62 44 3e
       -0.0030574203 0.159676 -0.11387145 0.19178046
0001d0 e5 ad 1f 3e fe dd 8e 3d f2 76 9f bd 97 2d 41 3e
       0.15593679 0.069759354 -0.07786359 0.18865047
0001e0 aa d8 88 bd 14 1e 08 bd 9c 88 1d 3d 64 cb 16 be
       -0.066819504 -0.03323181 0.03846036 -0.14726025
0001f0 e1 79 a4 bd 52 ba 0a be 7f 73 28 be 97 c9 13 3e
       -0.08031059 -0.13547638 -0.16450308 0.14432369
000200 42 4c 83 3d 80 d6 53 bc 6c c3 59 bd d3 a4 27 3e
       0.064110294 -0.012929559 -0.053164884 0.16371469
000210 d5 8c 31 3e c0 88 55 bb 00 e5 4b bb 87 63 f4 bd
       0.1733888 -0.003258273 -0.0031111836 -0.11933046
000220 db ad 23 3e af 95 03 3e d8 82 70 bd 50 2c b4 bc
       0.1598429 0.12850069 -0.058718532 -0.021993786
000230 7c f7 00 bd ae e7 e5 3d 38 0d 35 bd c8 9f ef bd
       -0.03148602 0.1122583 -0.04420206 -0.11700398
000240 43 4e 3c 3e 4e 66 1f be 50 43 83 bc df 5e a0 bd
       0.1838923 -0.1556637 -0.016023308 -0.07830595
000250 d6 f7 09 be 41 0f 1c 3e 12 c9 9e 3d c4 26 df bd
       -0.13473448 0.15240194 0.07753195 -0.10896066
000260 f1 33 41 3e 80 52 c6 bb bd 6f 0e 3e c6 10 af 3d
       0.1886747 -0.0060523152 0.13909812 0.08548121
000270 de d0 ff bd a0 fa 0a 3c ad 28 12 3e 81 6d 42 3e
       -0.1249101 0.008482605 0.14273329 0.18987085
000280 10 8f 27 bd 56 8f 9a 3d 3e 64 ff 3d 05 51 02 3e
       -0.04090792 0.075468704 0.124702916 0.12726219
000290 45 5e e0 bd 2d f8 f1 bd cc c1 80 bd d8 10 04 3d
       -0.109554805 -0.11814914 -0.06286964 0.032242626
0002a0 58 9d 98 3c 51 39 11 3e 97 c0 29 be 86 d1 ce 3d
       0.018629715 0.1418202 -0.16577373 0.10098557
0002b0 c0 7b 1e be c3 b7 34 3e 12 d1 32 be 29 b9 ef bd
       -0.15476894 0.17648225 -0.17462566 -0.11705238
0002c0 50 f9 ff bc 7c 0c 28 be 51 31 0e be a4 27 73 bd
       -0.031246811 -0.16411012 -0.13886 -0.059363976
0002d0 e3 a7 3a 3e 54 89 18 bd 36 82 e4 bd 05 d9 3d be
       0.18228106 -0.03724034 -0.11157648 -0.18539818
0002e0 64 ae 3a be 00 a3 2e 3d 14 2f 76 3d ee 00 f7 3d
       -0.18230587 0.042635918 0.06010349 0.12060724
0002f0 e6 98 cb 3d ba 6b 3a be 09 b5 2a 3e 19 cb 13 3e
       0.099412724 -0.18205157 0.16670622 0.14432944
000300 cc 8c 60 bd a3 56 08 3e 70 9a 9e bc ce 58 d5 3d
       -0.054821774 0.133143 -0.01936075 0.10417329
000310 94 06 3e 3d d2 ad cd 3d 26 55 a3 3d 3d a3 b5 bd
       0.046392992 0.10042919 0.07975225 -0.08869026
000320 15 c2 0e 3e 80 79 de 3a f0 72 16 3c 10 95 09 bc
       0.13941224 0.0016973466 0.009182677 -0.008397356
000330 10 ce 55 3c aa 34 86 3d 60 26 fe bc 64 47 56 bd
       0.013049617 0.065530136 -0.031024158 -0.052314177
000340 80 be 02 3b 29 cc a9 bd 9a bc a1 3d e0 4c 3d bc
       0.0019949973 -0.082908936 0.07897301 -0.011553973
000350 67 e1 25 3e 1d d5 c1 bd 06 f0 bd 3d d5 49 b3 bd
       0.16199265 -0.09464476 0.092742965 -0.08754317
000360 9e a1 8d 3d cc af 60 3d eb 8f 24 3e 52 08 a5 3d
       0.06915592 0.054855153 0.16070525 0.080582276
000370 cb 5b 3a 3e 10 fc 2f 3d 02 53 fe 3d 55 89 a7 bd
       0.18199079 0.042964995 0.12418176 -0.08180491
000380 70 90 48 bc f5 48 b2 bd 4e 5f 9f 3d 60 ea 84 bb
       -0.012241468 -0.08705322 0.0778185 -0.00405626
000390 16 29 03 be d9 ad 38 be a0 98 a1 bb e2 d0 e4 3d
       -0.12808642 -0.18035068 -0.0049315244 0.11172654
0003a0 94 4d 5a 3d dc 7f aa bd 34 33 51 3d 18 74 90 bc
       0.05329664 -0.083251685 0.05107422 -0.017633483
0003b0 30 61 19 3d e8 3f 83 3c c6 24 9c bd 30 70 eb bc
       0.0374462 0.016021684 -0.076242015 -0.028740019
0003c0 75 3c 1b 3e 28 cc df bc 90 38 3f be 28 65 8f bd
       0.15159781 -0.027319029 -0.1867392 -0.07001716
0003d0 e6 f3 ee bd 2e 58 f4 3d 84 d5 0b 3d f5 a5 c0 bd
       -0.11667614 0.119308814 0.03413917 -0.09406654
0003e0 12 6d 81 bd f0 49 da bc 40 5b e1 3c 90 7e 93 3c
       -0.06319632 -0.026646584 0.027509332 0.018004686
0003f0 4e 8b d1 3d e5 a9 41 3e 28 16 b1 bd 10 64 25 bc
       0.102316484 0.18912466 -0.08646804 -0.010094658

conv1.bias f4 [16]
000000 ee a2 1b be 39 45 41 be 35 49 27 3e 6e bf 98 bd
       -0.15198871 -0.18874063 0.1633652 -0.07458387
000010 3d 65 9b bd ef 29 9c bd 6b 01 1e 3e fb 8c 0e 3e
       -0.07587669 -0.07625186 0.15430228 0.13920967
000020 c4 3e 3c be fb 9f d3 3d 2e 1b 55 3d 8d 57 03 be
       -0.18383318 0.10333248 0.052027874 -0.12826367
000030 a2 22 e7 bd e2 98 f1 3d 6e 57 c2 bd 64 38 3c 3e
       -0.112859026 0.11796738 -0.09489332 0.18380886

conv2.weight f4 [32, 16, 3, 3]
000000 8b 67 89 bd 70 52 d2 3c 68 f5 16 bd 26 5c 81 bd
       -0.067092024 0.025674075 -0.03685513 -0.06316404
000010 8c 1e c5 bc 2b 5e 89 3d 5c 09 f5 3c 12 f6 5f 3d
       -0.024062417 0.06707414 0.02991169 0.05467803
000020 53 63 a0 bd ce 87 59 bd 02 21 2f 3d 6c 61 d7 bc
       -0.078314446 -0.05310803 0.042756088 -0.026291572
000030 b0 80 7d bd 23 c4 26 bd 20 c2 20 bb a6 16 dd bc
       -0.061890304 -0.040714394 -0.002452977 -0.026988339
000040 66 19 05 3d 9c 4f 96 bc 86 4a 14 3d 03 7e 87 3d
       0.032494925 -0.018348508 0.036203884 0.06615832
000050 fa e8 91 3d 93 45 ac 3d 91 5e 64 bd ef 6e fa bb
       0.07124515 0.08411708 -0.055754248 -0.007642619
000060 ba 21 9b 39 a6 fa de bc 18 82 8c 3c 33 b9 97 bd
       0.00029589032 -0.027219128 0.017151877 -0.07408371
000070 20 3a 75 bb 36 9c 8e bd fb 72 90 3d a3 87 89 3d
       -0.0037418678 -0.069633886 0.07053181 0.06715324
000080 00 60 dc 3c bb f5 1d bd fd 63 91 3d f9 8c 88 3d
       0.026901245 -0.038564425 0.070991494 0.066675134
000090 18 8d 31 bd cc db b1 bc 80 9a a4 bb 7b 6b 73 bd
       -0.043347448 -0.021711253 -0.0050233006 -0.059428673
0000a0 14 95 fd 3c 54 ff a3 bc 96 5e bf bc f5 56 9a 3d
       0.030954875 -0.02001921 -0.023360532 0.07536117
0000b0 a2 77 69 3d 58 6f 95 bd db 0a 19 bd 6b e8 1b bd
       0.056998856 -0.07296628 -0.03736387 -0.038063448
0000c0 df ad 9a 3d f8 12 4a 3c a0 02 66 3b f4 77 e8 3c
       0.075526945 0.012333624 0.003509678 0.02837751
0000d0 6d 34 a9 3d 5e c3 4e bd 0d 61 7b bd 17 f5 90 3d
       0.082619525 -0.050479285 -0.06137185 0.07077997
0000e0 25 97 6e 3a a1 b0 08 3d 99 99 3f 3d 5c 90 f8 bc
       0.0009101502 0.03337157 0.04677734 -0.030342273
0000f0 8d d4 ac bb 7c e2 9d bc 07 0f ef bc 51 0b 8a bd
       -0.0052743615 -0.019273035 -0.02918197 -0.0674044
000100 91 49 47 bd 96 f1 85 3d b8 05 90 3d 60 a9 7a 3b
       -0.048654143 0.065402195 0.07032341 0.0038247928
000110 41 e6 52 bd 24 15 81 bd c2 58 b9 3d e6 15 fe 3c
       -0.05148912 -0.063028604 0.09050132 0.031016301
000120 be 53 1f 3d 2b 2c 07 bd 9f 9b 8d bd 34 ea b0 3c
       0.038898222 -0.033001106 -0.06914448 0.021596052
000130 b0 2d a1 3b 39 a4 9a 3d 68 2e 17 bd a6 dd 95 bd
       0.0049187765 0.07550854 -0.03690949 -0.07317667
000140 40 46 51 bc a6 b8 ec bc 48 08 2e 3d 53 5d cb 3d
       -0.012773097 -0.028896641 0.042488366 0.099299096
000150 d0 07 9f bb 6a f0 e1 bb 9a bf 6d 3c 28 93 4f 3d
       -0.0048532262 -0.0068951147 0.014511013 0.05067745
000160 50 2a b2 3a 60 28 be 3c 84 6c dd bc a5 71 ca bc
       0.0013592932 0.023212612 -0.027029283 -0.024712393
000170 c9 1b 89 bc dd be 8c 3d b4 17 b4 bc 6f b1 b1 3d
       -0.016736882 0.06872342 -0.021983959 0.08676421
000180 55 8d 1d 3c c4 e4 1f bd 56 24 9b 3a 03 0a 73 bd
       0.009616216 -0.039036527 0.001183639 -0.05933572
000190 00 cb 47 3b 80 94 62 3c 96 91 26 3d 00 0e ec ba
       0.0030485988 0.0138293505 0.040666185 -0.0018009543
0001a0 0c 11 86 3c fe 50 00 3d 40 36 80 bb e2 54 73 3d
       0.01636555 0.03132724 -0.003912717 0.059407122
0001b0 33 0c 2d bd 87 66 83 bd 7a 06 49 3d cf 0c 97 bd
       -0.042247962 -0.0641604 0.049078442 -0.0737549
0001c0 40 c4 cc bb 88 c1 75 3c 80 e4 b0 3c 31 47 aa 3d
       -0.0062489808 0.014999755 0.021593332 0.0831436
0001d0 08 f8 07 bc f3 2c ca 3d f8 7e c6 3d d5 50 84 3d
       -0.008298881 0.09871855 0.09692186 0.0646073
0001e0 16 1a 90 3b de 2e 5a 3d 16 d6 42 bc 94 37 83 3d
       0.004397641 0.053267352 -0.011891862 0.06407085
0001f0 df 1a 87 3d 6e a7 7b bd 3a be a9 bd 59 03 81 3d
       0.06596922 -0.06143897 -0.08288236 0.06299467
000200 a3 ae 8f bd 83 3d a4 bd 18 72 44 3c 40 b4 a5 3c
       -0.07015731 -0.08019545 0.011990093 0.020227551
000210 2c 58 f6 bc 00 20 1b bc 1e c9 1e bd 4e 44 6d bd
       -0.03007134 -0.009468079 -0.03876602 -0.05792647
000220 0f 5a a2 3b 25 50 bf 3d b6 f6 31 bd 89 05 77 bc
       0.0049545835 0.09341458 -0.043448173 -0.015077003
000230 f0 9a 10 bd 77 2f 2d bb ef 53 53 3b f3 10 0c bd
       -0.03530401 -0.0026425996 0.0032246073 -0.03419585
000240 a8 a6 21 bd 81 49 99 3d 00 75 81 3b 74 d8 8f bc
       -0.039465576 0.07484723 0.003950715 -0.017559268
000250 e7 72 9e bd 7e 90 9b bd 17 fa 8f 3d 42 4d 4e 3d
       -0.0773676 -0.07595919 0.07030123 0.050366648
000260 0e 5f 7c 3d a9 f5 88 3d 19 50 84 3d 98 a3 09 3c
       0.06161409 0.06687481 0.0646059 0.00840082
000270 b2 69 82 bd 52 4d 72 3d ed e9 a5 3d f0 1b b2 bc
       -0.06367816 0.05915577 0.081012584 -0.021741837
000280 08 8d 5b 3c e3 28 44 bd e0 ab 55 bc 38 a7 9e 3d
       0.013400324 -0.047890555 -0.0130414665 0.07746738
000290 40 48 82 3d 3e 16 c6 3b 2e c7 57 bd b7 6f d4 bc
       0.06361437 0.006045132 -0.052680187 -0.025932176
0002a0 91 f1 3d bd 77 7a 6d bd b7 09 d5 bc 83 ce 73 bd
       -0.046372954 -0.05797812 -0.026005609 -0.059523117
0002b0 ee f4 73 bd 08 59 a3 bd 7a 40 70 3d aa f7 28 3d
       -0.059559755 -0.07975966 0.05865524 0.041251816
0002c0 c0 c8 97 ba 71 a9 a7 3d 60 24 39 bc b4 20 83 bd
       -0.0011580214 0.08186615 -0.011300176 -0.06402722
0002d0 f4 84 b0 3c af 47 90 3d 54 57 98 bd c4 c7 84 bc
       0.021547772 0.070449226 -0.074385315 -0.016208537
0002e0 a3 a2 16 bd 54 31 b5 3c 20 db d4 3c 90 d6 8e 3c
       -0.036776196 0.022118248 0.025983393 0.017436296
0002f0 da ec 84 bd 76 45 5a bd e5 c6 a8 3d 31 51 a3 3d
       -0.06490488 -0.0532889 0.08241061 0.079744704
000300 6a ea 34 3d fe 85 a8 bd b2 68 a0 bd 61 74 85 3d
       0.044168867 -0.08228682 -0.07832469 0.06516338
000310 56 5c 7f 3d ae e5 7a bd 3d 8c 3b 3c 80 06 40 bd
       0.062343918 -0.061254196 0.01144701 -0.0468812
000320 33 c4 a5 3d 7f 8c 18 3d a4 66 94 3c 15 d8 8a 3d
       0.08094063 0.037243363 0.01811535 0.067794956
000330 28 2a 68 3d 95 5e 16 bd 1f e8 81 3c 07 e1 2c 3b
       0.05668083 -0.036711294 0.015857754 0.0026379244
000340 30 ae 0f bd 4e 88 ab 3d 5c c0 c2 3d 92 e9 6c bd
       -0.035078228 0.083756074 0.09509346 -0.057839938
000350 1e 49 4a 3d d9 cc 5d bd 00 bc a1 3d 62 03 0b 3d
       0.049386136 -0.054150436 0.07897186 0.033938773
000360 e6 4e bc bc 9e 4c 00 3d 4c 95 a3 bd 4f b9 a3 3d
       -0.02298684 0.031323068 -0.079874605 0.07994329
000370 e0 4f 8a bd 6b 57 86 3d 3b 0d 56 bd 86 4a 28 3d
       -0.06753516 0.065596424 -0.05225871 0.041086696
000380 38 ef 59 bd 1c c1 1c bd d6 56 6f 3d de 8e 38 3d
       -0.053206652 -0.0382701 0.058432423 0.045058124
000390 88 f5 90 3d 8a 1c b8 3c 46 a4 b7 3d ec f1 ae bc
       0.07078081 0.022474546 0.089668795 -0.021355592
0003a0 76 eb 34 3d 8a 62 ef 3b 73 c6 b7 3d 98 cb 66 3d
       0.044169866 0.007305448 0.08973398 0.056346506
0003b0 a9 0f bd 3d 7b d0 a7 3d 97 e1 dd 3c 68 b2 31 bd
       0.092315026 0.08194061 0.027085109 -0.043383032
0003c0 8e 51 a1 3d 4f a8 96 3d 8c f5 b5 bc e0 be 09 bc
       0.078768834 0.07356321 -0.022211812 -0.008407325
0003d0 66 01 81 bd 4c ee 9f 3c bc e7 a9 bc 93 56 9e bd
       -0.06299095 0.019522808 -0.020740382 -0.077313565
0003e0 96 3d 6c 3d f0 24 64 bd 7e 97 65 bd d2 d1 85 bd
       0.05767592 -0.05569929 -0.056052677 -0.06534161
0003f0 a6 5a 48 bd 90 32 cb bc 64 d1 b0 3c 6a d2 89 bd
       -0.048914574 -0.024804384 0.02158422 -0.067295864

conv2.bias f4 [32]
000000 4c 05 aa 3d 77 2a 8e 3d c7 d5 50 3d 31 5f e0 3c
       0.083017915 0.06941693 0.050985124 0.02738914
000010 9e fc cd 3d d5 a5 48 bc f9 2b a0 3d 62 72 8c 3d
       0.100579485 -0.012246569 0.07820887 0.06857754
000020 f4 39 9d bd e3 34 53 bd 02 f5 89 bd d8 10 7d bd
       -0.07677069 -0.05156411 -0.06736185 -0.06178364
000030 d0 3b 74 3d f2 73 7c 3d 7b 26 89 bd 40 0e 80 3d
       0.059627354 0.06163401 -0.06696793 0.06252718
000040 3e 7c 6c bd fc 01 a0 3d 10 17 68 3d fb ed b6 3d
       -0.057735674 0.078128785 0.05666262 0.0893211
000050 91 66 80 3d 54 95 5c 38 8e 43 ca 3d 1e c8 23 bd
       0.06269563 5.259116e-05 0.09876166 -0.03998577
000060 f4 f9 e6 39 ee a8 88 3d 73 3a 7a bd 78 14 b1 3d
       0.00044055248 0.06672846 -0.061090898 0.08646482
000070 fc f5 0f bd a5 30 90 3d a0 b7 e1 bc 74 54 85 bd
       -0.0351467 0.07040528 -0.02755338 -0.06510249

fc.weight f4 [1, 5760]
000000 d1 63 78 bc 03 09 b3 bc fa d4 16 bc fb 47 3c bc
       -0.015160517 -0.021854883 -0.009206051 -0.011491771
000010 fa 18 b0 bc b0 06 e5 bc e7 33 ea bc 93 30 53 bc
       -0.021496285 -0.02795729 -0.028589202 -0.012889999
000020 15 b1 cb bc 37 ac e2 bb 96 0b 7c bc 57 7f 66 bc
       -0.024864713 -0.0069175023 -0.015383622 -0.014068446
000030 49 27 c2 bc 6a 6e df bc b0 2f 59 bb f2 dc e1 bb
       -0.023700373 -0.02727433 -0.0033139996 -0.006892794
000040 3e 91 be bc 81 fe 5e bc b5 9a 13 bc df 1b a7 bc
       -0.023262616 -0.013610483 -0.009009053 -0.020399032
000050 f1 e1 6f bc c1 63 50 bc 75 5e d5 bc 41 e0 a0 bc
       -0.014641271 -0.012719096 -0.026046017 -0.019638183
000060 cd 70 27 bc 33 17 cd bc 89 cb cc bc 5e bb 8d bc
       -0.010219765 -0.025035476 -0.024999397 -0.017301258
000070 5c e5 5b bb 1c 05 1e bc 0b 86 ba bc 15 9a 27 bc
       -0.0033553457 -0.009644773 -0.022768995 -0.010229607
000080 f4 52 91 bc e2 98 c0 bc 83 fd 0f bc a9 18 ec bc
       -0.01773975 -0.0235104 -0.008788469 -0.028820353
000090 65 06 03 bc 3d 04 14 bc 9f f5 28 bc ed 88 83 bc
       -0.00799713 -0.009034214 -0.010312467 -0.016056502
0000a0 16 e5 2f bc 39 45 92 bb dd 7e ea bc b1 f0 91 bb
       -0.010735771 -0.0044638184 -0.028624946 -0.0044537415
0000b0 00 92 c1 bb d4 c5 81 bc f8 28 cd bc e2 5d 9f bc
       -0.005907297 -0.015841402 -0.02504395 -0.019453947
0000c0 33 3d 18 bc a8 47 99 bc 55 19 b4 bc 91 ae 8d bc
       -0.009291935 -0.018710926 -0.021984736 -0.017295154
0000d0 dd 59 cd bc f1 df 07 bc fe 82 c1 bc 73 12 e7 bb
       -0.025067264 -0.008293138 -0.023622032 -0.00705176
0000e0 ee f2 a5 bb 44 51 92 bc 41 52 a1 bb c6 09 5f bc
       -0.00506436 -0.017861016 -0.0049231355 -0.01361317
0000f0 cd 56 c8 bc fe e4 1d bc 85 95 a0 bc 34 f2 5c bc
       -0.024455452 -0.0096371155 -0.019602546 -0.01348548
000100 b3 ce 26 bc 6a 8e 29 bb c0 a3 b5 bc f3 81 59 bc
       -0.010181117 -0.002587224 -0.022172809 -0.013275611
000110 9a 33 63 bb 26 a7 4a bc 81 8a 09 bc db 4f 9b bc
       -0.0034668208 -0.012368953 -0.008394838 -0.018958976
000120 c3 3a 01 bc ef 26 9c bc be cb 95 bc 2f 2b b6 bb
       -0.007887545 -0.019061534 -0.018285628 -0.005559347
000130 46 19 e0 bc 30 bb b8 bc 2b 75 af bc bf 60 0c bc
       -0.027355801 -0.022550195 -0.021418175 -0.008567988
000140 1e 46 56 bc f0 00 7f bb 20 17 f5 bb 6f 70 08 bc
       -0.013078241 -0.003891047 -0.0074795634 -0.0083275875
000150 4b 98 40 bb 8c 5e 8b bc aa 2a 45 bc d9 21 e2 bc
       -0.0029387649 -0.017012857 -0.012034098 -0.02760403
000160 c7 20 df bb 12 b7 85 bc 39 30 8f bb 5e b0 d9 bc
       -0.0068093273 -0.016322646 -0.0043697623 -0.026573356
000170 d2 09 5c bc 0d 2f c1 bb 74 eb 9b bc 3c 20 a1 bc
       -0.013430076 -0.0058955015 -0.019033171 -0.01966869
000180 e4 d0 a2 bc 9f 1c db bb f1 20 73 bc b8 43 ec bc
       -0.019874997 -0.0066867615 -0.014839397 -0.028840885
000190 63 87 d8 bb bb 01 ea bb 58 17 85 bb 82 ce a8 bc
       -0.006607936 -0.0071413196 -0.0040616207 -0.020606283
0001a0 df b6 7b bc 34 93 9a bc 60 d3 d2 bc 5b 9e 5e bc
       -0.015363424 -0.01886902 -0.025735557 -0.01358756
0001b0 db 26 e0 bc aa 7f 1d bc 96 a2 be bc 90 54 c6 bc
       -0.027362278 -0.009612957 -0.023270886 -0.024210244
0001c0 b4 1d 2f bc 51 01 8d bc 85 28 08 bc 15 be 89 bb
       -0.010688234 -0.017212542 -0.008310442 -0.0042035677
0001d0 26 1b 47 bc 57 a0 e8 bc c0 c3 78 bb ab 81 d8 bc
       -0.012152469 -0.028396768 -0.0037958473 -0.026429018
0001e0 25 62 4d bc 7e 48 70 bc e5 63 e6 bc 17 48 da bc
       -0.0125356065 -0.014665721 -0.028123805 -0.026645703
0001f0 9b bc 81 bc af 80 cc bc a8 cb 77 bb 5c ba cf bc
       -0.015837004 -0.024963705 -0.0037810598 -0.025357418
000200 10 1f d3 bc 94 90 4a bc f1 31 70 bc cf 0a c9 bb
       -0.025771648 -0.012363572 -0.014660344 -0.0061353217
000210 c5 04 91 bc d5 c9 b8 bb 43 c8 86 bb 6e 27 ca bb
       -0.01770247 -0.0056392946 -0.0041132285 -0.006169251
000220 73 50 bd bc c9 ea 90 bc b1 ae 90 bb 54 58 99 bc
       -0.02310965 -0.01769008 -0.004415356 -0.018718876
000230 3c 93 5f bc 2c df c0 bc ff 96 eb bc ad b3 bc bb
       -0.013645943 -0.023543917 -0.028758524 -0.0057587237
000240 83 b2 0d bc d0 89 85 bb c3 b5 0c bc b1 8e a9 bb
       -0.008648518 -0.0040752664 -0.008588257 -0.005174481
000250 4b 68 96 bc af 8b c2 bc f4 7f c8 bc 65 e4 e4 bc
       -0.018360278 -0.023748247 -0.024475075 -0.027940938
000260 c8 bd b4 bc eb 2e 29 bc 45 18 be bb a4 66 a1 bc
       -0.022063151 -0.0103261275 -0.005801233 -0.019702263
000270 b6 8d 12 bc 5a da 32 bc 70 0a 62 bc f5 dd c6 bc
       -0.008944919 -0.010916317 -0.013796434 -0.02427576
000280 1d 89 b3 bb 2c f0 65 bc c3 ee 96 bc 95 55 98 bc
       -0.0054789917 -0.014034312 -0.018424397 -0.018595496
000290 1f 4d 1b bc 60 93 ce bc b4 88 dc bc f4 bc d1 bc
       -0.009478836 -0.025216758 -0.026920654 -0.025602795
0002a0 53 45 d1 bc 92 ac 38 bb 1b 07 cd bc db 1f 92 bc
       -0.025545752 -0.0028179032 -0.025027802 -0.017837455
0002b0 9f 00 52 bc 69 ae 95 bc fb b8 ca bb 3c d2 e9 bc
       -0.012817531 -0.018271642 -0.006186602 -0.02854263
0002c0 0f f9 53 bc 42 6e d1 bc b1 d3 ba bb 27 91 0a bc
       -0.012937798 -0.02556527 -0.005701505 -0.008457459
0002d0 b3 b1 27 bc bb fb 06 bc 5f 9d 8f bc 97 84 a0 bb
       -0.010235238 -0.008238728 -0.017531095 -0.0048986184
0002e0 4b b0 c0 bc c1 0b a1 bc 5f a3 fa ba 70 79 01 bc
       -0.023521563 -0.019658925 -0.0019122175 -0.007902488
0002f0 63 c9 94 bc 1c 0c 67 bb c1 6f 08 bc 1a bb 24 bc
       -0.018162435 -0.003525502 -0.008327425 -0.010054374
000300 7d bb b8 bc 02 0f 46 bb 0b 8a 76 bc df 9d 7b bc
       -0.022550339 -0.0030221348 -0.01504756 -0.015357464
000310 6f 39 9b bc 75 77 d5 bc c2 e4 a9 bb 36 9b 59 bc
       -0.018948285 -0.026057938 -0.0051847408 -0.013281634
000320 d7 65 a2 bc 66 b6 8f bc 79 85 63 bc 15 a1 38 bc
       -0.019823952 -0.017543029 -0.013886803 -0.011268874
000330 0a 54 49 bc eb f4 26 bb 0f b6 99 bb 2b 9c 55 bc
       -0.012288103 -0.0025475572 -0.0046908925 -0.013037722
000340 47 65 05 bc 05 62 9a bc 3d 6d da bc 63 6f 5b bc
       -0.008141822 -0.018845567 -0.026663417 -0.013393256
000350 c7 0a 89 bb fc f1 c4 bb dc 2f bf bb 9a a0 16 bc
       -0.004182193 -0.006010292 -0.0058345627 -0.009193564
000360 73 ed d6 bb 2d 2d 83 bc 23 e6 e1 bb 50 aa b9 bc
       -0.006559068 -0.016012752 -0.0068938895 -0.02266422
000370 fb 0b fc bb c1 b7 08 bc 0a ee 43 bc 56 40 23 bc
       -0.007691858 -0.008344592 -0.011958608 -0.009964069
000380 70 57 95 bc 43 25 24 bb 1c 67 95 bc 7f da 1b bc
       -0.01823017 -0.0025046624 -0.018237643 -0.009512543
000390 dd 41 b0 bc 96 d7 06 bb b6 8b 9f bc 21 60 d9 bc
       -0.021515781 -0.0020575277 -0.019475799 -0.026535096
0003a0 c0 d4 85 bc ed b3 30 bc 7b 24 fa bb 54 27 55 bc
       -0.016336799 -0.010785085 -0.0076337433 -0.013009865
0003b0 4b 93 e3 bb 04 2c c6 bc 00 c7 59 bb 9f 84 ba bc
       -0.006945049 -0.02419091 -0.0033230186 -0.022768317
0003c0 f5 7e c1 bc 1f df 88 bc 3f b6 8e bb 75 ae b6 bc
       -0.023620108 -0.016707955 -0.0043552215 -0.022299984
0003d0 fc 80 8d bc 66 1e 7c bc de c9 aa bb c0 8f ca bc
       -0.017273419 -0.015388107 -0.0052120527 -0.024726748
0003e0 8a ac 40 bc ab 0c f0 bb 70 e7 c3 bc 24 9e 91 bc
       -0.0117598865 -0.007325729 -0.023914069 -0.017775603
0003f0 f0 69 43 bc 97 4f d3 bb 6c a6 b1 bc f6 1f ab bb
       -0.011927113 -0.006448697 -0.021685801 -0.005222316
