saved_models/pd_model_0x31_w.pth (torch, 1871 bytes, 3 tensors)

fc1.weight f4 [8, 4]
3.5919192 3.529174 0.5795638 -0.6557816 2.9205832 2.993055 -0.70714325 0.66831684
3.4408689 3.37276 -0.41461426 0.3427014 -2.2196734 -2.003567 -0.103608996 -0.5059962
1.6523827 2.0696535 1.230084 -0.57086897 -2.8650815 -2.7854002 -0.12788497 -0.48162314
-2.2740023 -2.3815932 -0.5739294 -0.34442067 2.659795 3.4449463 -0.10476669 0.0038099575
00000000: 01e2 6540 fddd 6140 4b5e 143f 4ee1 27bf
00000010: d6ea 3a40 378e 3f40 5707 35bf d016 2b3f
00000020: 3237 5c40 4ddb 5740 5248 d4be 8f76 af3e
00000030: 210f 0ec0 713a 00c0 f430 d4bd f888 01bf
00000040: 4781 d33f 3475 0440 6473 9d3f 7824 12bf
00000050: 7f5d 37c0 ff43 32c0 47f4 02be 4f97 f6be
00000060: 4189 11c0 066c 18c0 0aed 12bf e857 b0be
00000070: 153a 2a40 007a 5c40 eb8f d6bd 7bb0 793b

fc1.bias f4 [8]
-0.289965 -0.24196821 -0.2812966 -1.173584 -0.14993538 -0.9444407 -0.65112 -0.21934976
00000000: 4b76 94be 84c6 77be 1c06 90be 0038 96bf
00000010: a988 19be dec6 71bf cdaf 26bf 399d 60be

fc2.weight f4 [1, 8]
2.6347163 2.2252662 2.174081 -0.9277511 0.90206 -1.1855019 -0.47428715 2.2792723
00000000: 319f 2840 c36a 0e40 2524 0b40 1981 6dbf
00000010: 67ed 663f 87be 97bf c4d5 f2be 99df 1140
