saved_models/pd_model_0x31_s.pth (torch, 1871 bytes, 3 tensors)

fc1.weight f4 [8, 4]
00000000: 30f3 99be 8852 a23e 9416 ffbe b04d 32be
00000010: fcab a8be 9c52 d9be 304b ce3e ca21 e63e
00000020: d6c3 9dbe a0a3 acbe a217 9fbe 2c83 6ebe
00000030: 72de fb3e 88be 513e 90ae 8dbd 5075 f9be
00000040: 5c6b 75be 08c5 a13e 38e6 693e c0f7 963e
00000050: 9876 a73d 4079 3abe 4e8d 9ebe 369e bcbe
00000060: 7882 533e bc17 4bbe c001 d8bd d238 ccbe
00000070: c4d4 973e 6ca0 1ebe e0a3 87bc 2042 e73d
-0.3006835 0.3170359 -0.49821913 -0.17412448 -0.32943714 -0.42445838 0.4029174 0.44947654
-0.30813473 -0.33718586 -0.31072718 -0.23292226 0.4919315 0.20482838 -0.06918061 -0.48722315
-0.23966736 0.31595635 0.22841728 0.29485893 0.08176917 -0.18210316 -0.30967182 -0.36839455
0.20655239 -0.19833273 -0.10547209 -0.398871 0.29654515 -0.15490884 -0.016557634 0.11291909

fc1.bias f4 [8]
00000000: 80a3 ecbe 3443 e03e fc67 be3e 1a10 e0be
00000010: 9061 1fbd e433 123e 0099 d93d 185a 59be
-0.4621849 0.43801272 0.3718871 -0.43762285 -0.038911402 0.14277607 0.106248856 -0.21225774

fc2.weight f4 [1, 8]
00000000: 8e93 7b3e 1e68 14be 18ee 9cbe c08b 5d3c
00000010: 10d4 593d f4ee 0e3e 3a1b 283e ebf7 833e
0.24568006 -0.14492843 -0.306504 0.0135220885 0.053180754 0.13958341 0.16416636 0.25775084
