saved_models/pd_model_0x31_w.pth (torch, 1871 bytes, 3 tensors)

fc1.weight f4 [8, 4]
00000000: 20df f7bf 1c4b c3bf f628 1ebe d335 74be
00000010: fde2 6e40 1951 9240 1294 c83c ad30 8fbd
00000020: 456b be40 06d4 df40 78b0 cebe 4022 ab3e
00000030: 1986 123e 11b7 003e 6db5 7c3d ea04 dcbc
00000040: 1ff8 5ac0 5fd9 cfc0 2b5e 6abd 8369 9e3d
00000050: a4db d6bf 0046 d5bf c49f 86be f123 14be
00000060: 750d e8bf 534d c0bf f96c b3be 8887 66be
00000070: bf0d 6e40 afdb 7240 91b7 6c3e 33af 8cbe
-1.9364967 -1.5257297 -0.15445313 -0.23848657 3.7326043 4.5723996 0.024484668 -0.06991706
5.9505944 6.994632 -0.4036901 0.33424568 0.14308967 0.12569834 0.06169646 -0.026857812
-3.421394 -6.4952846 -0.05721871 0.077349685 -1.6785779 -1.6661987 -0.26293766 -0.14466836
-1.8129107 -1.5023597 -0.35044077 -0.22512639 3.719589 3.7946584 0.231169 -0.27477416

fc1.bias f4 [8]
00000000: f075 0cbf ffda 84be 8858 d3be 42b4 d0be
00000010: a00b 6c40 04aa 23bf 7273 9dbf bfe9 80be
-0.5486746 -0.2594833 -0.4127848 -0.40762526 3.6882095 -0.639313 -1.2300856 -0.25178334

fc2.weight f4 [1, 8]
00000000: cc1e 99bf 1d5c ef3f f3f3 7b40 78e6 5cbe
00000010: 7ff7 76c0 7e42 34bf 7f20 0ebf 4d8a 0940
-1.1962523 1.8699986 3.9367645 -0.21572292 -3.858856 -0.7041396 -0.55518335 2.1490662
